logs_800/logs/target_params_A_675.pt (torch, 6263 bytes, 6 tensors)

0.weight f4 [24, 12]
000000 3f ec 33 40 75 54 d0 3f f9 0b b1 3c ef b0 00 3e
       2.8112943 1.6275774 0.021612154 0.12567495
000010 55 37 63 be b9 91 59 bd 99 09 3f be 75 5e 25 be
       -0.22189076 -0.053117488 -0.18656005 -0.16149314
000020 05 99 9f 40 28 79 58 be d0 ed c7 3e 40 c0 99 3f
       4.987429 -0.21139967 0.39048624 1.2011795
000030 47 6a 29 c0 62 fb ec 3e 0f cd 45 3e 32 65 09 be
       -2.6471117 0.4628554 0.19316505 -0.13417509
000040 66 c2 52 40 21 ec 8e bf 8e e6 96 be 1e 0f d6 3f
       3.2931151 -1.1165811 -0.29472774 1.6723363
000050 83 a3 5c c0 64 40 48 3d 35 1c 86 3f 9b 8b 65 bf
       -3.44748 0.048889533 1.0477358 -0.89666146
000060 bd 46 93 3f aa 56 cb bf 22 64 00 3e c3 01 25 be
       1.1505963 -1.5885823 0.12538198 -0.16113953
000070 97 84 9a bf 5f f7 af 3f 53 3f f3 bf e8 95 83 3e
       -1.2071713 1.3747367 -1.90037 0.25700307
000080 0d be 44 c0 c0 80 14 3d 40 39 9a 40 f2 db 01 41
       -3.0740998 0.036255598 4.8194885 8.116198
000090 79 04 8a c0 a1 f4 8b 3b e8 c4 1a be 3f 88 c0 be
       -4.313046 0.0042711054 -0.15114176 -0.37603948
0000a0 af 5a e6 c0 90 30 0d c1 99 c5 6b bf a0 cb 25 40
       -7.19857 -8.824356 -0.92098385 2.5905533
0000b0 9f af de bf d4 34 01 40 27 4c c4 c0 19 19 5c c0
       -1.7397345 2.0188494 -6.134296 -3.4390318
0000c0 9c f2 bb 3f e1 df 00 c0 f1 29 03 3e 72 7c 61 3f
       1.4683414 -2.0136645 0.12808968 0.88080513
0000d0 aa 44 f6 be 6e bb b2 3c c6 50 56 bf 82 20 03 40
       -0.48099262 0.021817889 -0.83717 2.0488591
0000e0 ed 84 d8 c0 a6 30 f0 3f 09 ec 86 3f a9 2a c5 c0
       -6.7662263 1.8764846 1.0540782 -6.1614575
0000f0 61 40 c1 bf 72 ad 65 c0 c6 2b c2 3e 7a 36 c6 3f
       -1.5097772 -3.5887113 0.3792402 1.5485375
000100 b9 dd bb 3f 48 9b 62 3f 3f 6e 86 c0 03 34 11 c0
       1.4677039 0.8851819 -4.200958 -2.2687995
000110 6d f9 6e 40 42 10 05 c0 5a 24 8a 40 f8 78 50 c1
       3.7339737 -2.0791173 4.3169374 -13.029533
000120 be 34 42 c0 d3 e0 e3 3e 1f 6f a2 3f 32 61 bd c0
       -3.0344691 0.44507465 1.2690161 -5.9181147
000130 e8 fe 60 bf 99 33 e3 bf f7 da 1e bf 41 38 dd 3f
       -0.87888956 -1.7750121 -0.62052864 1.7282792
000140 ee 6f 4e be 08 a0 70 40 f4 25 0d c1 43 ba 49 c1
       -0.20159885 3.7597675 -8.821766 -12.607974
000150 c0 94 1d 40 61 86 83 40 46 28 8d bf f9 0f e8 be
       2.462204 4.1101537 -1.1027915 -0.45324686
000160 11 2e e2 c0 c4 51 93 c0 0f 07 46 bf 4e 4a ed bf
       -7.0681233 -4.603731 -0.7735452 -1.8538301
000170 cf 2f ec 3f 37 0d 2a bd 98 2a f7 3e c4 60 01 c0
       1.845209 -0.04151651 0.48274684 -2.021531
000180 03 fa b5 3f de 4c aa c0 48 03 3e 3e 83 e2 2c 3f
       1.4216923 -5.321883 0.18555939 0.6753313
000190 f6 fe 56 3f 7a 83 ef 3f bb 93 a6 bd d3 33 bd 3f
       0.8398279 1.8711998 -0.08133646 1.478144
0001a0 96 20 96 3e 88 de 4e 3f 7f 65 5a 40 53 d2 29 be
       0.29321736 0.80808306 3.4124448 -0.16584139
0001b0 d9 b4 6a 40 7d 24 0f 3f a8 26 0e bf 0d 68 0c c0
       3.667288 0.5591505 -0.55527735 -2.1938508
0001c0 a9 3d b1 3f db bd 12 c0 ad 90 31 bf 18 4b a3 bf
       1.3846942 -2.2928379 -0.6936138 -1.2757292
0001d0 44 0d 66 bf 13 bb 67 c0 94 3a bf be 37 15 34 3f
       -0.8986399 -3.620793 -0.3734938 0.7034487
0001e0 f7 20 8d 40 ce 8c 70 c0 2e ee 1a c0 d0 35 7d c0
       4.410274 -3.758594 -2.4207873 -3.9564095
0001f0 8c b2 09 c0 e9 3e 00 40 9a 1a 64 c0 43 81 2d c0
       -2.1515226 2.0038397 -3.5641236 -2.7110145
000200 13 14 59 40 2c a2 9b be b3 70 5c 40 34 e9 a8 c1
       3.3918502 -0.30397165 3.4443786 -21.113869
000210 ef 1b 89 bf b8 34 c9 bf a5 d9 f3 3e 1c a1 3d 3e
       -1.071165 -1.5719213 0.47626987 0.1851849
000220 3e 43 b5 bf 0d fc 98 bf 42 d5 93 be b4 2f 2d bf
       -1.4161146 -1.195192 -0.2887364 -0.67650914
000230 15 27 1f 40 bd 62 43 c0 e4 cf 3a c1 5a 95 d7 3e
       2.4867604 -3.0529015 -11.675755 0.42106134
000240 91 5a 31 3f be 0c 63 40 23 c8 8e be 2f a0 a9 3f
       0.6927882 3.5476527 -0.27887067 1.3252009
000250 a4 bf d3 3d 02 5c 97 3e 41 8d 34 c0 29 b7 93 c0
       0.10339287 0.29562384 -2.8211215 -4.6161084
000260 00 3e 1a 40 dc bf 52 3f a8 e0 30 bf a5 46 0e 40
       2.4100342 0.82324004 -0.690928 2.2230618
000270 01 d4 84 bf e4 9d 12 3e bf 9e 79 bf f5 41 aa bf
       -1.0377198 0.14318043 -0.9750785 -1.3301378
000280 9e 36 0d 3f 53 65 08 40 dd e4 70 3f 42 a2 75 3e
       0.55161464 2.1311843 0.9409922 0.23987678
000290 f9 c9 84 3e 6b 1f 9c c0 08 14 98 c0 99 32 db c0
       0.25935343 -4.878835 -4.752445 -6.8499265
0002a0 ce 44 00 c0 c3 06 bb be 9f 35 fd bd 48 49 8a bd
       -2.0041995 -0.36528596 -0.12363743 -0.067522585
0002b0 42 40 ed 3d f6 79 ee 3d 3c 50 b5 3c 1d c1 0b bd
       0.11584522 0.11644356 0.022132985 -0.034119714
0002c0 33 66 14 c1 9b 85 7e be c6 bc 62 bd 09 2a e8 bc
       -9.274951 -0.24855654 -0.05535581 -0.028340356
0002d0 3e 3e 25 40 e3 55 8d 3f 73 f2 db be 0d 93 1c bf
       2.581924 1.1041836 -0.42958412 -0.6116188
0002e0 32 d2 18 3f 54 a9 0e 3f 87 ab 07 be 69 23 d4 3e
       0.5969573 0.55727124 -0.13249026 0.41433266
0002f0 af 48 fd 40 a9 79 a3 bf 41 4c b4 be dc 3e 24 c0
       7.9151225 -1.2771503 -0.35214427 -2.5663366
000300 4d 5c 0c 3e bd 94 1b bf 6d dc cb 3e 5a 90 0f 3f
       0.13707085 -0.6077383 0.3981661 0.5607964
000310 5c 53 8a 3f c5 7c 03 3e 49 2f 31 3f e3 d4 81 be
       1.0806689 0.12840565 0.69212776 -0.25357732
000320 17 9b 18 41 bd ed 30 3c b3 67 da be 16 a9 4d 3f
       9.537864 0.010798869 -0.4265724 0.8033613
000330 07 8d 82 bf 7c 49 8e 40 fc 8b 54 3f 6c 99 bd bd
       -1.0199288 4.4464703 0.830261 -0.092577785
000340 b3 4c 4d c0 82 94 08 3f 36 d3 76 be e4 69 f3 3f
       -3.2078063 0.53351605 -0.24104008 1.901669
000350 87 6e 63 c0 d6 81 e6 bf 1c 9c d4 40 f4 9a 72 40
       -3.553621 -1.8008373 6.6440563 3.7907076
000360 87 06 f4 3f da 6a 1c 40 cb a6 4a be 3e b3 b7 3e
       1.9064492 2.4440217 -0.19790189 0.35878938
000370 3a 69 91 bf e2 9e 24 be 9e 07 64 c0 28 41 15 bf
       -1.1360238 -0.16076234 -3.562965 -0.58302546
000380 d7 ef 48 40 3f 4d 0a 40 68 c8 a6 40 ba 01 01 c1
       3.1396387 2.1609647 5.2119637 -8.062922
000390 06 6d a6 bf af a6 19 40 d3 95 b1 3f 1b a8 07 40
       -1.3002021 2.4007986 1.3873848 2.1196353
0003a0 00 9a b0 bf df c4 a5 3f 43 f5 86 3f 83 33 06 c0
       -1.3796997 1.2950705 1.0543598 -2.096894
0003b0 28 a8 8f c0 54 5b 8d 40 d5 c2 13 40 6b e5 f0 40
       -4.489277 4.4173985 2.3087666 7.528005
0003c0 13 0c 8c be 58 92 58 c0 fc fa 0b 40 ea 8f ab 3f
       -0.27352962 -3.383932 2.1871939 1.3403294
0003d0 9d ac dc 3e af ef aa bf 26 75 ce c0 a3 52 8c be
       0.43100443 -1.3354396 -6.4518003 -0.27406797
0003e0 5d 4c 9a be f7 12 4c 40 10 50 0a c1 c6 e5 30 c1
       -0.30136386 3.1886575 -8.6445465 -11.056097
0003f0 98 6e 36 bf e7 37 ba bf a2 97 05 bd 05 39 f0 bd
       -0.712625 -1.454831 -0.03261531 -0.117296256

0.bias f4 [24]
000000 a2 24 8b c0 20 9f 29 3f 0d 66 bb 3f ac 11 ab 3f
       -4.348222 0.6625843 1.4640518 1.3364768
000010 f9 d9 44 40 d2 7b 16 3f bd 58 69 be 4a 47 48 40
       3.075804 0.58782685 -0.22787757 3.1293511
000020 37 35 88 be 6a c0 0d 40 e5 a3 90 40 be 69 ef 40
       -0.266031 2.214869 4.5200067 7.481658
000030 44 3d d0 3f 0c d7 8e 40 63 fa 04 41 4a fd b9 bf
       1.6268697 4.463751 8.31113 -1.4530423
000040 b7 86 7c bf d8 51 e4 3f 75 89 68 bf 60 bd 4e 40
       -0.9864306 1.7837477 -0.9083474 3.2303085
000050 93 f9 d4 3f 51 27 05 41 56 e2 10 3f 29 47 07 bf
       1.6638664 8.322099 0.5659536 -0.52842957

2.weight f4 [24, 24]
000000 bc da d6 be ae 19 49 c1 06 74 55 c1 44 0f ca c0
       -0.41963756 -12.568769 -13.340826 -6.3143635
000010 90 f6 aa bf 4a c6 bf 3f ae b1 bb c0 45 ba a9 c0
       -1.3356495 1.4982388 -5.8654394 -5.303988
000020 88 33 2d bf a6 ec 81 bf 56 8e 9b bf b0 11 ab 40
       -0.67656755 -1.0150344 -1.2152812 5.345909
000030 67 0f d2 bf b0 7b 58 3f 67 7b 75 40 81 a1 d4 bf
       -1.641095 0.8456373 3.835657 -1.6611787
000040 e7 79 65 bf ff 3a d2 c0 84 ec 0b 40 06 d8 13 c1
       -0.89639133 -6.5697017 2.1863108 -9.24024
000050 9f 69 41 c1 84 28 92 c0 3c 84 70 40 88 d9 f8 3e
       -12.088286 -4.5674458 3.758071 0.48603463
000060 12 8e 3b bf 1c 5c aa c0 cf fa 17 c1 7c 35 d1 bf
       -0.7326366 -5.323744 -9.498733 -1.6344447
000070 22 9d 48 c0 a5 51 b0 be cc 1f b3 c0 05 36 9f 3e
       -3.1345906 -0.3443729 -5.5976315 0.310959
000080 d4 b5 0d bc ca 72 d0 c0 35 fb 1f c0 f6 53 8b c0
       -0.008649308 -6.5140123 -2.4997075 -4.353999
000090 5c 28 68 40 3e e3 0e c1 63 a3 9d 3f 2e c0 6c bf
       3.6274633 -8.930479 1.2315487 -0.9248074
0000a0 bf fd 04 3e 4d ce 88 c0 81 99 83 40 29 ef 2a c1
       0.12987421 -4.275183 4.1124883 -10.683389
0000b0 9a c1 20 c1 39 8c 85 c0 ff d0 fb 3f a0 af 8b 40
       -10.047266 -4.173367 1.9673156 4.3651886
0000c0 f1 2e 1c 40 cf 80 b1 c0 77 23 2c c0 13 b1 3c 40
       2.440365 -5.5469737 -2.6896646 2.9483078
0000d0 4b 45 ff c0 7e 28 91 bf d2 1b 1d 3f 45 26 18 c1
       -7.9772086 -1.1340482 0.61370575 -9.509343
0000e0 24 15 f9 bf a3 eb 92 c0 81 df ab 40 d1 a3 d1 40
       -1.9459577 -4.5912642 5.371033 6.551247
0000f0 8b 92 31 c0 4a 91 36 c0 23 aa 81 40 6e a5 6d be
       -2.7745693 -2.8526177 4.0520186 -0.23207638
000100 0d 5f e0 bf 8a e9 84 c0 3e 5a 23 be ee 58 54 c0
       -1.7529007 -4.153508 -0.15952393 -3.3179278
000110 c6 08 52 c0 5b 2a 82 c0 db 60 36 40 0f 5f 5e 3f
       -3.2817855 -4.0676703 2.8496616 0.868638
000120 36 3d 8a c0 53 dc aa c0 a7 53 bb c0 17 5d 8c c0
       -4.319972 -5.339395 -5.8539615 -4.3863635
000130 e9 38 d3 c0 fb 1b a4 3f 32 77 94 c0 08 79 8d c0
       -6.600697 1.2821039 -4.63955 -4.4210243
000140 5d a0 a3 bf f2 d4 65 c1 f9 b8 4c 3b 28 a8 93 40
       -1.2783314 -14.364489 0.0031238182 4.614277
000150 5e 05 9c c0 2f 9d 1b bf d3 a4 21 3f d6 cd 86 bd
       -4.875655 -0.6078672 0.63142127 -0.06582229
000160 33 7f 41 bf 9d 5d ee be 70 89 6f 3c d6 16 e6 c0
       -0.75584716 -0.46555796 0.01462017 -7.1902876
000170 bd e5 1b c1 f6 fd 29 c0 3f 16 34 40 f9 3c 28 bf
       -9.743588 -2.6561255 2.8138578 -0.65718037
000180 d2 f3 12 40 fe 96 9b bd 8b 58 78 bf 47 cb d4 3f
       2.2961316 -0.07597159 -0.97010106 1.6624535
000190 9c c8 01 c0 cb b3 91 be a8 ce 79 3f fc 90 b2 3f
       -2.0278692 -0.28457484 0.9758096 1.3950496
0001a0 02 75 79 be 7c a0 d2 3f 53 b7 4d 40 98 69 69 40
       -0.24361041 1.6455226 3.2143142 3.64707
0001b0 a2 ac 02 c0 26 e0 53 3e 0b 5f 9e 3e 4d e9 7b 40
       -2.0417867 0.20690975 0.30931887 3.9361145
0001c0 9d 0c 8b 40 0b 02 bb 3f 81 06 20 40 0e 45 75 bd
       4.3452897 1.4609998 2.500397 -0.05988031
0001d0 16 fb 0d c0 49 b0 b8 40 48 13 a0 40 9f b8 a8 bf
       -2.21845 5.771519 5.0023537 -1.3181342
0001e0 70 94 a0 be dc f1 20 bc 98 c9 11 bf f3 f5 9b be
       -0.3136325 -0.009823289 -0.5694823 -0.30461082
0001f0 43 6b 62 be 59 f6 e7 bc 04 7c 92 be cd 50 c7 be
       -0.2211123 -0.02831571 -0.2861024 -0.38928834
000200 c5 bf b5 be 61 c4 25 3e 89 de 1c 3d 03 ee 2b 3e
       -0.3549787 0.16188194 0.038298164 0.16790013
000210 15 eb 8a be e6 3b 58 bd fa f3 95 be 17 31 da be
       -0.27132478 -0.0527915 -0.29287702 -0.42615578
000220 e2 a4 3c be 74 38 13 bf e0 d0 17 be 0f f6 c9 be
       -0.18422273 -0.57508016 -0.14825773 -0.3944554
000230 1b 78 8c be d4 2e 0c bf 00 7a 00 3f 4a 36 3d be
       -0.27435383 -0.54758954 0.5018616 -0.18477741
000240 66 8c 9c 3f df 2f 15 3f 6c 2b be 3f d5 5b d6 3f
       1.2230346 0.5827617 1.4857001 1.6746775
000250 d7 c3 a7 3f 90 2d ea c0 51 0e 81 40 73 89 d3 3f
       1.310664 -7.318062 4.0329976 1.6526321
000260 72 00 8b bf 83 c1 1d 3c 20 0a d8 3e 07 f4 f1 be
       -1.0859511 0.009628656 0.42195225 -0.4725649
000270 56 c4 91 bf 83 65 d3 3f 81 39 c2 40 b2 a4 a2 3f
       -1.1388042 1.6515354 6.0695195 1.2706511
000280 00 e4 b5 bf 7f f5 1c 3f 79 51 b3 bf 37 00 09 3f
       -1.4210205 0.613121 -1.4009238 0.5351595
000290 c7 51 09 40 49 2c d6 c0 97 88 d2 bf 47 eb f8 bf
       2.1456163 -6.692906 -1.6447934 -1.9446801
0002a0 37 43 4a 40 eb 56 81 c0 f7 e9 72 c0 3c a1 81 3f
       3.1603525 -4.04186 -3.79553 1.012733
0002b0 a2 11 86 3f 68 54 0c c1 2d 09 df be 66 2f de c0
       1.0474131 -8.770607 -0.43561688 -6.943286
0002c0 29 d8 73 3d a8 55 ab 3e 77 ad 94 40 8f d6 a7 3f
       0.05953232 0.33463788 4.646175 1.3112353
0002d0 3a 16 b2 3f 4b a5 95 bf e3 d4 31 3f 57 29 98 3f
       1.3913033 -1.1691068 0.69465464 1.1887616
0002e0 6f fe c9 bf a0 7a e3 3f cc 11 5c c0 ab 70 7c c0
       -1.5780772 1.7771797 -3.4385862 -3.9443767
0002f0 37 db dc c0 33 1a ba c0 bc 0c 4c be e5 1f cd 3f
       -6.9017596 -5.815698 -0.19926733 1.6025358
000300 5a c0 43 40 4c 55 c5 bf 09 40 3b c1 42 f3 e6 bf
       3.0586152 -1.5416656 -11.703134 -1.8042986
000310 89 63 0e c1 33 e0 a5 40 e2 9d fa bf 5c fc c4 3c
       -8.899301 5.183618 -1.9579432 0.024046116
000320 f8 48 b5 3e 3b b7 27 bf 55 b5 dc 3f 6e e3 5a 40
       0.35407233 -0.6551396 1.7242838 3.4201312
000330 29 5c a2 c1 d7 49 60 bf f8 4d d7 c0 16 9e 36 be
       -20.295 -0.8761267 -6.7282677 -0.17833742
000340 c2 3b 54 3e b0 6d b8 3e 2f 00 04 3d c6 8b cd bf
       0.20725921 0.36021185 0.032226738 -1.605828
000350 b7 2d 85 c0 2d cd 12 c0 90 1c 6e bf 0d d0 26 3f
       -4.1618304 -2.293773 -0.9301233 0.6516121
000360 9b a0 40 3f 75 15 d1 bf 6e 60 20 bf 6e ae 91 3f
       0.75245064 -1.6334673 -0.6264714 1.1381357
000370 90 d1 24 c0 b1 aa c2 40 b0 44 d6 40 55 10 65 c1
       -2.5752907 6.0833364 6.6958847 -14.316487
000380 86 3f 10 c0 44 c9 3e c0 db 5b 35 3f 20 3a 8c 40
       -2.2538772 -2.9810343 0.70843285 4.3820953
000390 10 d9 57 c0 fc e1 9a bf 1d f5 13 41 b6 c6 19 40
       -3.3726234 -1.2100215 9.247342 2.4027534
0003a0 38 ad 43 40 cf 61 9a bf a3 4d b8 40 45 b9 eb bf
       3.0574474 -1.2061099 5.759477 -1.8415915
0003b0 0e b9 d5 c0 b4 e4 2f c1 43 42 8a c0 6a e8 8a 40
       -6.6788397 -10.993336 -4.3205886 4.340871
0003c0 34 e3 9d 3f 2b 99 88 3f fe a7 f3 3f f7 a8 52 40
       1.2334962 1.0671743 1.9035642 3.2915628
0003d0 23 a4 02 40 29 54 1d bf 63 32 03 c0 9f 09 d0 be
       2.041268 -0.61456543 -2.0499504 -0.4063234
0003e0 39 ca ca bf bd 3a 5f 40 75 80 1a 40 9c cd 5b 40
       -1.5842963 3.48796 2.4140904 3.4344244
0003f0 b5 11 85 bf 87 3f 46 40 4d f9 47 c1 2b 60 c9 be
       -1.0396029 3.0976274 -12.498364 -0.39331183

2.bias f4 [24]
000000 c1 42 db 3e 8f ea 17 bf 34 6b c3 3f c4 5b 22 be
       0.42824367 -0.59342283 1.5267091 -0.15855318
000010 91 bb be 40 60 76 d0 be b2 60 4d c0 ed c9 7b c0
       5.9603963 -0.40715313 -3.2090268 -3.9341996
000020 ba 04 ec bf 69 6f 6d 3f f8 c7 66 bf eb 5e 4a 40
       -1.8438942 0.92748123 -0.9014888 3.1620433
000030 c4 2d 2c 40 cc 43 5f c0 44 7e 96 bf 8d 1b c2 3f
       2.6902933 -3.488513 -1.1757283 1.5164658
000040 c5 c3 29 40 cc 56 9c 3f dd 72 f4 bd 3c 48 da bf
       2.6525738 1.2213988 -0.11935971 -1.7053294
000050 a5 e9 a3 bf 27 56 53 be 7e cb 79 3e 50 47 6a 40
       -1.2805678 -0.20638333 0.24394032 3.6606026

4.weight f4 [4, 24]
000000 70 94 3c 3e 9f 4c d1 3f c4 5a 4a 41 cd 70 3c c1
       0.18416 1.6351508 12.64716 -11.777539
000010 e5 d7 19 40 93 80 89 be f3 51 4b c0 35 b4 7b 3f
       2.4038022 -0.26855907 -3.1768768 0.9832185
000020 67 64 74 c0 03 cb 80 3f ba fe 14 c0 c8 89 76 3d
       -3.818628 1.0061954 -2.3280473 0.060189992
000030 23 a3 af 40 50 24 a4 40 00 fd ca 40 f7 23 79 40
       5.488664 5.1294327 6.343384 3.8928201
000040 b0 62 07 bf ef b0 ab 40 70 37 25 c0 91 cb 77 c0
       -0.5288496 5.3653483 -2.5815086 -3.8717997
000050 92 25 d8 c0 13 77 1e 3d 85 9e f8 c0 cd a3 62 40
       -6.754586 0.038687777 -7.7693505 3.5412476
000060 bc f8 e3 40 e8 eb 7f 40 1a c7 8f 3f 86 8a 08 40
       7.124113 3.9987736 1.1232636 2.1334548
000070 92 e4 30 40 51 4c 3a bf 2b 5c 01 3e 58 e0 20 40
       2.7639508 -0.727727 0.12632816 2.5136929
000080 f5 31 35 c1 d4 04 a0 40 d5 d5 96 c0 98 55 bb 3f
       -11.324697 5.0005894 -4.7136025 1.4635496
000090 5e 4b b1 40 f4 ca 24 c0 e9 c6 8e 40 a9 9e 61 40
       5.54045 -2.5748873 4.461781 3.5253088
0000a0 4b f4 85 c0 cd 58 24 41 ee b3 4c 40 46 14 a2 c0
       -4.186071 10.27168 3.198482 -5.064975
0000b0 a6 97 c3 3f d4 bd 3c 3d b8 04 17 41 ee 8c 22 bd
       1.5280654 0.04607947 9.438652 -0.039685182
0000c0 bd 3a fe bc 6b d7 31 3d de 3e f4 40 84 ae 29 c0
       -0.031033868 0.04341833 7.632674 -2.6512766
0000d0 67 41 09 40 ea a4 85 3e a2 6d 60 c0 15 51 d3 3f
       2.1446168 0.26102382 -3.5066915 1.6509119
0000e0 92 f6 ce 3e 4f ba 28 40 92 55 bb bf 9b 23 85 be
       0.40422493 2.6363714 -1.4635489 -0.26003727
0000f0 d1 04 82 40 cf 0a 23 41 33 23 b4 bf 55 c3 e7 3f
       4.063088 10.190139 -1.4073242 1.8106486
000100 8a f2 aa 3f cb a2 1c 41 f0 4d 7f c0 af 55 0a c0
       1.3355267 9.789744 -3.989132 -2.1614797
000110 8a 37 8e 40 1a 01 c2 3d 23 54 99 bf 15 5a 40 40
       4.4442797 0.09472866 -1.1978801 3.0054982
000120 b4 3f cf 40 03 79 25 41 5d 08 e3 c0 69 90 4d 41
       6.4765263 10.342044 -7.094771 12.847756
000130 1b c6 64 40 c0 fb e7 bd 04 4d 64 3f 86 9d b0 c0
       3.5745914 -0.113273144 0.89180017 -5.519229
000140 13 0d cc 40 e6 50 7f 40 4b 26 49 c0 06 fd 80 c0
       6.376596 3.9893126 -3.1429622 -4.0308867
000150 3a 68 d1 40 86 a8 90 c0 1e b7 14 41 2d 0b 54 40
       6.543973 -4.5205717 9.294706 3.313182
000160 c4 23 49 bf 06 90 0b 41 ed ef 62 40 3e 15 1f c0
       -0.785702 8.722662 3.545894 -2.4856715
000170 a7 f7 eb be e3 e0 a3 bd 35 4d e5 40 08 d8 8b 3e
       -0.4608738 -0.08001878 7.1656747 0.27313256

4.bias f4 [4]
000000 c8 a1 7e 40 ea 99 9e 40 3e a3 8c 40 a8 0a 86 3f
       3.9786243 4.9562883 4.394927 1.0472002
