logs_800/logs/target_params_A_125.pt (torch, 6263 bytes, 6 tensors)

0.weight f4 [24, 12]
00000000: e404 5240 979a 863f b8cd 5fbf 82f4 4d3f
00000010: 768c 173f f155 8cbf d4a5 a5be 309c aabe
00000020: 8a0c 4340 0313 9e3f 27da 463e 86f9 29c0
00000030: 124e 6cc0 a174 0540 4866 adbf fb3d a03e
00000040: 6ea1 2f40 34a6 0b3f 6ecb eebd df69 d53f
00000050: 51a8 3fc0 8d46 913f cf9d 5b3d 908c 19c0
00000060: e0c9 a73f 5026 a6be d783 3fbf 198c b0bf
00000070: be82 553e c5d7 e33e 78b4 b6bf 5716 4940
00000080: 0ff6 94c0 0d25 9e3e 109a 0040 92a5 5540
00000090: a3ad 24c0 588c 0d40 d7e7 50bf e815 583f
000000a0: a062 85bf 8ab6 72c0 2b0d 5c3f d345 2140
000000b0: 252a e6bf ed9f ac3d 7b9e d8c0 9ed7 4ac0
000000c0: 02e1 d93f 1706 88bf 971e 733e 436c d93e
000000d0: 8732 843f 5b39 993d 7beb b9bf aa18 c33f
000000e0: fb27 bbc0 f5c3 cd3f b431 39c0 252e cfc0
000000f0: b2ce f2be 31bb 32bf ec26 a33e 4222 553e
00000100: da89 3f3f cbf4 b73f 9281 20c0 1b3a 22c0
00000110: f708 7840 6f08 58c0 b6ec aa3f 38b2 14c1
00000120: d799 5fc0 06e9 cb3e dc83 7e3f 63aa cb3f
00000130: d1f5 d3bf a4c3 18c0 0f71 90bf 2fa6 fb3f
00000140: cbca 91bf 835b 71be be5b 17c0 9194 c7c0
00000150: 958d 9b3f 2c41 6140 610f 1d3d 613c 163f
00000160: c5cd fabf a0a9 1bc0 c1a8 37c0 78c0 f53e
00000170: 79c7 633e 0088 efbf 73d9 8d3e ddb4 1fbf
00000180: b81e 853f c7b7 a4c0 1317 a03d a235 cd3f
00000190: 4be9 47bf 3c50 0240 47ef 45be da3b b73f
000001a0: 4b18 0040 214e b03f 49d5 873f eb35 e73f
000001b0: 4a79 2a40 1c54 373e 083f 94bf fb01 80bf
000001c0: 1990 1840 9e0f 25c0 8c60 3e3f 5404 cdbf
000001d0: 71cf 21c0 a70a 14c0 77db 873f f8fd 813e
000001e0: 2c11 e33d 6906 edbe 98bc a43f 3b1b 86bf
000001f0: 9fa2 c33f de51 fa3f 7904 aac0 8a4f 23c0
00000200: a12b b93f ea43 b73f b912 61c0 2229 78c1
00000210: 9670 94bf e2f1 20c0 df1f 993f 9d52 b03e
00000220: 6dc0 ebbf 4090 cabf 7d80 cc3e 7a80 a2bf
00000230: ff7e 8d40 2057 68c0 e4cf 3ac1 f8fa c0c0
00000240: f09d 9cbe 6aef 1f40 9815 093f 704f 723f
00000250: 88b2 c4be 9a8d 9e3e b215 51bf f506 5dc0
00000260: 8cc9 ee3d af76 453d bd3a 3e40 674a 5240
00000270: 3c5d d63f 8b14 aebe a87f c7bf 8fe5 d23e
00000280: 8377 a53f e69c d63f e162 cb3e 69f6 87be
00000290: 44ae 1cc0 ce4e 75c0 f5c7 53c0 f6a9 0bc0
000002a0: 0599 dfbf 35d7 25be bded b63d 84a6 a93d
000002b0: a6e8 823b 03f7 07bd fa85 62be 9dea 353e
000002c0: 9dab e6c0 3583 633e 8fb4 d83d cac6 aebe
000002d0: bb1a 0640 c02e ce3f ba3d b5be 81dc 87bf
000002e0: 4a82 0d3f 2723 583f c889 5bbe d8a9 753f
000002f0: 4fce bd40 cc98 9f3e 6f70 42c0 ae09 4bbf
00000300: 24b4 123f 8e55 873e b11a 6bbe a40b a93e
00000310: 7d62 443f 6738 3d3e 5bf0 cb3e 54f6 ac3f
00000320: af59 ed40 8365 373e daee a13e 17b0 d53e
00000330: b2ee 44bf b7d3 6d40 e5b8 b8be 0609 23bf
00000340: dc6b 72c0 e79a 873f 189a 1f3f 2032 433f
00000350: 43ea 04c0 27c0 1c40 416d a140 798c ed3f
00000360: 06a4 edbe 4f7a 1f40 8ada 243f e749 e33f
00000370: bea3 283f fd21 103e 3c4c 73c0 472d d33e
00000380: ba4c 1440 e15c a63f f1bc 89be 2484 e0c0
00000390: 70dc 83bf c19c 5240 27d4 f83f c466 013f
000003a0: 1170 a8bf 0e1a 9d3f 3248 9b3f d9db c0bf
000003b0: 02d3 67c0 fea5 df3f 4006 8940 7223 db40
000003c0: b56c fe3f e933 45c0 3a96 223f be92 0b40
000003d0: cb81 59bf e915 673f 219c 56c0 b568 c23d
000003e0: 40d6 19c0 95c7 1740 2623 5e3f 2502 1cc1
000003f0: 9348 4dbf 3c26 9cbf 6366 f83c 7eab f53b
3.2815485 1.0515927 -0.87423277 0.80451214 0.591987 -1.0963727 -0.3235308 -0.33322287
3.0476403 1.2349552 0.19419156 -2.6558547 -3.692265 2.0852435 -1.3546839 0.31297287
2.744228 0.5455048 -0.11659895 1.6672934 -2.9946482 1.1349655 0.053617295 -2.3992043
1.3108482 -0.32451105 -0.74810547 -1.3792754 0.20850655 0.44500557 -1.4273825 3.1419885
-4.6550364 0.30887643 2.0094032 3.3382306 -2.573098 2.211691 -0.8160376 0.84408426
-1.0420723 -3.7923913 0.8595759 2.5198867 -1.7981611 0.08428941 -6.7693458 -3.1694102
1.7021792 -1.0626858 0.23742138 0.4246541 1.032792 0.07481643 -1.4524988 1.5241902
-5.8486304 1.6075426 -2.8936586 -6.474383 -0.4742332 -0.6981688 0.31865633 0.2081385
0.7481972 1.437158 -2.5079083 -2.5347965 3.8755472 -3.3755147 1.3353488 -9.29351
-3.4937646 0.3982622 0.9941995 1.5911373 -1.6559392 -2.386941 -1.1284503 1.966009
-1.1390013 -0.23570065 -2.3649745 -6.2368855 1.2152582 3.5196028 0.038344745 0.5868588
-1.9594046 -2.432228 -2.869675 0.47998405 0.22244062 -1.8713379 0.27704963 -0.6238535
1.04 -5.1474338 0.07816901 1.6031992 -0.7809035 2.036147 -0.19329558 1.431514
2.0014827 1.3773843 1.0611964 1.806333 2.663653 0.17903179 -1.1581736 -1.0000604
2.383795 -2.5790782 0.7436607 -1.6016946 -2.5282862 -2.3131502 1.061385 0.25389075
0.1108726 -0.46293953 1.2870054 -1.047706 1.5284003 1.9556234 -5.313046 -2.5517297
1.446644 1.4317601 -3.5167677 -15.510042 -1.1596859 -2.5147634 1.1962851 0.3443803
-1.8418099 -1.5825272 0.3994178 -1.2695458 4.4217525 -3.6303177 -11.675755 -6.030636
-0.30589247 2.4989877 0.53548574 0.9465246 -0.3841746 0.30967408 -0.8167373 -3.4535496
0.11659536 0.04820889 2.972335 3.2857912 1.6747203 -0.34000048 -1.5585833 0.41190764
1.2927097 1.6766632 0.39723876 -0.26555184 -2.4481363 -3.8329349 -3.3090794 -2.1822486
-1.7468573 -0.16195376 0.08932064 0.082837135 0.003995019 -0.033194553 -0.2212142 0.17765279
-7.208449 0.2221802 0.10581314 -0.3413604 2.0953815 1.6108017 -0.35398656 -1.0614167
0.5527693 0.8442864 -0.21439278 0.95962286 5.931434 0.31171262 -3.0381124 -0.79311645
0.5730612 0.2643246 -0.229594 0.33016694 0.7671278 0.18478547 0.39831814 1.3512673
7.4171977 0.17909817 0.31627542 0.41735908 -0.7692672 3.716047 -0.36078563 -0.63685644
-3.7878332 1.0594147 0.62344503 0.7624836 -2.0767982 2.449228 5.0445867 1.8558494
-0.46414202 2.4918401 0.64395964 1.7756928 0.6587485 0.14075466 -3.801528 0.4124548
2.317183 1.2997094 -0.26901963 -7.0161304 -1.0301647 3.2908175 1.9439744 0.5054743
-1.31592 1.2273576 1.2131407 -1.5067092 -3.622254 1.7472532 4.282013 6.848077
1.9876925 -3.0812933 0.6351048 2.1808314 -0.84963673 0.9026781 -3.3532794 0.094926275
-2.4037018 2.3715565 0.8677238 -9.750524 -0.80188864 -1.2199168 0.03032226 0.00749725

0.bias f4 [24]
00000000: e6f8 f5be df87 363e 474e 51bf a131 e83f
00000010: 1a6c c33f 0fe8 c8bf 31ab 063e 80b7 2b40
00000020: d865 1fbf c5f5 9a3f 54bf 5040 d539 5e40
00000030: ee3e 433f 7c9a 2c40 1365 bf40 aac9 d9bf
00000040: 229e b6bf 9881 3840 44d9 0bbf 23c6 0940
00000050: 5d9f 75bc d9d7 ed40 956b 9c3f 1e5a c13f
-0.48041457 0.17825268 -0.81760067 1.8140146 1.5267365 -1.5695819 0.13151242 2.683075
-0.62264776 1.2106253 3.2616777 3.4722798 0.762679 2.696929 5.981088 -1.7014668
-1.4267008 2.8829098 -0.54628396 2.1527183 -0.014991608 7.4325986 1.2220331 1.5105627

2.weight f4 [24, 24]
00000000: 8c6c 5d3f f220 73c1 3190 47c1 5400 98c0
00000010: 72ed 67c0 8b5e 2540 d775 1cc0 dd04 05c0
00000020: 9544 803d 74d0 13bf a016 5fbe 67d7 1f40
00000030: aa70 043f eb9f 0f3f 71f1 a93f f206 3ebe
00000040: 71e7 e93d 93d3 53c0 ddac 0140 59fd 5fc0
00000050: 59b9 eec0 8428 92c0 ecb6 8940 0dd3 a1be
00000060: 14b7 bd3e 705c a2c0 3af7 09c1 dc35 4fc0
00000070: c588 21c0 a551 b0be 068e bac0 3e91 2f3f
00000080: 2e5c 483f c467 c4c0 c583 67c0 bc6c 6fbf
00000090: 4455 6c40 614f c5c0 63a3 9d3f b3d4 b03e
000000a0: 48f7 873f e325 a8c0 9d6f d83f 3058 0fc1
000000b0: dd4e 0dc1 398c 85c0 74b8 2240 f41a 3640
000000c0: de06 3940 b3cb 67c0 78f1 ee3f c03f 8340
000000d0: a43d c0c0 f263 16bf 0046 e3bd 06d7 f4c0
000000e0: 8875 dcbf a9bd 4ec0 1fdf a140 925c 9440
000000f0: f48b 6ebf 4c8a 18c0 4b52 d940 a6a3 09bf
00000100: 8229 aebf 5e68 1cbf 07ee cb3f f5d9 97bf
00000110: 5972 eebf 08a1 ddbf cad8 aa3f 508c 8e3d
00000120: 5ec4 8bbf e2e7 3ac0 efc3 bac0 9a2c f1c0
00000130: 594a bcc0 de73 9b40 68a8 3bc0 67ab 46c0
00000140: 5468 5fbf ce29 32c1 d2f2 1f40 09e4 9340
00000150: 5efd 43c0 6fb2 573f 54a9 22c0 5121 823f
00000160: 1e20 163e 1af0 fec0 ef48 10bf 5070 0ec0
00000170: f373 08c1 f6fd 29c0 c3d9 e63f 7d10 e0be
00000180: 469f ce3f 28a7 c9bf 4181 fcbf 41fd 1640
00000190: 1687 04c0 13aa dc3f a1da 9c3d d1e6 953f
000001a0: ae26 83bf fde9 dd3f 9625 1040 2d0d b040
000001b0: 1e9a 2bbf de54 cb3f 03ff bd3e 2ce9 4040
000001c0: 25d4 2140 9ebd e03f ce31 1d40 cd1c 46be
000001d0: 0661 1e40 1fb5 1041 aa5e 4540 6096 63bf
000001e0: 7094 a0be dcf1 20bc 98c9 11bf f3f5 9bbe
000001f0: 436b 62be 59f6 e7bc 047c 92be cd50 c7be
00000200: c5bf b5be 61c4 253e 89de 1c3d 03ee 2b3e
00000210: 15eb 8abe e63b 58bd faf3 95be 1731 dabe
00000220: e2a4 3cbe 7438 13bf e0d0 17be 0ff6 c9be
00000230: 1b78 8cbe d42e 0cbf 007a 003f 4a36 3dbe
00000240: 1235 c73e c175 d43e d733 d53e 51bb 2940
00000250: 020d e63f 80d3 08c0 e3a4 b540 639f 6d3f
00000260: 3132 77bf e767 a4bd bcb2 e73f c9a4 8dc0
00000270: ae71 59bf ce1f c33f 2c46 9240 31e2 8a3e
00000280: c614 84bf eddd 0b3f de1b 0c3e 272e 6e3f
00000290: 1ac8 da3d f056 e4c0 9d66 73bf 3004 e7bf
000002a0: 0a94 2f40 2dc9 a6c0 c164 81c0 f170 313f
000002b0: 562e d53e 45b7 93c0 a331 b43f 27c5 92c0
000002c0: 4996 a6bd 3d9a d7bf ffb7 e33f 25b1 1e40
000002d0: c2f1 97bf ccc0 b0bc f387 903f fff5 5b3f
000002e0: 6e96 5ebe 6606 37bf d088 2340 2b47 8ebf
000002f0: c6a5 1bc0 e31a b2c0 8f5b 663c 6148 c73e
00000300: 88f6 4d40 cb5e 03c0 2a3b b6c0 6acb 8ec0
00000310: abed 2fc0 41a3 1c40 809a 8440 4e20 693e
00000320: 38df 0fc0 abd2 62bf 70f3 52bf 6b22 c940
00000330: 8685 12c1 dc67 26bf 88f5 62c0 20a3 d93d
00000340: ae99 00bf b0c6 32c0 ce25 1440 1971 f03e
00000350: 937d d7c0 1bf1 593e 084d 15c0 c645 52bf
00000360: fa94 bf3f 4835 4ec0 5eb9 a6bf 734a a2c0
00000370: 7d41 86c0 b38c a540 4401 2a40 2fda 1bc1
00000380: 27d0 1ac0 2a43 afc0 7638 c4bf f90d a93e
00000390: f712 84c0 0bab 0f3e 747a 2c40 6758 2040
000003a0: 2bbf 4640 5b72 23bf 571b 1d40 ba43 a6bf
000003b0: 7752 c2c0 b568 98c0 cef3 b8bf 7848 f13f
000003c0: 49f1 983f f830 17be 4dba 913e ec36 803f
000003d0: 2352 ce3f 658e 12c0 fbb0 2440 6c9a 3a3b
000003e0: ec88 94bf 02c9 f53f 01ae 2c40 35de 55c0
000003f0: 6843 88bf 2fb7 0640 e2ec e7c0 16dd 66bf
0.86493754 -15.195543 -12.472703 -4.75004 -3.6238675 2.5838954 -2.4446924 -2.0784218
0.06263081 -0.5773995 -0.21785975 2.497522 0.5173441 0.5610339 1.3276807 -0.18557337
0.11421097 -3.3097885 2.0261757 -3.499838 -7.4601254 -4.5674458 4.3035793 -0.3160633
0.3705374 -5.073784 -8.622858 -3.2376623 -2.5239727 -0.3443729 -5.829837 0.68580997
0.78265655 -6.1376667 -3.6174176 -0.9352529 3.6927042 -6.16594 1.2315487 0.34537277
1.0622339 -5.254625 1.6909062 -8.95903 -8.831754 -4.173367 2.5425081 2.845395
2.8910441 -3.6218078 1.866744 4.101532 -6.0075245 -0.58746254 -0.11097336 -7.651248
-1.7223368 -3.230326 5.0584865 4.6363 -0.931823 -2.383441 6.7912955 -0.5376533
-1.3606417 -0.6109675 1.5932015 -1.186339 -1.8628646 -1.7314768 1.3347409 0.06960356
-1.0919302 -2.920403 -5.8364177 -7.5366945 -5.8840756 4.857894 -2.9321537 -3.1042116
-0.8726857 -11.135206 2.4991956 4.6215863 -3.0623393 0.84256643 -2.541585 1.0166417
0.14660689 -7.9668093 -0.5636129 -2.225605 -8.528308 -2.6561255 1.8035206 -0.4376258
1.6142356 -1.5754137 -1.9726945 2.3592074 -2.070745 1.7239403 0.07658888 1.1711065
-1.0246179 1.7337033 2.252294 5.5016084 -0.6703204 1.5885274 0.3710862 3.0142317
2.5285733 1.7557867 2.4561648 -0.19346924 2.4746718 9.044219 3.0839028 -0.8890133
-0.3136325 -0.009823289 -0.5694823 -0.30461082 -0.2211123 -0.02831571 -0.2861024 -0.38928834
-0.3549787 0.16188194 0.038298164 0.16790013 -0.27132478 -0.0527915 -0.29287702 -0.42615578
-0.18422273 -0.57508016 -0.14825773 -0.3944554 -0.27435383 -0.54758954 0.5018616 -0.18477741
0.38907677 0.4149609 0.41641113 2.652058 1.797272 -2.137909 5.676378 0.9282133
-0.9656096 -0.0802763 1.810142 -4.4263654 -0.84939086 1.5244081 4.571066 0.27125695
-1.031884 0.54635507 0.13682505 0.9303917 0.106826976 -7.1356125 -0.9507845 -1.8048153
2.7434106 -5.2120576 -4.043549 0.6931296 0.41636914 -4.616122 1.4077648 -4.5865664
-0.08134133 -1.6843945 1.7790526 2.479562 -1.1870654 -0.021576308 1.1291488 0.85922235
-0.21737072 -0.7149414 2.5552254 -1.1115469 -2.431993 -5.565782 0.014059915 0.38922408
3.218172 -2.0526607 -5.694722 -4.462331 -2.748881 2.4474642 4.14386 0.2276623
-2.2479992 -0.88602704 -0.82402706 6.2854514 -9.1575985 -0.65002227 -3.546236 0.10626817
-0.50234497 -2.793377 2.3148074 0.46961287 -6.734079 0.2128338 -2.3328266 -0.82137716
1.4967339 -3.222002 -1.302532 -5.071588 -4.195494 5.173425 2.6563272 -9.7407675
-2.4189546 -5.4769487 -1.532973 0.33018473 -4.127315 0.14030091 2.694974 2.5053957
3.105418 -0.6384637 2.4547937 -1.2989419 -6.0725665 -4.7627816 -1.4449403 1.8850241
1.1948634 -0.14764774 0.2846245 1.0016761 1.6118816 -2.289941 2.573302 0.002847339
-1.1604285 1.9201968 2.6981204 -3.3416874 -1.0645571 2.1049306 -7.2476664 -0.901811

2.bias f4 [24]
00000000: 8869 a53e b4b3 513f 64d6 d33f 3211 0c3f
00000010: a89f 9640 6076 d0be 943a b1bf b2e0 f0bf
00000020: 8ce9 25c0 53a3 5f3e 11d5 68bf 65ad 1c40
00000030: a699 973f 2c2a 39c0 3dc8 dc3e de6f a83f
00000040: e6b5 d03f a575 d83f 9847 543e 155c 98bf
00000050: d943 0d3e 2756 53be a73d 9b3f 86b1 df3f
0.32307076 0.8191483 1.6549802 0.5471374 4.7069893 -0.40715313 -1.3846002 -1.8818572
-2.5923796 0.21839647 -0.90950114 2.4480832 1.1843765 -2.893199 0.4312152 1.3159139
1.6305511 1.6910902 0.20730436 -1.1903101 0.13795413 -0.20638333 1.212819 1.7476051

4.weight f4 [4, 24]
00000000: 92a2 c640 d492 bb3f 3fd5 2241 56e6 18c1
00000010: 2b99 d13f 9380 89be a387 70c0 c078 3240
00000020: c03f c6c0 1e34 1e40 4577 28c0 b2ba fd3f
00000030: 3a8e 8440 ce77 c940 cd49 e340 e18c a440
00000040: 9c63 3e3f 7bc4 0f40 7037 25c0 ae42 7cbf
00000050: 126e 20c0 1377 1e3d 3bdc 13c1 b8f8 3640
00000060: afdc 0041 72a9 bb40 e237 9b40 ca3c 8540
00000070: 6e00 3540 514c 3abf 8e2b 7a3f 3d40 4240
00000080: 1611 01c1 c7ba c740 b66a 52c0 0b40 28be
00000090: 768f 8740 5e63 66c0 6d45 8c40 a701 8340
000000a0: 9b2c e8bf bce9 0b41 eeb3 4c40 0ff2 abc0
000000b0: 8faf c63e d4bd 3c3d 3b19 0341 f2e7 78bf
000000c0: e52c 3f40 ee0a b03d 56ba af3f 5594 4abf
000000d0: 8c88 d93f eaa4 853e b3f0 5bc0 9748 6240
000000e0: d789 0341 bc8e 3740 05a0 05c0 e5a8 4bbe
000000f0: 70a1 5a40 a303 2941 3a3d abbf faf0 0bc0
00000100: 9488 1d40 f97c c740 f04d 7fc0 cf6e f1bf
00000110: ee2f ec40 1a01 c23d 8ba7 97bf c6ea 213f
00000120: 4a18 af40 7fdc f640 c22a 9bbe f2d6 1341
00000130: 674d 4240 c0fb e7bd 0f88 78bf 5f4f a3bf
00000140: 6313 5640 95ab a840 2072 30c0 d089 14c0
00000150: 4687 6140 c95d 84c0 a290 2341 f183 ce40
00000160: 31db 1cbf 1803 cc40 7849 7740 048d c73e
00000170: 8f12 5e40 e3e0 a3bd b9e2 d340 fa3d 853f
6.207345 1.4654183 10.177062 -9.556234 1.6374868 -0.26855907 -3.7582786 2.78862
-6.195282 2.471931 -2.6322796 1.98226 4.1423616 6.2958746 7.102759 5.142197
0.7437074 2.2463672 -2.5815086 -0.98539245 -2.5067182 0.038687777 -9.241267 2.8589306
8.053878 5.8644342 4.8505716 4.1636705 2.8281512 -0.727727 0.9772271 3.0351708
-8.066671 6.24155 -3.287763 -0.1643068 4.2362623 -3.599815 4.383475 4.0939517
-1.8138613 8.744564 3.198482 -5.373298 0.38805816 0.04607947 8.19366 -0.9722892
2.9871151 0.08595835 1.372874 -0.79132587 1.6994796 0.26102382 -3.436566 3.5356805
8.221152 2.8680868 -2.0878918 -0.19888647 3.4161034 10.563388 -1.337806 -2.186583
2.461461 6.2340055 -3.989132 -1.8861941 7.380851 0.09472866 -1.1848005 0.6324886
5.471715 7.714416 -0.3030606 9.239977 3.0359743 -0.113273144 -0.9708261 -1.2758597
3.3449333 5.270945 -2.7569656 -2.3209114 3.5238814 -4.1364484 10.222811 6.453606
-0.6127196 6.3753777 3.8638592 0.38974774 3.4698827 -0.08001878 6.621426 1.0409539

4.bias f4 [4]
00000000: 6d31 3f40 a559 9940 1807 b53f 7ea7 0e3e
2.9873917 4.792193 1.414279 0.1393108
