logs_800/logs/target_params_A_799.pt (torch, 6263 bytes, 6 tensors)

0.weight f4 [24, 12]
0	0x4017ef40	2.3739777
1	0x3fddf607	1.7340707
2	0xbdbf7d46	-0.09350066
3	0xbd7b0ace	-0.0612896
4	0x3dab594d	0.08366642
5	0x3dc12ec9	0.09432752
6	0xbe138c57	-0.14409004
7	0xbe88339b	-0.26601872
8	0x409edd55	4.964518
9	0xbf2793db	-0.65459985
10	0x3ee1f008	0.44128442
11	0x3f970f93	1.1801628
12	0xc038d197	-2.8877923
13	0x3ea2bac3	0.31783113
14	0x3d7f3e93	0.062315535
15	0xbe2f8889	-0.17141928
16	0x40638b5c	3.5553808
17	0xbf627656	-0.88461816
18	0xbedd3470	-0.4320407
19	0x3fc47de5	1.535092
20	0xc055b49c	-3.3391485
21	0xbf9ff5d0	-1.2496891
22	0x3f7fec29	0.99969727
23	0xbf5af39a	-0.85527956
24	0x3f6b81d5	0.9199498
25	0xbfd1abca	-1.6380551
26	0xba163264	-0.00057295547
27	0x3e733416	0.23750338
28	0xbf9a2a0d	-1.2044083
29	0x3fbc3c0b	1.4705824
30	0xbfdfbd0e	-1.747957
31	0x3d5c3234	0.053758815
32	0xc0503f6a	-3.2538705
33	0xbe0a1404	-0.13484198
34	0x405e4d10	3.4734535
35	0x41158df4	9.347157
36	0xc09c0206	-4.875247
37	0xbfca1fee	-1.5790994
38	0xbf879d3c	-1.0594859
39	0xbf9a9530	-1.2076778
40	0xc0f490fc	-7.6426983
41	0xc10da0a2	-8.851717
42	0xbdf51a0a	-0.11967857
43	0x402114dc	2.5168982
44	0xbf10d3bf	-0.565731
45	0x403f1c0f	2.9860876
46	0xc0c44c27	-6.134296
47	0xc08c236d	-4.3793244
48	0x3fededb0	1.8588161
49	0xc00de054	-2.216817
50	0x3e368e16	0.17827639
51	0x3f21dc7c	0.6322706
52	0xbf05abce	-0.5221528
53	0x3e276ab0	0.16349292
54	0xbf844aff	-1.0335387
55	0x401bde83	2.435456
56	0xc0ddd871	-6.932671
57	0x3f4fc16f	0.8115453
58	0x3eeed0b8	0.46643615
59	0xc0a29841	-5.0810857
60	0xbff1ccd1	-1.889063
61	0xc021c658	-2.527731
62	0x3f6569a1	0.896143
63	0x3f9af1a2	1.210499
64	0x3fa21590	1.266283
65	0xbf2410d0	-0.64088154
66	0xc08faefb	-4.49011
67	0xbf96dd16	-1.178622
68	0x403166c0	2.7718964
69	0xbffc90d3	-1.9731697
70	0x40d253de	6.5727377
71	0xc1729f3c	-15.163876
72	0xc05f24ae	-3.4866138
73	0x3f7ba747	0.9830212
74	0x3fcd5019	1.6040069
75	0xc107eea9	-8.495767
76	0xbf141ccf	-0.5785646
77	0xc020c016	-2.511724
78	0xbf243257	-0.6413931
79	0x3f8c9f49	1.098611
80	0xbec31786	-0.38103884
81	0x4090f41a	4.5297976
82	0xc10d25f4	-8.821766
83	0xc149ba43	-12.607974
84	0x3ffae8c9	1.960229
85	0x407771ab	3.8663127
86	0xc01f7589	-2.4915488
87	0xc000f9a9	-2.015238
88	0xc0e4c980	-7.149597
89	0xc0a89043	-5.26761
90	0xbf651ed1	-0.8950015
91	0xc00c5610	-2.1927528
92	0x4007b4a9	2.1204016
93	0xbe032ac4	-0.12809283
94	0x3f41f97e	0.7577132
95	0xbeee0220	-0.46485996
96	0x3fa8d50b	1.3190016
97	0xc0a2e7da	-5.090802
98	0x3f15f492	0.5857631
99	0x3efe5a8a	0.4967845
100	0x3f7e01ef	0.992217
101	0x3f93f0e3	1.1557888
102	0xbe29527f	-0.16535376
103	0x3fba1373	1.4537185
104	0xbdebdb61	-0.115164526
105	0x3f31f8a4	0.6952002
106	0x404fe776	3.2485023
107	0x3e999665	0.29997554
108	0x4056bd07	3.3552873
109	0xbe58951d	-0.21150632
110	0xbf3c04ec	-0.7344501
111	0xc026730a	-2.6007714
112	0x3f729fd7	0.94775146
113	0xbf9dfde2	-1.2343104
114	0xbd608548	-0.054814607
115	0xbf9e06da	-1.2345841
116	0xbf558a21	-0.83413893
117	0xc099782b	-4.795919
118	0xbf783336	-0.9695314
119	0x3f71b347	0.9441418
120	0x40936291	4.605782
121	0xc0a79bc0	-5.2377625
122	0xc0128d09	-2.289858
123	0xc06bb2fb	-3.682799
124	0xbfa784b0	-1.3087368
125	0x3fd423a2	1.6573374
126	0xc0809f4f	-4.019447
127	0xc04f3661	-3.237694
128	0x406827b2	3.6274228
129	0xbe02a3ed	-0.12757845
130	0x403cd1e2	2.9503102
131	0xc1a8e934	-21.113869
132	0xbf82d8f3	-1.0222458
133	0xbfce5599	-1.6119872
134	0x3d091b2e	0.033473186
135	0xbcd5ac4b	-0.026083132
136	0xbf660531	-0.8985167
137	0xbf45109e	-0.7697848
138	0xbded60be	-0.11590718
139	0xbf29068f	-0.6602563
140	0x3feee404	1.8663335
141	0xc005e8d8	-2.0923367
142	0xc13acfe4	-11.675755
143	0xbfec1c99	-1.8446227
144	0x3e62be07	0.22142802
145	0x4063e62d	3.5609238
146	0xbc16cc56	-0.009203991
147	0x3f22b07e	0.63550556
148	0x3e92b287	0.2865183
149	0x3f09c2e4	0.53813004
150	0xc030f9cb	-2.7652462
151	0xc0c1cae3	-6.0560164
152	0x403df7ef	2.9682577
153	0x3efd34ed	0.49454442
154	0xbdc7605a	-0.097351745
155	0xbf15c1db	-0.58498925
156	0xbebbf9ad	-0.36713925
157	0x3f940880	1.1565094
158	0xbfe85e56	-1.8153789
159	0xbfacd1e3	-1.3501552
160	0x3f6f3e5c	0.9345453
161	0x3fd5eab8	1.6712255
162	0x3f846be3	1.0345424
163	0x3dc65e5b	0.096859656
164	0x3de03c40	0.10948992
165	0xc0ce101a	-6.4394655
166	0xc099860d	-4.7976136
167	0xc0aa8efb	-5.3299537
168	0xbff0d29d	-1.8814274
169	0xbe4e672a	-0.20156541
170	0xbd9d83ae	-0.076911315
171	0xbd7ae94c	-0.061257645
172	0xbd9947da	-0.07484408
173	0x3da8e919	0.08247585
174	0x3dcb30a7	0.09921389
175	0x3d06b7d0	0.03289014
176	0xc11465bf	-9.27484
177	0xbee5f756	-0.44915265
178	0xbe3554cd	-0.1770813
179	0xbef6e552	-0.48221833
180	0x402973d6	2.647695
181	0x3fc4eaad	1.5384117
182	0xbe9a5f39	-0.30150774
183	0xbf33be1c	-0.7021196
184	0x3f20debc	0.62839866
185	0x3f027029	0.5095239
186	0xbcfa8366	-0.030580234
187	0x3f0b6d06	0.5446323
188	0x40fd7754	7.9208164
189	0xc014d4a0	-2.3254776
190	0xbf86cb14	-1.0530725
191	0xc039769f	-2.897865
192	0x3d2ae675	0.041723687
193	0xbf1df32b	-0.6169917
194	0xbe1dfc0d	-0.15428181
195	0xbd0cd12e	-0.034379177
196	0x3f824f31	1.0180417
197	0x3e4dd4c8	0.20100701
198	0x3f562d56	0.8366293
199	0xbe90e5bf	-0.28300282
200	0x411cabb0	9.791916
201	0xbf6f6f70	-0.93529415
202	0xbf3ed438	-0.7454257
203	0x3f019dc8	0.5063138
204	0x3c6e4ee8	0.01454518
205	0x40b049ab	5.5089927
206	0x3fa244a5	1.2677199
207	0x3ee0ccc1	0.43906215
208	0xc03304b8	-2.797163
209	0xbeb4df65	-0.35326687
210	0xbf5ca677	-0.86191505
211	0x3f6c66cb	0.9234435
212	0xc059f7bb	-3.4057453
213	0xc005cc05	-2.0905774
214	0x40eaef58	7.341717
215	0x3fb433ce	1.407831
216	0x4028c56c	2.6370497
217	0x3fb464f0	1.4093304
218	0xbf5127c9	-0.8170133
219	0x3e8cf958	0.27533984
220	0xbfb330b0	-1.3999233
221	0xbf9dd5d4	-1.233088
222	0xc06130e6	-3.5186095
223	0xbf11c147	-0.5693554
224	0x40620d4a	3.532061
225	0x3fe7047d	1.8048245
226	0x40b262ea	5.5745745
227	0xc116fccd	-9.436719
228	0xbfa9c5bd	-1.326347
229	0x4009278e	2.1430392
230	0x3f99f2cc	1.2027221
231	0x3ff4d369	1.9127017
232	0xbfc35f3f	-1.5263442
233	0x3f27f664	0.6561034
234	0x3fb1dbb2	1.3895171
235	0xbfdd5bca	-1.7293637
236	0xc0887b98	-4.265087
237	0x40bf5b9a	5.979932
238	0x40214a44	2.5201578
239	0x40c9cd77	6.306331
240	0xbf8cabd5	-1.0989939
241	0xbf8849fc	-1.0647578
242	0x400eb0b4	2.229535
243	0x3f53d437	0.8274569
244	0x3e7a0e47	0.24419509
245	0xbf92dc0b	-1.1473402
246	0xc0b3e485	-5.6216455
247	0xbf5e5c25	-0.8685935
248	0x3aec0974	0.0018008188
249	0x4056957a	3.3528733
250	0xc12876c3	-10.528995
251	0xc146a8cd	-12.416211
252	0xbf1f2986	-0.62172735
253	0xbfb2d50f	-1.397127
254	0xbc8f9a3d	-0.017529601
255	0xbe219bd7	-0.15782104

0.bias f4 [24]
0	0xc0a27429	-5.0766797
1	0x3f4a3f65	0.7900298
2	0x3f8c9983	1.0984348
3	0x401e5728	2.4740696
4	0x40339f6c	2.8066053
5	0x4005855d	2.0862648
6	0xbe22ef16	-0.15911517
7	0x4058cd5f	3.3875349
8	0x3d79088d	0.06079917
9	0x4012acca	2.2917962
10	0x4081398f	4.038276
11	0x40f1c900	7.555786
12	0x3fc0ebdd	1.507198
13	0x4086d2c3	4.2132277
14	0x4108a629	8.540566
15	0xbfea85d0	-1.8322086
16	0xbf622444	-0.88336587
17	0x400196e7	2.0248353
18	0xbf9908ff	-1.195587
19	0x4069c548	3.652666
20	0x3fcc2255	1.5947977
21	0x4106ab5f	8.416839
22	0x3ecc50e4	0.39905465
23	0xbf007804	-0.5018313

2.weight f4 [24, 24]
0	0xbee36b27	-0.44417688
1	0xc1742a3b	-15.26031
2	0xc15be6f6	-13.743887
3	0xc0d3b4b1	-6.615807
4	0xc05d610f	-3.459049
5	0xbd7f520e	-0.062334113
6	0xc0a48372	-5.1410456
7	0xc0e7bb4c	-7.2416134
8	0xbf82cc85	-1.0218664
9	0xbff32641	-1.8996049
10	0xbfe96d0e	-1.8236406
11	0x40a74a0d	5.2277894
12	0xbf2c7db0	-0.67379284
13	0xbe39f8c3	-0.18161301
14	0x40757b67	3.835657
15	0xc017d437	-2.3723276
16	0xbfb4b8b2	-1.4118865
17	0xc0f0a444	-7.520052
18	0x3fd55324	1.6665998
19	0xc1091f6f	-8.570174
20	0xc143f515	-12.2473345
21	0xc0922884	-4.5674458
22	0x40447eed	3.070247
23	0x3ef8d988	0.48603463
24	0xbf3b8e12	-0.7326366
25	0xc0aa5c1c	-5.323744
26	0xc117facf	-9.498733
27	0xbfd1357c	-1.6344447
28	0xc0489d22	-3.1345906
29	0xbeb051a5	-0.3443729
30	0xc0b31fcc	-5.5976315
31	0x3e9f3605	0.310959
32	0xbc0db5d4	-0.008649308
33	0xc0d072ca	-6.5140123
34	0xc01ffb35	-2.4997075
35	0xc08b53f6	-4.353999
36	0x4068285c	3.6274633
37	0xc10ee33e	-8.930479
38	0x3f9da363	1.2315487
39	0xbf6cc02e	-0.9248074
40	0x3e04fdbf	0.12987421
41	0xc088ce4d	-4.275183
42	0x40839981	4.1124883
43	0xc12aef29	-10.683389
44	0xc120c19a	-10.047266
45	0xc0858c39	-4.173367
46	0x3ffbd0ff	1.9673156
47	0x408bafa0	4.3651886
48	0x400a6061	2.1621325
49	0xc0d4ef30	-6.6541977
50	0xc048f30a	-3.139834
51	0x401eec42	2.48317
52	0xc10232d2	-8.137407
53	0xc01d942c	-2.4621687
54	0x3ce50950	0.027958542
55	0xc11dff8e	-9.874891
56	0xc0334120	-2.80085
57	0xc07d30f2	-3.9561124
58	0x40ae2728	5.44228
59	0x40c48106	6.14075
60	0xc01fe8a0	-2.4985733
61	0xc0192f7d	-2.3935235
62	0x4081aa23	4.0520186
63	0xbeda80c3	-0.42676362
64	0xc002201a	-2.0332093
65	0xc0620bac	-3.5319624
66	0x3d9b567e	0.075848565
67	0xc0964140	-4.695465
68	0xc0146b14	-2.3190355
69	0xc0822a5b	-4.0676703
70	0x403a3fc7	2.9101427
71	0xbf665d65	-0.8998626
72	0xbf0cf152	-0.55055726
73	0xc09a1118	-4.8145866
74	0xc0c3bc68	-6.116749
75	0xc08e72d0	-4.451515
76	0xc0fff4a3	-7.998613
77	0x3efd4ed7	0.49474213
78	0xc0d064a3	-6.5122848
79	0xc0dd0ccb	-6.9078116
80	0xbd474b36	-0.04865571
81	0xc1699c95	-14.600728
82	0x3de921d6	0.11383407
83	0x4077aa2f	3.8697622
84	0xc074bd2e	-3.8240466
85	0xbfd9b7a5	-1.7009169
86	0x3f21a4d3	0.63142127
87	0x3dbe3798	0.092879474
88	0xbf595e11	-0.8490916
89	0xc026fa5b	-2.6090305
90	0x3ee9b7a6	0.45647925
91	0xc0e59ee4	-7.175646
92	0xc0e281de	-7.078353
93	0xc029fdf6	-2.6561255
94	0x40739635	3.806043
95	0xbf283cf9	-0.65718037
96	0x4013cff5	2.3095677
97	0x3d86a521	0.065744646
98	0xbf73e7d8	-0.9527564
99	0x3ff75b50	1.9324741
100	0xc0006a16	-2.006475
101	0xbf2db80b	-0.6785895
102	0x3f1d4be4	0.61443925
103	0x3feaa63e	1.8331983
104	0xbe4c8cb2	-0.19975546
105	0x3fcdf440	1.6090164
106	0x4019fdd4	2.4061174
107	0x406aa52a	3.6663308
108	0xbf7211c4	-0.9455836
109	0x3d3012da	0.04298673
110	0x3e96b03a	0.29431325
111	0x4082788d	4.0772157
112	0x40916480	4.543518
113	0x3f938679	1.1525413
114	0x3e9d3457	0.30703995
115	0x3ea419ce	0.32050937
116	0xbf9b5cc6	-1.2137687
117	0x40b3d01e	5.619155
118	0x40a485cd	5.141333
119	0xbfb8e2f0	-1.4444256
120	0xbea09470	-0.3136325
121	0xbc20f1dc	-0.009823289
122	0xbf11c998	-0.5694823
123	0xbe9bf5f3	-0.30461082
124	0xbe626b43	-0.2211123
125	0xbce7f659	-0.02831571
126	0xbe927c04	-0.2861024
127	0xbec750cd	-0.38928834
128	0xbeb5bfc5	-0.3549787
129	0x3e25c461	0.16188194
130	0x3d1cde89	0.038298164
131	0x3e2bee03	0.16790013
132	0xbe8aeb15	-0.27132478
133	0xbd583be6	-0.0527915
134	0xbe95f3fa	-0.29287702
135	0xbeda3117	-0.42615578
136	0xbe3ca4e2	-0.18422273
137	0xbf133874	-0.57508016
138	0xbe17d0e0	-0.14825773
139	0xbec9f60f	-0.3944554
140	0xbe8c781b	-0.27435383
141	0xbf0c2ed4	-0.54758954
142	0x3f007a00	0.5018616
143	0xbe3d364a	-0.18477741
144	0x3f85817c	1.043014
145	0x3f820965	1.0159117
146	0x3fd9bbb1	1.7010404
147	0x3f1f9285	0.62332946
148	0x3f2edcff	0.68305963
149	0xc117705c	-9.4649315
150	0x40a60738	5.188381
151	0x400bf91a	2.187079
152	0xbfad3076	-1.3530414
153	0x3fd15805	1.6354986
154	0xbee02a31	-0.4378219
155	0x40032e3c	2.049697
156	0xbfec2f21	-1.8451883
157	0x3fc07f1b	1.503879
158	0x40d5ea46	6.684848
159	0x3f4a5c55	0.7904714
160	0xbf8ffef7	-1.1249684
161	0x3f3249cb	0.6964385
162	0xbfb61ef0	-1.4228191
163	0x3ebb4e9b	0.3658341
164	0xbe9567ef	-0.29180858
165	0xc0ce076a	-6.438405
166	0xbe9e902f	-0.30969378
167	0xbfb2ece8	-1.3978548
168	0x4040e8db	3.0142124
169	0xc09c2c90	-4.8804398
170	0xc0b219d9	-5.565655
171	0x3f862ed5	1.0483042
172	0xbe401af8	-0.18760288
173	0xc1315f09	-11.085702
174	0xbf507ed8	-0.8144355
175	0xc0f6432c	-7.6956997
176	0xbe9a160f	-0.30094954
177	0x3f6306ca	0.88682234
178	0x408b5285	4.353823
179	0xc043a62e	-3.0570178
180	0xbe39c685	-0.18142135
181	0xbfb2ddb1	-1.3973905
182	0x3f61a4f3	0.8814232
183	0x3f8ec95d	1.1155201
184	0xbfbe9668	-1.488965
185	0x3fbffe37	1.4999455
186	0xc071557f	-3.7708433
187	0xc0767594	-3.8509264
188	0xc0dd068f	-6.9070506
189	0xc08a2921	-4.3175206
190	0x3f018e5f	0.50607866
191	0x3fcd7a9f	1.6053046
192	0x40366527	2.8499238
193	0xbffd62f3	-1.9795822
194	0xc17b3496	-15.700338
195	0x3f8944da	1.0724137
196	0xc121ba5e	-10.108
197	0x4027f0f4	2.6240816
198	0x40121703	2.2826545
199	0x3fe6d094	1.8032403
200	0x3ec12b62	0.3772841
201	0xbd7f0f42	-0.06227041
202	0x3fa9fcbb	1.3280252
203	0x4043a99c	3.0572271
204	0xc1abb6d4	-21.464272
205	0xbeda5acd	-0.426474
206	0xc107aedb	-8.480189
207	0xbe9d8929	-0.30768707
208	0x3ef929f6	0.48664826
209	0x3f1767b2	0.591426
210	0x4068f7d6	3.6401267
211	0xbf865a69	-1.0496341
212	0xc0190673	-2.3910186
213	0xc07f26ad	-3.9867356
214	0xbf8f5bab	-1.119985
215	0x401354bb	2.3020465
216	0x3f5314b9	0.82453495
217	0xbf995fcf	-1.1982363
218	0xbfd47654	-1.6598611
219	0x3fb3d3ee	1.4049051
220	0xc00c344a	-2.1906915
221	0x40da88ce	6.8292
222	0x40bacd03	5.837526
223	0xc17f03bb	-15.938411
224	0xc0167153	-2.3506668
225	0xc02ecd4d	-2.7312806
226	0x4027d17e	2.6221614
227	0x40664ba5	3.598367
228	0xc06dda6f	-3.7164571
229	0xbfbef7da	-1.4919388
230	0x40fa0388	7.812931
231	0x40268599	2.6019042
232	0x40495f93	3.1464584
233	0xbf9fbcd0	-1.2479496
234	0x408340a2	4.1016397
235	0xbff90dc7	-1.945733
236	0xc09f40e9	-4.9766736
237	0xc145ed1f	-12.370391
238	0xc0768283	-3.8517158
239	0x40ab3585	5.350283
240	0x3fbb6a77	1.4641865
241	0x3f2260dc	0.63429046
242	0x3fcbe4a9	1.5929157
243	0x40547b8b	3.3200405
244	0x3f813711	1.009493
245	0xbf0b1bff	-0.54339594
246	0xc02821e6	-2.627069
247	0xbde2545f	-0.11051249
248	0xbfccfce1	-1.6014673
249	0x40515880	3.2710266
250	0x40030dfd	2.0477288
251	0x4078087f	3.8755186
252	0xbfb3319e	-1.3999517
253	0x404e003b	3.218764
254	0xc136e8d2	-11.431841
255	0xbe8c8a0b	-0.27449068

2.bias f4 [24]
0	0xbd4c260a	-0.049840964
1	0xbf17ea8f	-0.59342283
2	0x3fa07c5e	1.2537954
3	0xbe9e97cb	-0.30975184
4	0x40c50c6a	6.1577654
5	0xbed07660	-0.40715313
6	0xc069b843	-3.6518714
7	0xc08a698f	-4.3253856
8	0xbfdfd91b	-1.748813
9	0x3f873899	1.0564147
10	0xbf6a43ef	-0.9150991
11	0x4047456d	3.1136124
12	0x404deac4	3.217454
13	0xc05f43cc	-3.488513
14	0xbf967e44	-1.1757283
15	0x3fd848c2	1.6897204
16	0x402f93b8	2.743391
17	0x3f886090	1.0654469
18	0xbdf472dd	-0.11935971
19	0xbfc4d82a	-1.5378468
20	0xbfc5984a	-1.54371
21	0xbe535627	-0.20638333
22	0xbe66277e	-0.22476003
23	0x407c8346	3.9455123

4.weight f4 [4, 24]
0	0x40177f8c	2.3671598
1	0x3fd14c9f	1.6351508
2	0x415a25cb	13.634227
3	0xc11f6794	-9.962788
4	0x401a1831	2.4077265
5	0xbe898093	-0.26855907
6	0xc045715b	-3.0850437
7	0x3fbae16e	1.4600046
8	0xc066f2a4	-3.6085596
9	0x3fa32f22	1.2748759
10	0xc001ec5c	-2.0300512
11	0xbe5bedf4	-0.2147749
12	0x40b8b7c7	5.7724338
13	0x40a42450	5.1294327
14	0x40cafd00	6.343384
15	0x408829ac	4.255087
16	0xbed0fc23	-0.40817365
17	0x40a42ec9	5.130711
18	0xc0253770	-2.5815086
19	0xc03ced84	-2.9519968
20	0xc0ab243f	-5.3481746
21	0x3d1e7713	0.038687777
22	0xc0f89e85	-7.7693505
23	0x40586226	3.3809905
24	0x40cd59f6	6.4172316
25	0x407febe8	3.9987736
26	0x3fc5c6c6	1.5451286
27	0x40146abc	2.3190145
28	0x402c0e3d	2.688369
29	0xbf3a4c51	-0.727727
30	0x3f7bc069	0.9834047
31	0x4041fde9	3.0311224
32	0xc10d594d	-8.834302
33	0x408af16e	4.3419714
34	0xc020cc01	-2.5124514
35	0x3fa1e86c	1.2649055
36	0x40c56f09	6.169804
37	0xc024caf4	-2.5748873
38	0x408ec6e9	4.461781
39	0x4082a5a7	4.082721
40	0xc089d01c	-4.306654
41	0x412458cd	10.27168
42	0x404cb3ee	3.198482
43	0xc0c6939d	-6.205519
44	0x3ef0026c	0.46876848
45	0x3d3cbdd4	0.04607947
46	0x411704b8	9.438652
47	0xbc811923	-0.015759056
48	0xbd068615	-0.032842714
49	0x3d31d76b	0.04341833
50	0x4105f0a7	8.371253
51	0xc081760b	-4.0456595
52	0x400f79d4	2.2418108
53	0x3e85a4ea	0.26102382
54	0xc08d64ac	-4.418539
55	0x3f510283	0.8164446
56	0x4045770d	3.0853913
57	0x401d9f3f	2.4628446
58	0xbf961617	-1.1725491
59	0xbd88a204	-0.06671527
60	0x406befec	3.6865187
61	0x41230acf	10.190139
62	0xbfb42333	-1.4073242
63	0x3fd3a705	1.6535345
64	0x3faa97f2	1.332762
65	0x4118a13d	9.539365
66	0xc07f4df0	-3.989132
67	0xc012e208	-2.2950459
68	0x408571a6	4.170123
69	0x3dc2011a	0.09472866
70	0xc026a8c0	-2.6040497
71	0x405082c6	3.2579818
72	0x40e2d914	7.088999
73	0x41257903	10.342044
74	0xc0a26b51	-5.0756
75	0x416b1556	14.692709
76	0x406a5b74	3.6618319
77	0xbde7fbc0	-0.113273144
78	0x3f7a60cf	0.9780397
79	0xc0a83dbc	-5.257536
80	0x40e403ee	7.1254797
81	0x407f391f	3.9878614
82	0xc04633a5	-3.0969021
83	0xc0762806	-3.8461928
84	0x40ce18f5	6.4405465
85	0xc090a886	-4.5205717
86	0x4114b71e	9.294706
87	0x405289a7	3.2896516
88	0xbf505784	-0.8138354
89	0x4109c5c2	8.610781
90	0x4062efed	3.545894
91	0xc04f68ab	-3.2407634
92	0x3eb30a5d	0.34968844
93	0xbda3e0e3	-0.08001878
94	0x40e1b80d	7.053717
95	0x3eaf94a5	0.34293094

4.bias f4 [4]
0	0x409729b7	4.723842
1	0x409039a0	4.5070343
2	0x40952635	4.660914
3	0x3f991cd2	1.196192
