logs_800/logs/target_params_A_400.pt (torch, 6263 bytes, 6 tensors)

0.weight f4 [24, 12]
0	0x403b8dff	2.9305418
1	0x3fd30783	1.6486667
2	0xbdee897a	-0.11647315
3	0xbdf5f1ef	-0.12009036
4	0xbf1acf2c	-0.6047237
5	0xbe8a482e	-0.27008194
6	0xbebc13d9	-0.36733893
7	0x3e23651d	0.1595654
8	0x40ae8de8	5.4548225
9	0xbeee626c	-0.46559465
10	0xbd87346d	-0.06601796
11	0xbed3cc4f	-0.41366813
12	0xc033ad13	-2.8074386
13	0x3fd7551a	1.6822846
14	0xbf17e516	-0.5933393
15	0xbd594493	-0.053043913
16	0x404422df	3.0646284
17	0x3ed7743a	0.4208086
18	0xbd709e2d	-0.0587446
19	0x3fd6393b	1.6736215
20	0xc0590f07	-3.3915422
21	0x3f2a0130	0.6640806
22	0x3fd42660	1.6574211
23	0xc0789b01	-3.8844607
24	0x3f74a130	0.9555845
25	0xbe64c3d1	-0.22340323
26	0x3f282c46	0.65692556
27	0xbf575c35	-0.8412507
28	0xbf7e7aeb	-0.9940631
29	0x3f83bf06	1.0292671
30	0xbfeccecd	-1.850061
31	0x3f82fadb	1.0232805
32	0xc05b6bb6	-3.4284492
33	0x3fc8273d	1.5636975
34	0x40cab006	6.333987
35	0x40dab0cf	6.834083
36	0xbfc9698f	-1.5735339
37	0x40150fb1	2.3290827
38	0x3d9f799c	0.07786867
39	0x3f8d3067	1.1030396
40	0xbfe1770f	-1.7614459
41	0xc06d3abb	-3.7067096
42	0xbdd4871e	-0.10377334
43	0x40185969	2.3804572
44	0xbfd58d93	-1.668383
45	0xbf7aa9d4	-0.9791539
46	0xc0848521	-4.141251
47	0xc0a2bf3e	-5.085845
48	0x3fe1fd05	1.765534
49	0xbfbc5bc6	-1.4715507
50	0x3ee674d6	0.45011014
51	0x3f11873a	0.56846964
52	0xbddca91a	-0.10774441
53	0x3f0cbd33	0.54976195
54	0xbfc9577d	-1.5729824
55	0x3fcfa70b	1.6222852
56	0xc0cc27e5	-6.37987
57	0x3fb15598	1.3854246
58	0xbd858321	-0.065191515
59	0xc00f66f1	-2.240658
60	0xbf65ee5f	-0.8981685
61	0xbf279ea2	-0.6547643
62	0x3e1bc5e3	0.15212207
63	0x3ea1eb78	0.3162496
64	0x3f90f9cf	1.1326236
65	0xbf158b9c	-0.5841615
66	0xc0188896	-2.3833365
67	0xc084df17	-4.1522326
68	0x409ebbe1	4.9604344
69	0xc085828a	-4.172185
70	0x400cbc7b	2.199004
71	0xc11895d9	-9.536584
72	0xc01197a3	-2.2748802
73	0x3da316c6	0.07963328
74	0x3fc74dc5	1.5570608
75	0xc022b542	-2.542313
76	0xc00e6c3b	-2.2253559
77	0xc03d689c	-2.9595098
78	0xbf59744e	-0.8494309
79	0x404eadac	3.22935
80	0xbeffb41d	-0.49942103
81	0x3f9e59b5	1.2371126
82	0xc0e8b06d	-7.2715364
83	0xc1239ecc	-10.226269
84	0x401127be	2.2680507
85	0x4049e570	3.1546288
86	0xbf019c06	-0.506287
87	0xbf365c51	-0.71234614
88	0xc02b1d2b	-2.6736553
89	0xc0245009	-2.567385
90	0xc01c945e	-2.4465556
91	0xbf10466a	-0.56357443
92	0x3bf20ca5	0.0073867613
93	0xc01b47fc	-2.4262686
94	0xbebf6e33	-0.37388763
95	0xc034e5f7	-2.826536
96	0x3fd724fa	1.6808159
97	0xc0a328b4	-5.0987186
98	0x3d67961e	0.056539647
99	0xbef19fb5	-0.4719216
100	0x3e15df1e	0.14635894
101	0x40476878	3.1157513
102	0xbf1b00f0	-0.60548306
103	0x3fb2bfdf	1.3964804
104	0x3f1a56be	0.6028861
105	0x3fdc9abe	1.7234724
106	0xbd1929d3	-0.037393402
107	0x3fc20a7a	1.5159447
108	0x406fcc7b	3.7468555
109	0x3eb4adc9	0.35288838
110	0xbf2c98fe	-0.6742095
111	0x3e166512	0.14686993
112	0x3f7e4be1	0.9933453
113	0xc04e30d2	-3.2217298
114	0xbca1a643	-0.0197326
115	0xbf806723	-1.0031475
116	0xbfc1a2d2	-1.5127814
117	0xbfe8cd40	-1.8187637
118	0x3edc7dd1	0.4306474
119	0x3fb537cd	1.4157654
120	0x40003614	2.0033007
121	0xbf183914	-0.59462094
122	0xbf198f08	-0.59983873
123	0xbfcf9d2c	-1.621984
124	0x3ec5c8eb	0.3862985
125	0x402798a3	2.6186912
126	0xc0a1a70c	-5.0516415
127	0xc05cb9b7	-3.4488351
128	0x4054afcc	3.3232298
129	0x3fd9d62a	1.7018483
130	0x403655d3	2.8489883
131	0xc19b7826	-19.433666
132	0xbfcc7736	-1.597388
133	0xbfcddfa3	-1.6083874
134	0x3fb419a8	1.407033
135	0xbe3e056c	-0.18556756
136	0xbf6310a7	-0.88697284
137	0xbf00ffb6	-0.50390184
138	0xbed79e76	-0.42113084
139	0xbf4130b0	-0.75464916
140	0x3fd3dae0	1.655117
141	0xc0cd17f5	-6.4091744
142	0xc13acfe4	-11.675755
143	0xbf3138ac	-0.692271
144	0x3f3151f3	0.6926567
145	0x40603de1	3.5037768
146	0xbe35ba8c	-0.17746943
147	0x3e9106ab	0.283254
148	0x3d14732d	0.036242653
149	0x3e87dc6d	0.2653536
150	0xc0154238	-2.3321667
151	0xc05f6b34	-3.4909182
152	0x3fa8ab32	1.3177245
153	0x3f574735	0.8409303
154	0x4009b1e9	2.1514838
155	0x3fdae5d4	1.7101388
156	0xbee5cf9e	-0.44884962
157	0xbe95c108	-0.29248834
158	0xbf65731c	-0.8962877
159	0xbf6fbfda	-0.9365212
160	0x3f85a9d7	1.0442456
161	0x3fe626e4	1.7980618
162	0x3f421310	0.7581034
163	0xbf0dfd7f	-0.5546493
164	0xbf05b47c	-0.5222852
165	0xc07ca2d6	-3.9474387
166	0xc09b73f6	-4.8579054
167	0xc0de65de	-6.949935
168	0xc003740d	-2.0539582
169	0xbe0a4287	-0.1350194
170	0xbb8b72d1	-0.0042556305
171	0x3d5df987	0.054193046
172	0x3d6863ff	0.05673599
173	0x3cb8b8c1	0.022549035
174	0x3d6e9920	0.0582515
175	0xbd61bf70	-0.05511421
176	0xc0fe5289	-7.947575
177	0x3f022df9	0.508514
178	0xbf0b5ce7	-0.5443863
179	0xbe791960	-0.24326086
180	0x4000f930	2.0152092
181	0x3feafa3c	1.8357615
182	0xbe85a6e7	-0.261039
183	0xbf60719a	-0.8767334
184	0x3f5b4fcd	0.8566864
185	0x3f648cf0	0.89277554
186	0xbe8866ee	-0.2664103
187	0x3f15cfea	0.58520377
188	0x40ebbbd9	7.3666806
189	0x3e81453a	0.25248128
190	0x3e21f52b	0.1581618
191	0xbfbb76e3	-1.4645656
192	0x3e30adc7	0.17253791
193	0x3e0fd73a	0.14046946
194	0xbcc223e9	-0.023698764
195	0x3f0a5027	0.5402855
196	0x3f9a9566	1.2076843
197	0x3ecf5701	0.40496066
198	0x3f15af3f	0.5847053
199	0x3e841a5c	0.2580136
200	0x410bf24c	8.7466545
201	0x3eb7cd47	0.35898802
202	0x3f92aa98	1.1458311
203	0x3f67a15f	0.9048061
204	0xbf8eb73c	-1.1149669
205	0x406e3bd9	3.7224028
206	0x3f38e55b	0.7222497
207	0xbfeee1b4	-1.8662629
208	0xc040ac67	-3.0105226
209	0x3fa58011	1.2929708
210	0xbefdd374	-0.49575388
211	0x3f9e1aa1	1.2351876
212	0xbfd1e282	-1.639725
213	0x3f80a99e	1.0051763
214	0x40e49e5a	7.14433
215	0x40c19c7a	6.050351
216	0x3fbc5399	1.4713012
217	0x403369b8	2.8033276
218	0x3f7b71bc	0.9822042
219	0x3c3d2140	0.011543572
220	0xbe18946d	-0.1490037
221	0x3cf6ea1e	0.030140933
222	0xc0707232	-3.75697
223	0xbdec5313	-0.11539283
224	0x3fa80e1a	1.3129303
225	0x3fd75340	1.6822281
226	0xc004fc39	-2.0778944
227	0xc0e7a74a	-7.239171
228	0xbf1f8720	-0.6231556
229	0x4069cff3	3.6533172
230	0x3f8d649b	1.1046327
231	0x3f5b459f	0.8565311
232	0xbfd5ce1c	-1.6703525
233	0x3f9e8d94	1.2386956
234	0x3fac93ca	1.3482602
235	0xc004e1a4	-2.076272
236	0xc080e478	-4.0278893
237	0x402bccab	2.684367
238	0x3f1decc3	0.61689395
239	0x41024c2e	8.143599
240	0xbec7d0e5	-0.3902656
241	0xc0741ba5	-3.8141873
242	0x3e96a986	0.2942621
243	0x3f8c07b2	1.0939848
244	0x3f3d6464	0.7398131
245	0xbf2cbd9f	-0.6747684
246	0xc080283d	-4.004912
247	0x3f9ffc57	1.2498883
248	0xbf446783	-0.76720446
249	0x4077cde1	3.8719409
250	0x3f12f0e8	0.57398844
251	0xc11d1a2a	-9.818888
252	0xbf35a849	-0.7095991
253	0xbfb70eb7	-1.4301366
254	0x3dbb3cdf	0.091424696
255	0x3d870c88	0.06594187

0.bias f4 [24]
0	0xbfdc375e	-1.7204397
1	0x3ef92189	0.48658398
2	0x3f8d547c	1.1041408
3	0x3fbf02ab	1.4922689
4	0x4042c3ee	3.0432086
5	0xbed0feaa	-0.40819293
6	0x3e266616	0.1624988
7	0x4019020d	2.3907502
8	0xbf0216dc	-0.5081613
9	0x3ff6d269	1.9282962
10	0x409b4dbc	4.853239
11	0x40a989cb	5.2980704
12	0x3fe27a43	1.7693561
13	0x407d6367	3.959192
14	0x40efd8ee	7.4952307
15	0xbfe11ebd	-1.7587506
16	0xbfd8033f	-1.6875991
17	0x4039afb1	2.9013484
18	0xbfec27cd	-1.8449646
19	0x4036ae0a	2.8543725
20	0x3fb6dd57	1.4286298
21	0x41009bdc	8.038052
22	0x3ec2c9e9	0.3804467
23	0x3f2e9785	0.6819995

2.weight f4 [24, 24]
0	0xbe868dee	-0.2628016
1	0xc15a2ee7	-13.636451
2	0xc14978a9	-12.591958
3	0xc0f2b6cc	-7.584814
4	0xc028c35b	-2.6369236
5	0x40b9d874	5.8076725
6	0xc063ba35	-3.5582402
7	0xc005524a	-2.0831475
8	0xbf2a2e94	-0.6647732
9	0xbfb526be	-1.4152448
10	0xbf47e57e	-0.7808455
11	0x40c5e5e0	6.184311
12	0x40352748	2.8305225
13	0xbf3449a8	-0.7042489
14	0x3e99c968	0.30036473
15	0xbf9d2568	-1.227704
16	0x3dc25273	0.09488382
17	0xc0e939a7	-7.2882876
18	0x3f4022a4	0.7505286
19	0xc062d309	-3.5441306
20	0xc1116f56	-9.089682
21	0xc0922884	-4.5674458
22	0x408c91f3	4.392816
23	0xbf1d63a1	-0.61480147
24	0xbe6bc9ae	-0.23026153
25	0xc0a269f1	-5.0754323
26	0xc117facf	-9.498733
27	0xbfd1357c	-1.6344447
28	0xc024c831	-2.5747187
29	0xbeb051a5	-0.3443729
30	0xc0b31fcc	-5.5976315
31	0x3f2f913e	0.68580997
32	0x3f013ecc	0.50486445
33	0xc0c0413e	-6.007964
34	0xc01ffb35	-2.4997075
35	0xc08b53f6	-4.353999
36	0x4068285c	3.6274633
37	0xc1081d7e	-8.5072
38	0x3f9da363	1.2315487
39	0xbed6e788	-0.4197352
40	0x3f23f40e	0.6404427
41	0xc088ce4d	-4.275183
42	0x40839981	4.1124883
43	0xc12aef29	-10.683389
44	0xc120c19a	-10.047266
45	0xc0858c39	-4.173367
46	0x401da81b	2.4633853
47	0x408bafa0	4.3651886
48	0x404ffb2b	3.249705
49	0xc0805f16	-4.011607
50	0x3e9a3ad4	0.30123007
51	0x3e82a669	0.25517586
52	0xc0e09a3e	-7.0188284
53	0x3ef02f02	0.46910864
54	0xbf2dbaa4	-0.67862916
55	0xc0f5dea6	-7.683429
56	0xbfe7cfe6	-1.811032
57	0xc07c6c0b	-3.9440944
58	0x40be15ae	5.9401464
59	0x40ad2e2e	5.411887
60	0xbf2c4c22	-0.6730367
61	0xc0a173c0	-5.0453796
62	0x4088e531	4.2779775
63	0xbedd4158	-0.43213916
64	0xbfda5afb	-1.7059015
65	0xbffe05b6	-1.9845493
66	0x3fe1763a	1.7614205
67	0xbf014e3a	-0.5050999
68	0xc01c4753	-2.4418533
69	0xc0822a5b	-4.0676703
70	0x3fbe76b4	1.4879975
71	0xbfbb7d04	-1.4647527
72	0xc03645b0	-2.8480034
73	0xc06a83f9	-3.664305
74	0xc0ba7666	-5.826953
75	0xc0f43c3d	-7.6323533
76	0xc0cb0dd6	-6.345439
77	0x405f3696	3.4877067
78	0xc0aaa8d4	-5.333109
79	0xc046ab67	-3.1042116
80	0xbff66169	-1.9248477
81	0xc12db24b	-10.856029
82	0x3fe390bd	1.7778546
83	0x40aa76c8	5.3269997
84	0xbf120dfa	-0.57052577
85	0xbfaeac0a	-1.3646252
86	0xbfe12741	-1.7590104
87	0xbdf4a5f1	-0.11945713
88	0xbf4c70f4	-0.7985985
89	0xc065a52c	-3.5882063
90	0x3c6f8970	0.01462017
91	0xc0a78601	-5.235108
92	0xc0ff2e48	-7.9743996
93	0xc029fdf6	-2.6561255
94	0x3fea4ce4	1.8304715
95	0xbf0dbaa4	-0.55362916
96	0x401ced97	2.4520013
97	0xbf5e965a	-0.8694817
98	0xbd99afee	-0.07504259
99	0x3ec9cc89	0.3941386
100	0xc003ee00	-2.0614014
101	0x3e63d684	0.222498
102	0x3e780580	0.24220848
103	0x3fb47eda	1.4101212
104	0xbf3407a6	-0.7032417
105	0x40001bed	2.0017045
106	0x40459daf	3.0877492
107	0x40843666	4.1316404
108	0xbf78811e	-0.9707202
109	0x3f4325a8	0.76229334
110	0x3eae4037	0.34033367
111	0x407176d2	3.7728772
112	0x407b1a93	3.923497
113	0x3f8ee078	1.1162252
114	0x40203ca8	2.5037022
115	0xbdd68a07	-0.104755454
116	0x3e3f7178	0.18695629
117	0x40c7c781	6.2431035
118	0x40b2c99c	5.5871105
119	0xbfc59a6f	-1.5437754
120	0xbea09470	-0.3136325
121	0xbc20f1dc	-0.009823289
122	0xbf11c998	-0.5694823
123	0xbe9bf5f3	-0.30461082
124	0xbe626b43	-0.2211123
125	0xbce7f659	-0.02831571
126	0xbe927c04	-0.2861024
127	0xbec750cd	-0.38928834
128	0xbeb5bfc5	-0.3549787
129	0x3e25c461	0.16188194
130	0x3d1cde89	0.038298164
131	0x3e2bee03	0.16790013
132	0xbe8aeb15	-0.27132478
133	0xbd583be6	-0.0527915
134	0xbe95f3fa	-0.29287702
135	0xbeda3117	-0.42615578
136	0xbe3ca4e2	-0.18422273
137	0xbf133874	-0.57508016
138	0xbe17d0e0	-0.14825773
139	0xbec9f60f	-0.3944554
140	0xbe8c781b	-0.27435383
141	0xbf0c2ed4	-0.54758954
142	0x3f007a00	0.5018616
143	0xbe3d364a	-0.18477741
144	0x3e37a9c6	0.17935857
145	0x3f84159e	1.0319097
146	0xbe5fc051	-0.21850707
147	0x3fb55d9f	1.4169196
148	0x3f8eafce	1.1147401
149	0xbf80dd63	-1.0067562
150	0x408b0e80	4.34552
151	0x3f83cc0a	1.0296643
152	0xbfe0f4fb	-1.7574762
153	0x3dfd3c94	0.1236507
154	0x3fcbbcfb	1.5917047
155	0x3d912b07	0.07088285
156	0xbf1d6121	-0.6147633
157	0x3f8c8c43	1.0980304
158	0x40ac89af	5.391807
159	0x3fae8585	1.3634497
160	0xbef27737	-0.4735658
161	0x3f2450b2	0.6418563
162	0xbe7a11eb	-0.24420898
163	0x3f74e1e9	0.9565721
164	0xbf0d4712	-0.5518657
165	0xc0f7c1d7	-7.742412
166	0xbfea5e71	-1.8310071
167	0xc0176038	-2.3652477
168	0x4042bf9d	3.0429451
169	0xc0900ae5	-4.50133
170	0xc09fe988	-4.997257
171	0xbd0740de	-0.033020847
172	0x400db784	2.214326
173	0xc0ccf26b	-6.404592
174	0xbfe1c53a	-1.7638314
175	0xc03c84f1	-2.945614
176	0xbdb85253	-0.09000077
177	0xbf8f0f54	-1.1176553
178	0x403f55af	2.9896047
179	0x3e8195ad	0.25309506
180	0x4045180d	3.079593
181	0xbf0b9075	-0.545173
182	0xbfaf7014	-1.3706079
183	0x3f837d06	1.0272529
184	0xbf689508	-0.90852404
185	0xbf2a574c	-0.66539454
186	0xbf926f55	-1.1440226
187	0xc0a787b6	-5.2353163
188	0xc010a416	-2.260015
189	0xc0833f92	-4.10151
190	0xbe12156e	-0.14265987
191	0xbe79046b	-0.24318092
192	0x40423ef2	3.0350919
193	0xc0795cf5	-3.8962986
194	0xc1173a56	-9.451742
195	0xc015a3e9	-2.3381293
196	0xc05837c3	-3.3784034
197	0x40c7fb62	6.2494364
198	0x3f2073ce	0.62676704
199	0x3e43bf4b	0.19115941
200	0x3e01225a	0.1261076
201	0xbf0fcf6a	-0.56175864
202	0x40295611	2.645878
203	0x40133a5e	2.3004375
204	0xc1611856	-14.068441
205	0xbf8d799d	-1.1052738
206	0xc0b59d84	-5.675478
207	0x3e37f613	0.17964964
208	0xbea71a0d	-0.32637063
209	0xbf92dd46	-1.1473777
210	0x3f99b7d5	1.2009226
211	0xbd9ad743	-0.07560589
212	0xc0c797d7	-6.237285
213	0xc012cd2d	-2.293773
214	0xc00ff0a8	-2.2490635
215	0x3f7f63d8	0.99761724
216	0x3f69f8ff	0.9139556
217	0xc00549ad	-2.0826218
218	0xbfc184b6	-1.5118625
219	0xc03b8b1c	-2.9303656
220	0xc08b21a6	-4.3478575
221	0x4084e555	4.1529946
222	0x40ca3296	6.318675
223	0xc11353ea	-9.207987
224	0xc020dce2	-2.5134816
225	0xc05fa2a5	-3.494302
226	0xbfcb57a6	-1.5886123
227	0x3fb40ab6	1.4065769
228	0xc0a4855f	-5.1412807
229	0xbdbdd35a	-0.09268828
230	0x40b88b54	5.767008
231	0x401f9f86	2.4941115
232	0x403efedf	2.984306
233	0xbf99d277	-1.2017354
234	0x401725dc	2.3616858
235	0xbfe295a4	-1.7701917
236	0xc0b09fb8	-5.519497
237	0xc12df25c	-10.87167
238	0xc02495fc	-2.5716543
239	0x40684e4e	3.6297793
240	0x3f6be098	0.9213958
241	0x3f0e929f	0.55692476
242	0x400f32ea	2.2374825
243	0x40042e33	2.0653198
244	0x3f88398c	1.0642562
245	0xc0703655	-3.7533162
246	0x3ecad9c1	0.39619258
247	0xc01186a5	-2.273843
248	0xbf90fd9b	-1.1327394
249	0x4043e403	3.0607917
250	0x40475e56	3.1151328
251	0x3fd80786	1.6877296
252	0xbf11d351	-0.5696307
253	0x4032ed39	2.795729
254	0xc15aca63	-13.674411
255	0xbf1fc8fb	-0.62416047

2.bias f4 [24]
0	0x3f96f81d	1.1794468
1	0xbda6e457	-0.08149021
2	0x3f8fa414	1.1221948
3	0xbe634e46	-0.22197828
4	0x40a8162f	5.252708
5	0xbed07660	-0.40715313
6	0xbfe3e091	-1.7802907
7	0xc0630038	-3.5468884
8	0xbfda3e6c	-1.70503
9	0x3da08758	0.07838315
10	0x3ee3d29d	0.44496623
11	0x40715a9f	3.771156
12	0x4012979e	2.290504
13	0xc03ae8af	-2.9204519
14	0xbeec1957	-0.46113083
15	0x3fdacfab	1.7094625
16	0x4006cb5e	2.1061625
17	0x3ff19e37	1.8876408
18	0x3e4b0eb8	0.19829834
19	0xbf724568	-0.94637156
20	0xbf2779f3	-0.65420455
21	0xbe535627	-0.20638333
22	0x3f480e6f	0.78147024
23	0x403c68c1	2.9438937

4.weight f4 [4, 24]
0	0x408151e2	4.0412455
1	0x3fd14c9f	1.6351508
2	0x414e3eba	12.890314
3	0xc12358a7	-10.209144
4	0x400f719a	2.2413087
5	0xbe898093	-0.26855907
6	0xc07bc6d6	-3.934011
7	0xbfb960fe	-1.4482725
8	0xc038d961	-2.8882678
9	0x401a54dd	2.4114296
10	0xbf8e34f0	-1.1109905
11	0x3f316ee8	0.69309855
12	0x409dd47f	4.9321895
13	0x40a42450	5.1294327
14	0x40e53fa8	7.1640205
15	0x4096fa1d	4.7180314
16	0xbeaef97c	-0.34174716
17	0x40f867fa	7.7626925
18	0xc0253770	-2.5815086
19	0xbfdbf8b5	-1.7185274
20	0xc02901fa	-2.6407456
21	0x3d1e7713	0.038687777
22	0xc1019621	-8.099153
23	0x4050cc3d	3.2624657
24	0x4107dd7f	8.491576
25	0x407febe8	3.9987736
26	0x409489d6	4.6418257
27	0x409bafa3	4.86519
28	0x40555c92	3.333775
29	0xbf3a4c51	-0.727727
30	0x3e9ff6ed	0.31243077
31	0x3f9d1063	1.2270626
32	0xc09f49e3	-4.9777694
33	0x408e0d43	4.439119
34	0xc097d903	-4.7452407
35	0x3f900d43	1.1254047
36	0x40b5ed54	5.6852207
37	0xc024caf4	-2.5748873
38	0x408ec6e9	4.461781
39	0x404a6dd9	3.1629546
40	0xc072cd2b	-3.7937725
41	0x412458cd	10.27168
42	0x404cb3ee	3.198482
43	0xc0c8ab4a	-6.2709093
44	0x3fc3233a	1.5245125
45	0x3d3cbdd4	0.04607947
46	0x411704b8	9.438652
47	0xbecc9eba	-0.3996485
48	0x3f93d597	1.1549557
49	0x3d31d76b	0.04341833
50	0x3f699cad	0.91254693
51	0xc029ae84	-2.6512766
52	0x4008af25	2.13569
53	0x3e85a4ea	0.26102382
54	0xc06216aa	-3.5326333
55	0x3fc986fa	1.5744317
56	0x4088832f	4.2660136
57	0x4007d8ec	2.1226149
58	0xbfac73b8	-1.3472815
59	0xbf5c35e0	-0.86019707
60	0x407a3437	3.909437
61	0x41281684	10.505497
62	0xbfb42333	-1.4073242
63	0x402830af	2.6279714
64	0x3fb34e7c	1.4008327
65	0x40c5a086	6.175845
66	0xc07f4df0	-3.989132
67	0xbff84caf	-1.9398402
68	0x40c754ff	6.2291255
69	0x3dc2011a	0.09472866
70	0xbf995423	-1.1978801
71	0x402adbf0	2.669674
72	0x41008657	8.032798
73	0x412ac4ee	10.673079
74	0xbfff61e9	-1.9951755
75	0x4132243e	11.133848
76	0x4055565f	3.3333967
77	0xbde7fbc0	-0.113273144
78	0xbe61adfc	-0.22039026
79	0xc0ac5f20	-5.386612
80	0x40b94e79	5.790829
81	0x40831e04	4.097414
82	0xc03145d2	-2.7698865
83	0xc0460567	-3.0940797
84	0x409a8796	4.829051
85	0xc09ac801	-4.8369145
86	0x4120a18c	10.03944
87	0x40918328	4.5472603
88	0xbf404674	-0.751075
89	0x4109d411	8.614274
90	0x40774469	3.8635504
91	0xc00ba730	-2.1820793
92	0x3e85bbc1	0.26119807
93	0xbda3e0e3	-0.08001878
94	0x40d832a0	6.75618
95	0x3f4f7070	0.8103094

4.bias f4 [4]
0	0x40650df5	3.5789769
1	0x4087cb96	4.243602
2	0x402e0a61	2.7193835
3	0x3f5ffe11	0.8749705
