logs_800/logs/target_params_A_75.pt (torch, 6255 bytes, 6 tensors)

0.weight f4 [24, 12]
00000000: 4a6a 3540 2df6 7c3f 2f5f 20bf f51a 293f
00000010: 149b 113f 7ea1 98bf 9dc2 8fbe 5ad4 05bf
00000020: 16f2 1c40 bc52 3540 ab4d 96be 4cde 7bc0
00000030: 0e35 67c0 f639 1440 390c 95bf 8faa b63d
00000040: fd13 3040 e1a6 183f 8019 04be 8fa0 ea3f
00000050: d37c 3fc0 1911 d93f c8e2 a8bf 7298 22c0
00000060: 8233 a03f b92e 35bf 2ad3 87be 1ec8 adbf
00000070: 3b22 083e e719 2e3f 1bf0 5ebf e89d 4240
00000080: 9ccf 8fc0 c64f 1c3f b13f 3a3f 8bc5 7740
00000090: 5860 24c0 19c1 2140 5bd9 84bf e8e6 7c3f
000000a0: e8a6 52bf b59a 5ac0 491f 743f 5b30 1f40
000000b0: 7d60 04c0 25f9 1d3e dc17 d3c0 229a 8bc0
000000c0: 62fb d63f 50d3 99bf e5a1 d03e ceff 073f
000000d0: f4e3 1c3f 8ddc 1ebe 5fe2 b5bf d5d0 d13f
000000e0: 2e24 b6c0 3a38 dd3f 1353 12c0 7458 d1c0
000000f0: 53b6 efbe 3979 87bf 5bb0 f33e b144 873e
00000100: fb0c 353f c00d bf3f 8c56 0ec0 66bc fcbf
00000110: 657d 6540 c0bd a6c0 fbf2 483e 50d4 0fc1
00000120: a179 42c0 59cc 08bf a9c3 163f 61b0 0740
00000130: 495f d2bf 66de 11c0 fe4b 39bf f1e4 933f
00000140: 71a2 14c0 89b6 90be cf5e 93c0 ff36 b7c0
00000150: 854e b63f 6115 6640 61e5 853e eac3 343f
00000160: bb76 18c0 e878 19c0 84a3 41c0 fa8b 5b3e
00000170: a4d1 9fbe f547 29bf dec7 85bf 6b5e 093f
00000180: 0cb0 ca3f 360b bdc0 9532 573e 3c84 673f
00000190: 5129 27bf 60f5 b33f cec8 93bd d961 cd3f
000001a0: 9e52 0140 7ec1 a0bf e0ba 853f d757 d33f
000001b0: 1241 0f40 c938 eabd 87ac 6ebf 64c8 12bf
000001c0: 12bf 2540 58ce 10c0 c5be 483f 9a4d 13c0
000001d0: e578 18c0 40a3 1bc0 db2f 0b40 b0ce 333f
000001e0: c4b3 5fbf d738 92bf 7aee ef3f 03ff 04bf
000001f0: af8e af3f ad61 b93f 1ac4 bcc0 0244 22c0
00000200: 4652 343f 0519 11be bd2a e9c0 f543 75c1
00000210: 3c3b 8abf 4b57 17c0 6d5c 913f dd1c 703f
00000220: 34a2 fcbf 370d f4bf 56f2 473e b0df 81bf
00000230: 8367 6d40 bcd8 51c0 e4cf 3ac1 a9fd b2c0
00000240: 4dc8 98be 93d7 2340 6d28 f03e 3c33 713f
00000250: 599a 77be 5ea6 e5be 7c90 dfbe b075 3ac0
00000260: d735 c13e afb6 21be c14a 5a40 5559 a240
00000270: 9d53 c03f 42ff bfbe 9074 89bf cc33 ee3e
00000280: fa6a 8d3f be56 e63f d4c9 c53e 6fe0 25be
00000290: f28c 35c0 2a55 34c0 d40c 3bc0 7dc3 f1bf
000002a0: add1 f2bf 4a00 49bf 5604 db3d fa48 f4bb
000002b0: ec8b 56bd d510 fa3d 5610 23be 81d8 2a3e
000002c0: b8bd cdc0 9cd8 903e 9df2 97bd 2fab a83e
000002d0: 86d4 f03f 0235 e93f e652 68be 76ed 54bf
000002e0: 3e63 f13e 96a3 233f fd0d 8abe 1c90 7e3f
000002f0: c1b3 a140 dea1 143f 2370 38c0 6d71 97bf
00000300: c445 d53e 25c9 0d3f 7b9a 70be 0daa b03e
00000310: 1dc6 2e3f 9d44 a2bd 2c51 ad3e c149 b13f
00000320: d288 d040 9b28 093f 499e 023f 9ecd 31bd
00000330: 8ca6 5abf 6f5d 5c40 8cdb 17bc 7b76 cfbe
00000340: cdb5 79c0 3b7e 603f 6022 de3e d16e 293f
00000350: 5064 13c0 c709 4040 4132 7040 0daf 1540
00000360: 2247 4cbf 9016 1b40 9adc 7b3f 5613 e73f
00000370: 5602 533f bda6 9bbe 03a6 6fc0 3f46 11be
00000380: 2f7e 0e40 a350 813d 2838 b1bf 7bf9 09c1
00000390: 3379 91be 0cd6 4740 40ed f73f c1b4 fe3e
000003a0: 7394 95bf cc4d 963f 3c82 9d3f 5b51 c8bf
000003b0: 8859 5cc0 0936 1740 0879 8640 87d4 d340
000003c0: b0f9 dc3f cf8f 42c0 3d66 153f 27e7 1540
000003d0: 05d9 5ebf 58bd af3f 0093 4ec0 8cb1 03bf
000003e0: f0af 01c0 02a0 0840 5409 623f 3031 12c1
000003f0: 026f 9cbf 18d2 b8bf 630b 913d ed5c cb3d
2.8346124 0.98813134 -0.6264524 0.6605676 0.56877255 -1.1924284 -0.28078166 -0.5227715
2.4522758 2.8331747 -0.2935613 -3.935443 -3.6126132 2.3160377 -1.1644355 0.0891925
2.75122 0.59629637 -0.12900352 1.8330249 -2.9919937 1.6958343 -1.3194208 -2.5405545
1.2515719 -0.7077442 -0.26528293 -1.3576696 0.13294308 0.68008274 -0.8708512 3.0408878
-4.494093 0.61059225 0.72753435 3.871432 -2.5683804 2.5274107 -1.0378832 0.98789835
-0.8228593 -3.4156926 0.9536024 2.4873264 -2.0683892 0.15427072 -6.5966625 -4.362565
1.6795466 -1.2017612 0.40748516 0.531247 0.6128533 -0.15513821 -1.4209708 1.6391855
-5.6919165 1.7282784 -2.2863204 -6.5420475 -0.4681879 -1.0583869 0.47595486 0.26419595
0.7072293 1.4926071 -2.2240324 -1.9744995 3.5857785 -5.210663 0.1962394 -8.989334
-3.0386736 -0.5343681 0.58892304 2.1201403 -1.6435329 -2.2791991 -0.7238158 1.1554242
-2.3224146 -0.28264263 -4.6053233 -5.7254634 1.4242712 3.5950549 0.26151565 0.7061144
-2.3822467 -2.3980045 -3.0256052 0.21440116 -0.3121463 -0.6612542 -1.045162 0.53659695
1.5834975 -5.9076185 0.2101539 0.9043615 -0.6529742 1.4059258 -0.07216035 1.6045486
2.0206676 -1.2559049 1.0447655 1.6511182 2.2383466 -0.11436612 -0.93232006 -0.5733702
2.589787 -2.2625942 0.7841609 -2.3016114 -2.3823788 -2.431839 2.1747959 0.70237255
-0.87383676 -1.1423596 1.8744652 -0.51951617 1.3715419 1.4482933 -5.898938 -2.5354009
0.7043804 -0.141697 -7.286467 -15.329091 -1.0799327 -2.364703 1.1356331 0.9379404
-1.9737 -1.9066533 0.19526038 -1.0146389 3.7094429 -3.2788534 -11.675755 -5.5934644
-0.29840317 2.5600326 0.46905842 0.942188 -0.24179973 -0.4485349 -0.4366492 -2.913433
0.3773639 -0.15792345 3.4108126 5.073405 1.5025517 -0.37499434 -1.0738697 0.46523893
1.1048272 1.7995222 0.38630545 -0.16198896 -2.8367276 -2.817698 -2.922658 -1.8887783
-1.8970238 -0.78516066 0.106941864 -0.0074549885 -0.052379534 0.12210242 -0.159242 0.16684152
-6.429409 0.2829026 -0.07419322 0.32943103 1.8814857 1.8219302 -0.22687873 -0.83174837
0.47146028 0.6392149 -0.26963797 0.99438643 5.0531926 0.5805949 -2.8818443 -1.183149
0.4165479 0.5538505 -0.2349643 0.34504738 0.68271047 -0.07923243 0.33850992 1.3850633
6.5167017 0.53577584 0.51022774 -0.043408982 -0.8541038 3.4432027 -0.009268653 -0.4052008
-3.9017212 0.8769261 0.433856 0.6618472 -2.3029976 3.0005968 3.7530673 2.3388093
-0.7979604 2.423252 0.98383486 1.8052776 0.8242544 -0.3040065 -3.7445076 -0.14186953
2.2264516 0.06314208 -1.3845263 -8.623408 -0.2841278 3.1224394 1.9369278 0.4974728
-1.1685928 1.1742492 1.2305369 -1.5649828 -3.4429646 2.362673 4.2022743 6.6196933
1.7263699 -3.0400274 0.5835913 2.3422334 -0.87049896 1.3729658 -3.2277222 -0.5144279
-2.0263634 2.134766 0.88295484 -9.137009 -1.2221377 -1.4439116 0.0708225 0.099298336

0.bias f4 [24]
00000000: 2292 77be b493 e7bd 22a3 cebf d854 bf3f
00000010: 88d8 7f3f 417b f5bf 2c72 8abe 8489 0f40
00000020: 71a0 e3be 1405 913f ca4f 4140 8ec1 5140
00000030: b855 cc3e fdaa 2240 ac37 b240 f3b1 c8bf
00000040: 28d0 a4bf edec 1740 a5c6 67be 166f e63f
00000050: fb3d b93b 8340 e440 59bf ae3f a469 903f
-0.24176839 -0.11307469 -1.6143534 1.4947767 0.99939775 -1.9178239 -0.2704023 2.2427683
-0.44458345 1.1329675 3.020495 3.2774386 0.39909148 2.5416863 5.569296 -1.5679306
-1.2876024 2.3738358 -0.2263437 1.8002651 0.0056531406 7.132875 1.3652145 1.1282239

2.weight f4 [24, 24]
00000000: 73cf 4d3f ba89 63c1 a858 31c1 55f9 8cc0
00000010: dcbd 49c0 9a39 e73f e01e 2bc0 2408 f3bf
00000020: 6a2a 173f b091 763e 36b1 f3bf 77e0 0e40
00000030: 537e f53e 4adb 903f 71f1 a93f 2db9 b63e
00000040: eb87 403f fdaf 4cc0 3811 0440 f04f 8ac0
00000050: 54d3 d5c0 8428 92c0 33c0 9640 ceda bcbd
00000060: 747e 9d3e e513 cdc0 0d10 0ac1 723b 32c0
00000070: 5ab9 56c0 a551 b0be 068e bac0 3e91 2f3f
00000080: 9e71 313f 635b d7c0 5558 66c0 7f13 de3e
00000090: 4455 6c40 0756 93c0 63a3 9d3f 3741 023f
000000a0: 5ce2 6e3f b99d a8c0 3c4e 943f ca4b edc0
000000b0: 4eba 04c1 398c 85c0 be66 1040 97ff b73f
000000c0: bcdf bd3f 2dcc 75c0 b32e 5d3f 7a37 8340
000000d0: 1623 afc0 8162 2cbe 40fc 16bd b54b c4c0
000000e0: 162a c3bf 5ef2 e8bf 817e af40 0f5b 7440
000000f0: 1cdc 94bf 5529 d2bf 8d2f ba40 9364 3dbf
00000100: dd02 a1bf 4235 d53e cd03 d03f 0f74 8dbf
00000110: 5574 cdbf 406b 1ac0 70a6 5c3f b63b 833f
00000120: d13f a4bf 44af 80c0 e087 d4c0 8eaf dcc0
00000130: aeb1 ecc0 ae1d a340 bc6e 1cc0 67ab 46c0
00000140: d95b 8d3e 6e3a 26c1 01ce c43f 9f3e 2340
00000150: bd85 a4bf 3213 963f 8eb7 23c0 4739 823f
00000160: f0c2 c1bd 8905 d2c0 38fa debe bc8e eabf
00000170: ec5f f1c0 f6fd 29c0 f2ce 633f 0a59 203e
00000180: 7d87 ae3f 0bd9 d2bf bf2e edbf 714c fb3f
00000190: a7d4 5fbf aa2a b03f f899 763f 09cb c83e
000001a0: 9c09 c0bf 26dc 7c3f aefd ce3f ad86 a740
000001b0: 6abe 6abf 28af c73f c855 373e 2e0a 1940
000001c0: 70f0 ea3f 8e57 8d3f 48fa 1740 4ed4 2a3e
000001d0: e7ef 6e40 4c5f 1541 2085 5f40 1697 0e3b
000001e0: 7094 a0be dcf1 20bc 98c9 11bf f3f5 9bbe
000001f0: 436b 62be 59f6 e7bc 047c 92be cd50 c7be
00000200: c5bf b5be 61c4 253e 89de 1c3d 03ee 2b3e
00000210: 15eb 8abe e63b 58bd faf3 95be 1731 dabe
00000220: e2a4 3cbe 7438 13bf e0d0 17be 0ff6 c9be
00000230: 1b78 8cbe d42e 0cbf 007a 003f 4a36 3dbe
00000240: 9031 bc3e 99a8 423e ecf1 033f 3526 2040
00000250: 47c0 d73f 1fad 4bc0 0449 b340 e2f5 883f
00000260: aef3 49bf ea6a 38bd 8435 b03f d0c9 9cc0
00000270: da00 54bf 7c23 b13f e309 9540 21ae bb3d
00000280: 4da5 58bf 89f7 343f 6b51 003f 5e61 763f
00000290: 7b1c 503f 0533 ebc0 298b 5ebf 297f b5bf
000002a0: c392 2d40 73ba 96c0 be53 73c0 9116 99be
000002b0: 04dc b33c 2494 c8c0 324c 893f 9be5 aec0
000002c0: 404e 973e 0f51 0ec0 fce4 f83f ff3b 3740
000002d0: 1fd6 8abf ca0c 7dbe bd84 963f a98c 663f
000002e0: b836 223e ddca 15bd 9fd0 5440 0b1d 8fbf
000002f0: 6009 e0bf ca4a bac0 8aed e63d 1bce a0be
00000300: 583c 3c40 1146 0ac0 7c5b b7c0 4008 7dc0
00000310: 9673 3ec0 4075 2e40 8722 9940 6f00 033f
00000320: 7b20 1dc0 2d6b 39c0 da0d 1cbf 75bf a340
00000330: ca39 0bc1 4c74 7abe ebc3 61c0 32ea 9f3e
00000340: c34f a3be 211b 31c0 c325 f03f 8de8 393f
00000350: 68dd e4c0 ef8d 513f 27e9 60bf d6e2 1abf
00000360: 087c da3f 32b7 55c0 e8ea d3bf 069b c8c0
00000370: 3c88 8cc0 8942 9540 359e f23f dbd1 3bc1
00000380: 10f5 49c0 6d3c b8c0 ab3e 17bf fb11 63bf
00000390: 9552 98c0 7214 75bd 0c2d 3140 a354 1340
000003a0: 78e5 3a40 127f 7bbe 856c 2740 308c 7dbf
000003b0: 764a b0c0 4a55 17c0 05b7 aabf 6fdd 2140
000003c0: 54ae b53f 03be 9fbe 55c0 2a3d dae4 a43f
000003d0: 2d8b e63f c9f0 e2bf 6684 3040 958b cb3e
000003e0: c4ee 7abf 180d eb3f 72df 6240 3daf 55c0
000003f0: 7896 ce3d f1d1 d73f e3d1 b7c0 56db 61bf
0.8039467 -14.221125 -11.084145 -4.405436 -3.152213 1.8064454 -2.6737595 -1.8986859
0.59049094 0.24079013 -1.9038455 2.2324502 0.4794794 1.1316922 1.3276807 0.35688153
0.75207394 -3.1982415 2.063551 -4.322258 -6.682047 -4.5674458 4.710962 -0.09221421
0.3076054 -6.4086785 -8.628919 -2.7848783 -3.355063 -0.3443729 -5.829837 0.68580997
0.6931399 -6.7299056 -3.5991414 0.4337425 3.6927042 -4.6042514 1.2315487 0.5088076
0.93314147 -5.2692533 1.1586375 -7.4155016 -8.295485 -4.173367 2.256271 1.4374875
1.4833903 -3.840587 0.8639938 4.100522 -5.473033 -0.16834451 -0.036861658 -6.1342416
-1.5247219 -1.8198965 5.4841924 3.8180578 -1.1629672 -1.6418864 5.8183045 -0.7398159
-1.2578999 0.41642195 1.625116 -1.1051043 -1.6051127 -2.412796 0.86191463 1.0252597
-1.2831975 -4.0213947 -6.6415863 -6.89643 -7.3966894 5.097373 -2.4442587 -3.1042116
0.27609137 -10.389265 1.5375367 2.550697 -1.2853314 1.1724608 -2.5580783 1.017373
-0.094610095 -6.5631757 -0.43550277 -1.8324809 -7.542959 -2.6561255 0.8898765 0.15658966
1.3635098 -1.6472486 -1.8529891 1.9632703 -0.87433857 1.376302 0.9632869 0.39217404
-1.5002933 0.9877342 1.6171167 5.23519 -0.916968 1.5600328 0.17903817 2.3912463
1.8354626 1.1042345 2.374651 0.1668255 3.7333925 9.335766 3.4925003 0.0021757535
-0.3136325 -0.009823289 -0.5694823 -0.30461082 -0.2211123 -0.02831571 -0.2861024 -0.38928834
-0.3549787 0.16188194 0.038298164 0.16790013 -0.27132478 -0.0527915 -0.29287702 -0.42615578
-0.18422273 -0.57508016 -0.14825773 -0.3944554 -0.27435383 -0.54758954 0.5018616 -0.18477741
0.36756563 0.19009627 0.5154102 2.502332 1.6855553 -3.1824415 5.602663 1.0700037
-0.7888745 -0.045023836 1.3766332 -4.8996353 -0.828138 1.3838954 4.657457 0.09164072
-0.8462723 0.7069021 0.50124234 0.9624232 0.8129346 -7.349978 -0.8693109 -1.4179431
2.7120826 -4.71026 -3.8019862 -0.2990003 0.021955498 -6.2680836 1.0726378 -5.465528
0.29551888 -2.2236974 1.944488 2.8630369 -1.0846595 -0.2471191 1.1759259 0.9005838
0.15841186 -0.03657042 3.3252332 -1.1180738 -1.7502861 -5.8216295 0.11275776 -0.31407246
2.941183 -2.1605265 -5.7299175 -3.9536285 -2.9758048 2.7259064 4.785465 0.51172537
-2.4551075 -2.8971665 -0.60958636 5.117121 -8.701609 -0.24458426 -3.527583 0.31233364
-0.3189679 -2.7672808 1.8761524 0.7262047 -7.152027 0.818572 -0.8785576 -0.60502374
1.7069101 -3.3393064 -1.6556063 -6.2689238 -4.39163 4.664372 1.8954531 -11.738734
-3.1555824 -5.757376 -0.5908 -0.8869931 -4.760081 -0.05983395 2.7683744 2.3020408
2.9202557 -0.24560192 2.6159985 -0.99042034 -5.5090895 -2.3645806 -1.3337103 2.5291402
1.4193826 -0.31199655 0.04168733 1.288234 1.8011223 -1.7729732 2.758081 0.3975493
-0.9802058 1.8363371 3.544888 -3.3388207 0.100872934 1.6860944 -5.744371 -0.88225305

2.bias f4 [24]
00000000: 583c 823f 3921 7d3f aef1 e33f 8f75 df3e
00000010: 6d93 8c40 6076 d0be 61c2 c6bf 8dd7 8bbf
00000020: d3c7 1cc0 2857 c33e 1018 9ebf b149 2a40
00000030: 8872 743f 5750 43c0 6369 693f dc18 9c3f
00000040: 68c8 b93f 66d9 773f 81f9 ab3e 4e87 a7bf
00000050: 945c ed3e 2756 53be cbb0 d83f 5847 c63f
1.0174665 0.9887882 1.780813 0.43644378 4.3929963 -0.40715313 -1.552807 -1.0925156
-2.4496963 0.38152432 -1.2351093 2.6607478 0.9548726 -3.0517786 0.9117643 1.2195086
1.4514284 0.968161 0.33588794 -1.3088167 0.46359694 -0.20638333 1.6928953 1.5490522

4.weight f4 [4, 24]
00000000: 35fa e240 92fe bf3f 9eeb 1041 8fd8 0dc1
00000010: 283d c13f 9380 89be 2f89 53c0 3c61 5940
00000020: f083 d5c0 3ab2 ac3f a455 91c0 1900 4140
00000030: bf6a 4040 ed02 9d40 d88b c340 c7ac b440
00000040: 2245 bb3f 96be ae3e 7037 25c0 af9f 6cbf
00000050: edd4 d7bf 1377 1e3d 35b1 00c1 21ef 5140
00000060: 5bb7 db40 0579 c240 1ceb 8f40 4de0 ca40
00000070: efb5 1f40 514c 3abf d5df 5d3f be18 7440
00000080: fc55 f1c0 b0b9 d940 bba0 01c0 2c3b 7fbe
00000090: 4002 ad40 990e 08c0 fac6 8c40 fb0c 4040
000000a0: 9a95 c8bf 9ac1 c640 eeb3 4c40 97e5 81c0
000000b0: f1a4 b03e d4bd 3c3d 49bd 0541 a5b6 aabf
000000c0: 1307 1840 421f 153d 8f86 03bf a1cf 783e
000000d0: b768 eb3f eaa4 853e 0705 89c0 4849 8340
000000e0: c96f d540 5f0b 4e40 092a 2ac0 5f87 c63d
000000f0: 6837 1840 7d9d 0c41 0d86 a7bf 46bf 66c0
00000100: d604 5c40 aab7 a340 f04d 7fc0 3616 0ac0
00000110: bf54 e040 1a01 c23d 9ee6 ebbe c931 ee3d
00000120: e18e dc40 8bb2 c640 5761 6c3f 23ff dc40
00000130: 3f73 1640 c0fb e7bd f822 a8bd 1692 e23d
00000140: 7a26 5340 2420 bd40 6af5 cabf 6f9d e7bf
00000150: d1ec a540 277d 82c0 367c 2041 d52f 0141
00000160: 3b45 85bf 1de2 9640 de91 7740 9059 113d
00000170: f45b 7b40 e3e0 a3bd 151f e940 185e 553f
7.093043 1.4999564 9.057524 -8.865371 1.5096788 -0.26855907 -3.305248 3.3965597
-6.6723557 1.349189 -4.541704 3.015631 3.0065153 4.906607 6.110821 5.646091
1.4630473 0.3412978 -2.5815086 -0.9243116 -1.6861855 0.038687777 -8.043263 3.2802203
6.8661323 6.077273 4.49745 6.3398805 2.4954793 -0.727727 0.86669666 3.8140101
-7.541746 6.803917 -2.0254352 -0.24924916 5.4065247 -2.125891 4.399289 3.0007923
-1.5670655 6.211133 3.198482 -4.059276 0.3450084 0.04607947 8.358712 -1.3336989
2.3754318 0.036406763 -0.51377195 0.24297954 1.8391331 0.26102382 -4.2818637 4.1026955
6.6698956 3.219444 -2.6588156 0.09693789 2.3783817 8.788449 -1.3087784 -3.6054244
3.4377952 5.11617 -3.989132 -2.1576056 7.010345 0.09472866 -0.46074384 0.116305895
6.8924413 6.209295 0.9233603 6.9061446 2.350784 -0.113273144 -0.08209795 0.1106302
3.2992234 5.9101734 -1.5856144 -1.809492 5.1851583 -4.0777774 10.030325 8.074178
-1.0411752 4.7151017 3.868278 0.035485804 3.9274874 -0.08001878 7.285044 0.833467

4.bias f4 [4]
00000000: 81f9 4340 b36e 9340 40e8 e03f 37a8 c6be
3.0621035 4.607263 1.7570877 -0.38800213
