logs_800/logs/target_params_B_700.pt (torch, 6263 bytes, 6 tensors)

0.weight f4 [24, 12]
0	0x3f83685f	1.0266227
1	0x3f0c87f5	0.54894954
2	0x3ea9c6d4	0.33159506
3	0x3f0f1aa6	0.5590004
4	0x3fec9145	1.8481833
5	0x3ef3c6a5	0.4761249
6	0x3f189e6a	0.5961672
7	0xbf7c182b	-0.9847438
8	0xbff492e4	-1.9107327
9	0x3e926efc	0.286003
10	0x40bd70d7	5.9200244
11	0x4023cafd	2.5592644
12	0x3eb6d9eb	0.35713133
13	0x3ffa0c44	1.9534993
14	0x3e32d6a9	0.17464699
15	0xbf7e22b2	-0.9927169
16	0x3f6ed085	0.93286926
17	0x3f71570c	0.9427345
18	0xbe5f954e	-0.21834299
19	0xbf327916	-0.6971601
20	0xbff24dc6	-1.8929985
21	0xc0d54851	-6.6650777
22	0xc02a1591	-2.6575663
23	0xbeaa9820	-0.33319187
24	0xbf2343d9	-0.637754
25	0x3f9632b5	1.1734225
26	0xc01bb23c	-2.4327536
27	0xbeffed82	-0.49985892
28	0xbfa09c53	-1.2547706
29	0x3ee69dec	0.4504236
30	0xbd9cc071	-0.07653893
31	0x3f7a8830	0.97864056
32	0x3fe7fe10	1.8124409
33	0xbf0804f1	-0.5313254
34	0xbfced399	-1.6158324
35	0x409195f3	4.5495543
36	0x3f968da3	1.1761974
37	0x3eed5c17	0.4635932
38	0xbedd4c90	-0.43222475
39	0xbe452f14	-0.1925624
40	0xbe09e6dc	-0.13466972
41	0xbf146bfa	-0.5797726
42	0x3ec31b3c	0.38106716
43	0x3f577b9e	0.84173
44	0x40c4a28e	6.144843
45	0x3f2b4ce6	0.6691421
46	0xc09e13c6	-4.9399137
47	0x4039b742	2.9018102
48	0xbece2c51	-0.40268186
49	0x3eed87b5	0.463926
50	0x3ee6357f	0.4496269
51	0xbf4266bf	-0.7593803
52	0x3ed34265	0.41261593
53	0xbe9507db	-0.29107556
54	0x3f1507b4	0.5821488
55	0x3ecb4e91	0.3970838
56	0xc0ea6731	-7.3250966
57	0xc0723c36	-3.784925
58	0xc09f393a	-4.9757357
59	0xc0aaab42	-5.3334055
60	0xbe5d459b	-0.21608584
61	0x3f1d3480	0.61408234
62	0xbf77ccff	-0.96797174
63	0xbec9a451	-0.39383176
64	0x3e0ffae7	0.14060555
65	0x3fb9b155	1.4507242
66	0x3f364c96	0.7121061
67	0x3f76a936	0.96351945
68	0xc08271db	-4.0763984
69	0xbfa16afb	-1.2610773
70	0x40a22570	5.06707
71	0x3e8901d3	0.26759204
72	0x3f89991a	1.0749848
73	0xbe9774d9	-0.29581335
74	0xbf5691f1	-0.8381644
75	0xc036a8a3	-2.8540428
76	0xc00d6a3f	-2.2096097
77	0xbd08e14a	-0.033417977
78	0xbf072b01	-0.52799994
79	0xbfa8bbd9	-1.3182327
80	0x3fdaaab8	1.7083349
81	0xbf9162a7	-1.1358231
82	0xc041a579	-3.0257246
83	0xbf8f7776	-1.1208332
84	0x3f373758	0.7156882
85	0x40207918	2.507391
86	0xbfa665b5	-1.2999789
87	0xbefbb087	-0.49158117
88	0xbe9ba5c5	-0.3039991
89	0x3fc3cab0	1.529623
90	0xbf40d5af	-0.75326055
91	0xbfc1a1ad	-1.5127465
92	0xc0b482b9	-5.6409574
93	0xc03fcb02	-2.9967656
94	0xbfc2582c	-1.5183158
95	0xc0d15dca	-6.542699
96	0xbf8a94fb	-1.0826715
97	0x3fc0a6d0	1.5050907
98	0x3e44be1d	0.19213147
99	0x3baca669	0.005268861
100	0x3f43789a	0.763559
101	0xbef77888	-0.48334146
102	0x3f197659	0.5994621
103	0x3ed0ee10	0.40806627
104	0x406b24ad	3.6741135
105	0x3eb34c85	0.35019317
106	0x3ef360b1	0.47534707
107	0x40014484	2.0198069
108	0xbe93f7b1	-0.2889991
109	0xbf096d53	-0.5368244
110	0xbe7f1d28	-0.24913466
111	0xbe4d2216	-0.20032534
112	0xbdd69f2e	-0.1047958
113	0xbeb3d2bf	-0.35121724
114	0xbe8076dc	-0.25090683
115	0xbe1ba671	-0.15200211
116	0x3e0ccb5b	0.13749449
117	0xbec55d60	-0.38547802
118	0x3d2c9cbe	0.04214167
119	0xbd079b49	-0.033107076
120	0xbddbb3ff	-0.10727691
121	0xbecd8b61	-0.401454
122	0xbea0fff2	-0.3144527
123	0x3da8240f	0.08210003
124	0xbe5349fb	-0.2063369
125	0xbeb8c516	-0.36087865
126	0xbe96dc99	-0.29465178
127	0x3c1bf8e3	0.009519788
128	0x3dcf57f4	0.101241976
129	0xbe992128	-0.2990811
130	0xbd55db3e	-0.05221104
131	0xbcc8d7dd	-0.024516994
132	0x4013c67b	2.3089893
133	0xbfdba484	-1.7159581
134	0xbe645f89	-0.22302069
135	0xbdc26bcc	-0.09493217
136	0xbe8901d7	-0.26759216
137	0xbe9e109f	-0.30872056
138	0x3d591db5	0.053006846
139	0x3e8d298b	0.27570757
140	0xc06f54ed	-3.7395585
141	0xbea52b21	-0.32259467
142	0xbf8a1a1b	-1.0789217
143	0xbf0eb90e	-0.5575112
144	0xbfb94cbb	-1.4476541
145	0xbe8f0556	-0.27933758
146	0x3e276c43	0.16349892
147	0x3d803f08	0.06262022
148	0x3f6d707d	0.9274977
149	0x3e1192b9	0.14216127
150	0x3d8eda19	0.069751926
151	0xbf3a82e8	-0.72856
152	0x40c06811	6.0127034
153	0x3f155d4b	0.5834548
154	0xbe0ccf61	-0.13750984
155	0x409b54a8	4.854084
156	0x3f4c5e05	0.7983096
157	0xbdf4fcdb	-0.11962291
158	0xbd44f51d	-0.04808532
159	0xbd3a111a	-0.045426466
160	0x3bc15a92	0.0059006894
161	0xbf099de2	-0.53756535
162	0x3f35812e	0.7090024
163	0x3f2c1be5	0.67230064
164	0x3f7d2e5b	0.9889886
165	0xbeb4c551	-0.3530679
166	0xbf3c3609	-0.7351995
167	0x408e0dca	4.439183
168	0xbe778f5d	-0.24175783
169	0x402e52ab	2.7237957
170	0x3e1c1572	0.15242556
171	0xbd55045a	-0.052006103
172	0xbea7c942	-0.32770735
173	0xbfed7783	-1.8552097
174	0x3e103d4f	0.14085887
175	0xbf3b3552	-0.73128235
176	0x3fc2f1bc	1.5230021
177	0x3f289ee8	0.6586747
178	0xc0110330	-2.2658195
179	0x3f0c1b71	0.5472937
180	0x3e7c2b79	0.24625959
181	0x3ef6e347	0.48220274
182	0x3e6e9226	0.23297939
183	0xbe6dc81c	-0.23220867
184	0xbe6225a7	-0.22084676
185	0x3f4e0bf7	0.80487007
186	0xbeea10a0	-0.4571581
187	0x3e935206	0.28773516
188	0x40cbf8d7	6.374126
189	0xbfb8c1e3	-1.443417
190	0xbf502f93	-0.8132259
191	0xbf21554e	-0.6302079
192	0xbe7c1e5e	-0.24620959
193	0xbf1919ae	-0.5980481
194	0xbe5fde7f	-0.2186222
195	0x3ef280a9	0.47363785
196	0xbdf98098	-0.121827304
197	0x3f3f14f0	0.74641323
198	0x3f85838e	1.0430772
199	0x3fe56dbf	1.7924117
200	0xc0f3ead3	-7.622415
201	0x3fd455a9	1.6588641
202	0xc036a59c	-2.853858
203	0xc09c7996	-4.889842
204	0xbffd28d8	-1.977809
205	0xbf46e1c6	-0.7768825
206	0x3e6af3b6	0.22944531
207	0x3fd02ff3	1.6264633
208	0xbfe9b191	-1.8257314
209	0x3fae3ad7	1.3611706
210	0x3f57064e	0.83993995
211	0x3f31a30b	0.6938941
212	0xc07b8d67	-3.9305055
213	0xc09b5d3c	-4.855131
214	0xbef11274	-0.4708439
215	0x3dced894	0.10099903
216	0x3eaca797	0.3372161
217	0x3f142a1a	0.5787674
218	0xbf457f06	-0.7714695
219	0xbfa042ef	-1.2520427
220	0xbea3f4b7	-0.3202264
221	0x3f535158	0.82545996
222	0xbdcb9637	-0.099407606
223	0x3f08d0b3	0.5344345
224	0xc11e5a4a	-9.897043
225	0x405e534d	3.4738343
226	0x409e3b7a	4.9447603
227	0x3fa15cd4	1.2606454
228	0xc024ebab	-2.576884
229	0xbf73b501	-0.95198065
230	0x3f290076	0.6601633
231	0x3ef79a48	0.48359895
232	0x3ff11125	1.8833357
233	0x3f739a30	0.95157146
234	0x3e73df46	0.23815641
235	0xbd69bdf8	-0.057065934
236	0xc0ab1aa8	-5.347004
237	0xbe5b0225	-0.21387537
238	0xc00e7a34	-2.2262087
239	0xc053c65b	-3.3089817
240	0xbe857b06	-0.26070422
241	0xbf0b8d95	-0.5451291
242	0xbfc5461b	-1.541202
243	0xc06d4883	-3.7075508
244	0xbf31e12d	-0.69484216
245	0x3f1a7296	0.60331094
246	0x3fb9348b	1.446916
247	0x402d0291	2.7032816
248	0xc08ad38f	-4.338325
249	0xbf415576	-0.7552103
250	0xbfec2860	-1.8449821
251	0x3fde7cf4	1.7381883
252	0xbf92a1aa	-1.1455586
253	0xbf7eaf28	-0.9948602
254	0x3e4f8a82	0.2026768
255	0x3ef40a32	0.47664028

0.bias f4 [24]
0	0xbf9b30ab	-1.2124227
1	0xc0061454	-2.0949907
2	0xc064cb98	-3.5749264
3	0xc078e7f8	-3.8891582
4	0x40765daa	3.8494668
5	0xc0d28799	-6.5790524
6	0xc0527096	-3.2881217
7	0xc011e4e1	-2.2795947
8	0xc0cad32d	-6.3382783
9	0xbf2482ae	-0.642619
10	0xbf2bc9be	-0.6710471
11	0x403d3b70	2.9567528
12	0x3fec5b81	1.8465425
13	0xc0e3393e	-7.1007376
14	0x40add909	5.4327435
15	0xc0c1661b	-6.043714
16	0xc036bad8	-2.855154
17	0x40523b49	3.2848685
18	0xbef5dbf0	-0.48019361
19	0x403ef471	2.9836695
20	0x3ef39094	0.47571242
21	0xbd6a634b	-0.0572236
22	0xc064c4ae	-3.5745044
23	0xc0b98d9f	-5.7985377

2.weight f4 [24, 24]
0	0x4039374b	2.8939998
1	0xbfe2f34b	-1.7730497
2	0x40138c3e	2.3054347
3	0x40341cd0	2.8142586
4	0xc03df8f8	-2.9683208
5	0x40249f61	2.5722277
6	0xc09b50ea	-4.853627
7	0x3dcc3a4d	0.099720575
8	0x406e16f9	3.7201521
9	0x3d1b8a38	0.037973613
10	0xbd2ca74b	-0.04215173
11	0xc0001c69	-2.001734
12	0xc00765f3	-2.1155975
13	0x3f4462c9	0.76713234
14	0xc01dc20b	-2.4649684
15	0x4069ae8f	3.6512792
16	0xbf89b409	-1.0758067
17	0x3e00605c	0.12536758
18	0x3f30d993	0.6908199
19	0xbfa9dd3b	-1.3270639
20	0xc0729645	-3.7904217
21	0x3fafd1d6	1.3735912
22	0x40ba5f8e	5.8241644
23	0x40d1166b	6.5339866
24	0xbfb438cf	-1.4079837
25	0xbff6e55a	-1.9288743
26	0x3f9580a6	1.1679885
27	0x3f298025	0.6621116
28	0xc09a753c	-4.826811
29	0x3f8915b0	1.0709743
30	0x4006a2c2	2.103684
31	0x3f1c66cc	0.61094356
32	0xbdf9832c	-0.12183222
33	0x3d754532	0.059880443
34	0x3d7aef5e	0.061263435
35	0xc015ce25	-2.340707
36	0xbfa05af4	-1.2527757
37	0x3f9f61a8	1.2451677
38	0xc029c0ee	-2.6524005
39	0x3fdd46a8	1.7287188
40	0xc0619eb8	-3.5253124
41	0xc02b31ce	-2.6749148
42	0xbe96204f	-0.29321525
43	0xc057e959	-3.3736174
44	0x3fc028df	1.5012473
45	0xc0786821	-3.8813555
46	0xbfba688e	-1.4563158
47	0x3f597700	0.84947205
48	0xc0028125	-2.0391324
49	0xc0870efd	-4.2205796
50	0x3fe4a602	1.7863162
51	0x3fb70de2	1.4301112
52	0xc09eb2b5	-4.959315
53	0x3f7cc2b6	0.98734605
54	0x3f698fbc	0.91234946
55	0xbd9275d5	-0.07151381
56	0x3f30750b	0.68928593
57	0xbd2b288c	-0.041786715
58	0xbdc149b1	-0.09437884
59	0xbf5b3a21	-0.8563557
60	0xc0009050	-2.0088081
61	0x3f75a6c2	0.9595758
62	0xbfb8737e	-1.4410245
63	0x3f14e72b	0.58165234
64	0xc08e2478	-4.4419518
65	0xc0174466	-2.3635497
66	0xbeeef232	-0.46669155
67	0xc0ab4aaa	-5.3528643
68	0x3eb41def	0.35179088
69	0xc072f899	-3.7964232
70	0xbfb3be11	-1.4042379
71	0x3f922803	1.1418461
72	0x3fa59658	1.2936506
73	0xbe00c786	-0.12576112
74	0xbf4056c1	-0.75132376
75	0x40260730	2.5941887
76	0xbe81d811	-0.25360158
77	0x3fc2c5e5	1.5216643
78	0x3e8454d0	0.25845957
79	0x3f5c5649	0.8606916
80	0x3e5055ed	0.20345278
81	0x3dbff8ea	0.093736485
82	0x3da31cd0	0.0796448
83	0xc0961467	-4.6899905
84	0xc010532d	-2.2550766
85	0x3f1d987d	0.61560804
86	0xbf8bb2ba	-1.0913918
87	0x3f17df70	0.59325314
88	0x3fa35fc9	1.2763606
89	0xbf189e6a	-0.5961672
90	0xbf2eb4c3	-0.6824457
91	0xbff9cf3e	-1.951637
92	0xbfdd24da	-1.7276871
93	0xc11ed942	-9.928041
94	0xbf96cd8f	-1.1781482
95	0x406b77b9	3.6791823
96	0xc04b68e8	-3.178278
97	0x3fb378e4	1.4021268
98	0x3f823fba	1.0175698
99	0x3fabcf70	1.342268
100	0xc11586ec	-9.34544
101	0x3fcc1c78	1.5946188
102	0x404adf94	3.1698961
103	0x3f50be04	0.8153994
104	0xc006604f	-2.0996282
105	0x3e0b64ff	0.13612746
106	0xbe083d69	-0.13304676
107	0xbe917206	-0.28407305
108	0x3f48094f	0.78139204
109	0x3fba5263	1.4556392
110	0xc10e55eb	-8.895976
111	0x3fbd2e06	1.477967
112	0xbfe139bc	-1.7595744
113	0xbf6d8fcd	-0.9279755
114	0xbeb06579	-0.34452417
115	0x3df9860b	0.1218377
116	0x3f25cf40	0.64769363
117	0xc02ddc72	-2.71658
118	0xc08a2549	-4.3170514
119	0x3f8a84ca	1.0821774
120	0xbe345b76	-0.17613015
121	0xbb1068af	-0.0022035053
122	0xbe9c23d5	-0.30496088
123	0xbe616f11	-0.22015025
124	0x3d249e4b	0.040190022
125	0xbe64af53	-0.22332506
126	0x3d370625	0.044683594
127	0x3c2388fb	0.009981389
128	0xbc80b351	-0.015710505
129	0x3e06de0a	0.13170639
130	0x3dd6d0ab	0.10489019
131	0xbe1720ef	-0.14758657
132	0xbe745746	-0.23861417
133	0x3da7c193	0.08191218
134	0xbe5ed7e1	-0.21762039
135	0xbe5d9748	-0.2163974
136	0xbeb7f535	-0.35929266
137	0xbec4301a	-0.3831795
138	0xbd739e67	-0.059477236
139	0xbee96e5c	-0.4559201
140	0xbe2c043f	-0.16798495
141	0xbcf854a1	-0.030313792
142	0x3db2d8f8	0.0873279
143	0xbe3cf733	-0.18453674
144	0xbe4261ea	-0.18982664
145	0xbe4925e4	-0.1964336
146	0xbdc7b5e4	-0.0975149
147	0xbe0910d3	-0.13385324
148	0xbe34b47c	-0.17646974
149	0xbe9aea3b	-0.3025683
150	0x3d111adc	0.035426006
151	0xbd3ef00d	-0.04661565
152	0xbd864a0a	-0.065570906
153	0xbbd34a00	-0.0064480305
154	0x3de198ec	0.11015496
155	0xbe09b847	-0.13449202
156	0xbe00ec96	-0.1259025
157	0xbe1d64f4	-0.15370542
158	0xbe957e9b	-0.29198155
159	0x3d3698b7	0.044579234
160	0x3cb9bdb9	0.022673475
161	0xbe6ae855	-0.2294019
162	0xbe86597e	-0.26240152
163	0x3d949d29	0.072565384
164	0xbe1bb8d1	-0.1520722
165	0xbdd741ef	-0.10510623
166	0x3d8db4c1	0.06919242
167	0xbdc8672c	-0.097853035
168	0xbe92e139	-0.28687456
169	0xbedabf2e	-0.42723984
170	0xbd45eea0	-0.048323274
171	0xbeceb4ce	-0.40372318
172	0xbdb4031f	-0.08789658
173	0xbd2908cc	-0.041268155
174	0xbe3beb06	-0.18351373
175	0xbc648030	-0.013946578
176	0xbbd751a0	-0.0065710098
177	0x3d20217c	0.039094433
178	0xbcb5b530	-0.022181123
179	0xbd14127a	-0.036150433
180	0xbeb9b7a5	-0.36272922
181	0xbd6cf358	-0.05784926
182	0xbe994e79	-0.29942682
183	0xbd2666d8	-0.040625423
184	0xbeca9079	-0.3956335
185	0xbe8a42ad	-0.27003995
186	0xbdd675d2	-0.10471691
187	0x3bbac1c0	0.0056993663
188	0x3c86feb0	0.016478866
189	0xbeac3dad	-0.33640805
190	0xbde33589	-0.110941954
191	0x3ce22460	0.027605236
192	0x3ff49982	1.9109347
193	0xbf46bf8e	-0.7763604
194	0x400cffd6	2.203115
195	0xbfd63b59	-1.6736861
196	0xc09558e8	-4.667103
197	0x4065ecc6	3.5925765
198	0x406d0537	3.7034433
199	0x4054c9f1	3.3248255
200	0xc0968ad4	-4.704447
201	0x3db6fd00	0.08934975
202	0xbc1b8648	-0.009492464
203	0xc005e1e7	-2.091913
204	0xbf98a37a	-1.1924889
205	0xc0bd795c	-5.9210644
206	0xc00e3a27	-2.2222993
207	0xbf8bdcc6	-1.092675
208	0xc00b8f04	-2.180604
209	0xc0fec646	-7.9617033
210	0xbe902718	-0.28154826
211	0xc073f0d4	-3.811574
212	0xbf97a057	-1.1845807
213	0xbf9e3fa0	-1.2363167
214	0xbe2ee9fc	-0.17081445
215	0xc120c852	-10.048906
216	0xbffcd133	-1.9751343
217	0xc00c7c01	-2.1950686
218	0x3f92fdc1	1.148369
219	0x3f689f45	0.90868026
220	0xc095fb65	-4.686938
221	0x3ef765b9	0.48319796
222	0x3fe26476	1.7686908
223	0x3e3211fb	0.17389672
224	0x3d97756e	0.07395445
225	0xbdd296af	-0.10282647
226	0xbc0d8558	-0.008637749
227	0xbfb9d27d	-1.4517361
228	0xbfb69f0c	-1.4267287
229	0x3f84bfaa	1.0370991
230	0xbfb6d0f0	-1.4282513
231	0x3f946a44	1.159493
232	0xc0911e82	-4.534974
233	0xbfd44d55	-1.65861
234	0x3db50622	0.0883906
235	0xc089ef23	-4.3104415
236	0x3f82b6ec	1.0212073
237	0xc04a930e	-3.1652255
238	0xbf0ce93f	-0.55043405
239	0x3f45f81a	0.773317
240	0x3f29bedd	0.6630686
241	0x3ee9c837	0.45660564
242	0x3f2ce597	0.67537826
243	0x3f293783	0.6610033
244	0xbe8df0ac	-0.2772268
245	0xbedf26e3	-0.43584356
246	0xc09dae31	-4.9275136
247	0xbfe87dac	-1.8163352
248	0xbfcc727d	-1.5972439
249	0x3d84b2cb	0.064794146
250	0x3e563be2	0.20921281
251	0x3f2c759b	0.6736695
252	0xbfb47a83	-1.4099888
253	0x3fca4488	1.5802164
254	0xbd0b18c3	-0.03395916
255	0x4036002d	2.8437607

2.bias f4 [24]
0	0xbfa0e8ef	-1.2571086
1	0xbfcba04e	-1.5908296
2	0xbfd4d360	-1.6627007
3	0xc08db9e5	-4.428942
4	0xbedf3f26	-0.43602866
5	0xbe4afcb6	-0.19822964
6	0xbe66b00c	-0.22528094
7	0xbe8a2a0a	-0.26985198
8	0xbf42fd48	-0.76167727
9	0xbfe63ea9	-1.7987872
10	0x4024b911	2.5737956
11	0xc0282f68	-2.6278934
12	0xbf5b3e4c	-0.8564193
13	0xbfc9a59e	-1.5753667
14	0xbd0eda78	-0.034876317
15	0x3fde0f5d	1.7348439
16	0x3fc707a1	1.5549203
17	0x3f983436	1.1890934
18	0x4089f61f	4.311294
19	0xc019aa15	-2.401006
20	0xbfddf7f9	-1.73413
21	0x3ea80d6e	0.32822746
22	0x40b7c212	5.74244
23	0xc042b786	-3.0424514

4.weight f4 [4, 24]
0	0x40757ec8	3.835863
1	0x3fae5643	1.3620075
2	0xbfbc58f7	-1.471465
3	0x4073aee8	3.8075504
4	0x40247024	2.5693445
5	0x3db4b759	0.08824033
6	0xbd5ce04c	-0.053924844
7	0xbe229a66	-0.15879211
8	0x4081a1f1	4.051018
9	0x3f048607	0.5176701
10	0x3f78cc60	0.9718685
11	0xc054a18b	-3.3223598
12	0xbd179004	-0.03700258
13	0xbf2525d7	-0.64510864
14	0xbcdf6ea8	-0.027274445
15	0xbedee930	-0.43537283
16	0x3f7abfe7	0.9794907
17	0xbfcaebf7	-1.5853261
18	0x3ff7734a	1.9332058
19	0xc02865eb	-2.6312206
20	0xbd35fa7d	-0.044428337
21	0x40140021	2.3125079
22	0xbe21b531	-0.15791775
23	0xc0e6e370	-7.2152634
24	0x40554774	3.3324862
25	0x3fd8c05f	1.6933707
26	0x3dde593d	0.108568646
27	0x4073d394	3.8097887
28	0x406b3e11	3.6756632
29	0x3db67997	0.0890991
30	0xbc0b9b31	-0.008520887
31	0x3d41d3c0	0.04732108
32	0x4075907a	3.8369431
33	0x3f2b91d6	0.67019403
34	0x3fdcc23b	1.7246774
35	0xc0c15a06	-6.042239
36	0xc051f742	-3.2807164
37	0x3fbdb2ed	1.4820229
38	0x3af2514b	0.0018487362
39	0x40660ed8	3.594656
40	0x400ea335	2.2287114
41	0xbf03c03f	-0.5146522
42	0xbf13e636	-0.5777315
43	0xbfe0c35f	-1.7559623
44	0xbe8826d3	-0.2659212
45	0xbf46b393	-0.7761776
46	0xbf30483f	-0.6886024
47	0x403fa5b6	2.9944892
48	0x4041fee1	3.0311816
49	0x3e39d511	0.18147685
50	0x400abde7	2.1678407
51	0x40134177	2.3008707
52	0xbf2d44e1	-0.67683226
53	0x3a64cc56	0.0008727958
54	0xbe01eec5	-0.1268874
55	0xbe1f98e7	-0.15585671
56	0x3ff43e81	1.9081575
57	0x406027d2	3.5024304
58	0x3f7833fd	0.9695433
59	0xbf3e97bd	-0.74450284
60	0xbf146126	-0.57960737
61	0x3fafa4c2	1.3722155
62	0x3d6ddfdd	0.05807482
63	0xbc31f39e	-0.0108613055
64	0x3ea9421b	0.33058247
65	0x3dc2ccc9	0.09511716
66	0x3f8f6d9a	1.1205323
67	0xbf9f9cb1	-1.2469693
68	0xbeeb767a	-0.45988828
69	0xbe38e64d	-0.18056603
70	0x3f67c201	0.905304
71	0xc00708dc	-2.1099157
72	0x40763ccd	3.847461
73	0x3f353441	0.7078286
74	0x402e84e3	2.7268608
75	0x407211fd	3.782348
76	0x3f87facd	1.0623413
77	0xbe541de0	-0.20714521
78	0xbe4b8b3a	-0.1987733
79	0x3e1e4501	0.1545601
80	0x407dfd86	3.9685988
81	0x3f424537	0.75886863
82	0x400749ca	2.1138787
83	0xc0689585	-3.634126
84	0xbf9e2287	-1.2354287
85	0x3fee6a3d	1.8626171
86	0xbd84cb52	-0.06484093
87	0x3f01af77	0.50658363
88	0xbf39e30f	-0.7261209
89	0x3f435282	0.7629777
90	0x3f7d7c22	0.99017537
91	0xbe5c1a0a	-0.21494308
92	0xc0255368	-2.5832157
93	0xbfff2ebe	-1.993614
94	0x405a16cf	3.4076421
95	0xc02f5942	-2.7398229

4.bias f4 [4]
0	0xbffef444	-1.9918294
1	0x4001b4be	2.0266566
2	0xbf38e9f8	-0.7223201
3	0x40366411	2.8498576
