logs_800/logs/target_params_A_325.pt (torch, 6263 bytes, 6 tensors)

0.weight f4 [24, 12]
00000000: 4804 4a40 ba2b c43f 6d88 c7be 0787 01be
00000010: 3ed3 5abd adfe bcbe dd36 f6be 571d 2cbe
00000020: 233d a040 fe66 b33e 902b 0a3f f4af 47bf
00000030: 1f42 44c0 8497 c93f eb6e 02bf 7ddd ed3d
00000040: 9ce9 4240 687f 863e a82f 8fbc 9810 f53f
00000050: 2fd2 40c0 6ce2 e63d dd78 0d40 8bc4 4ec0
00000060: ee08 873f 9c89 e3be 39ba ce3e a72d c7be
00000070: ef0c 0dbf ea40 183f a16b dabf 46c4 a43f
00000080: 230b 74c0 27ed 803f bf88 b440 27ff de40
00000090: 1893 b4bf b4c5 2540 a779 b8bd fe4e 323f
000000a0: 7d69 b1bf d383 7dc0 01c5 8d3e 7594 1940
000000b0: 7bf8 bbbf da95 55bf cce9 48c0 bdee afc0
000000c0: 73b8 d23f 833a 81bf 0dba 333e 9e12 493f
000000d0: 6768 bb3e 584d 243f d97d bcbf 4199 e33f
000000e0: 6ff7 c8c0 8b83 873f 8e6e b0be 01d4 5bc0
000000f0: 32f0 8dbf a4ee 5dbf 11e3 d43e 1c20 00be
00000100: 915b 9d3f 5043 053e a366 1fc0 9847 64c0
00000110: f77d 8d40 781b 63c0 5172 1640 d995 18c1
00000120: 80d5 f1bf 49ee 993d 12ff 343f f25c 8dbf
00000130: b2a1 0ac0 74bd 21c0 9087 8bbf c919 6540
00000140: 5ce7 4e3e b7d4 ea3e 3517 9dc0 b91e 0cc1
00000150: ccdc 0140 cdc7 5340 7858 a4bf 21c5 4fbe
00000160: 124d fabf dd61 2ec0 c26f 29c0 f10c c9be
00000170: 339e 0e3e dd45 eebf a138 a3be 6853 35c0
00000180: a32c c93f ac23 aac0 e87d c4bd f456 f33e
00000190: 2c63 fcbd 4ce1 4740 b328 57be 325a 8e3f
000001a0: 2044 853f 95bc 2b40 5097 823e 6828 b33f
000001b0: 1e58 5240 29fa 92bc 961c 42bf 6fd2 65bf
000001c0: af0d d33f 235a 2fc0 c1fb 8f3d 9e2a 8ebf
000001d0: c6c2 b6bf 794b 14c0 37f5 753e 968e f33f
000001e0: 62b9 ce3f 1ddc 8bbe 3de7 3b3f 7cbb b3bf
000001f0: 7d2f 5e3f 23e9 0440 ed0f b5c0 e0fb 43c0
00000200: 5294 3040 6b0f f53f 34ef 1740 2678 9bc1
00000210: 2a62 b9bf eae3 ffbf 83dd b03f 84e5 683d
00000220: 9b48 86bf 17f9 30bf 8fd4 01bf 5515 98bd
00000230: 650e 4140 f667 9bc0 e4cf 3ac1 e87d 18c0
00000240: 194c a33e 57d5 5840 1c35 683e fc2e 8bbd
00000250: 292a 323e 0df1 e33d 84b7 e9bf c38b 74c0
00000260: 66c3 933f 139c ad3e 2be6 1540 8fa1 e13f
00000270: 87c7 fd3e 41a5 24bf c34c 85bf 326a 0dbf
00000280: f927 8e3f c75b fa3f 3daf 5a3f 2ddb 03be
00000290: 158b a4bf 3ca3 9fc0 522e 27c0 fac6 b8c0
000002a0: 3f33 09c0 1431 c0bc 04f2 c63d f471 c63d
000002b0: 7f6f bc3d e06d 09be 20d4 573e c5bc adbc
000002c0: 02e0 eac0 1e98 6f3e 6f3a 21bf 6f5c bfbe
000002d0: fe67 0440 d8f6 ec3f 2ff5 97be f9f9 4cbf
000002e0: 5511 823f 2945 583f 09aa f4be abf4 173f
000002f0: 7fcb e140 d1e7 563e dc58 8abe 5fe6 92bf
00000300: 60f0 a23e 3599 883e f832 f23d b659 5b3f
00000310: f676 a23f 75e3 bb3e 5fae 073f 1a37 253f
00000320: d9bf 0841 04fd 493e 13c1 883f 0913 8e3f
00000330: 1401 58bf edc4 7f40 dd81 173f 5e62 0ac0
00000340: ec87 50c0 4e2e 983f 7bed 3cbe df40 b23f
00000350: dcbd 09c0 e134 e13f b62b b140 5d53 9640
00000360: 5abc b53e bbd4 3140 89ac c63e a2ed 9a3f
00000370: 5288 04bf 1788 023f 32a0 80c0 cc98 8e3e
00000380: 2c0e c63f 94a2 913f 6652 dfbd ff47 79c0
00000390: 671a 3abf 86dc 6b40 b91e 443f fb27 593e
000003a0: 4d6c ddbf 2201 be3f 8e2a b63f be23 0cc0
000003b0: dd12 65c0 40fd 1a40 e8f9 da3e 4a6a f840
000003c0: e171 8dbe bf93 87c0 56be a73d 2379 2e3f
000003d0: 13b4 023f 244a 04bf c9af 83c0 fdbc dc3f
000003e0: 3288 6cbf 09aa 5f40 edc1 75bf 2a1a 1dc1
000003f0: d360 44bf 2a12 b6bf 9c45 dd3c d0a1 493d
3.1565113 1.5325844 -0.38971272 -0.12649165 -0.053424112 -0.36913052 -0.48088732 -0.16808067
5.007463 0.35039514 0.5397272 -0.7800286 -3.0665357 1.5749364 -0.509505 0.11614511
3.0455084 0.26269078 -0.017478779 1.9145689 -3.0128286 0.11273655 2.210502 -3.230746
1.05496 -0.44440925 0.40376452 -0.38902017 -0.5509786 0.5947405 -1.7064096 1.2872398
-3.8131797 1.0072373 5.6416926 6.9686465 -1.410739 2.5901918 -0.09007578 0.6965178
-1.3860317 -3.961171 0.27689365 2.399686 -1.4685205 -0.8343178 -3.1392698 -5.497893
1.646254 -1.0095981 0.17551441 0.7854403 0.3660309 0.6418052 -1.4725906 1.7781144
-6.2802043 1.0587019 -0.34459347 -3.4348147 -1.1088927 -0.8669226 0.41579488 -0.12512249
1.2293569 0.13013959 -2.4906394 -3.5668697 4.4216266 -3.5485516 2.3507273 -9.536584
-1.889328 0.075161524 0.70701706 -1.104399 -2.166119 -2.5271883 -1.0900745 3.5796988
0.20205444 0.45865414 -4.909083 -8.757501 2.0291014 3.3090699 -1.2839499 -0.20290042
-1.955477 -2.724723 -2.6474462 -0.39267686 0.13927536 -1.861507 -0.31879142 -2.8332157
1.5716747 -5.3168545 -0.09594327 0.47527277 -0.12323603 3.123126 -0.2101162 1.1121275
1.0411415 2.6833851 0.25506067 1.3996706 3.2866282 -0.017941551 -0.7582487 -0.8977422
1.6488551 -2.7398765 0.0703044 -1.1106756 -1.427819 -2.3171065 0.24019323 1.9027889
1.6150324 -0.2731637 0.73399717 -1.4041591 0.8679121 2.0767295 -5.658194 -3.0622482
2.7590528 1.914533 2.3739748 -19.433666 -1.4483082 -1.9991429 1.38176 0.05685951
-1.0490907 -0.6913008 -0.50714964 -0.07425944 3.0165036 -4.8564405 -11.675755 -2.3826847
0.31893995 3.3880212 0.2267651 -0.06796071 0.17398895 0.11129961 -1.825913 -3.8210304
1.1544006 0.33908138 2.3421733 1.7627429 0.4956629 -0.6431466 -1.0414051 -0.55240166
1.1105949 1.9559258 0.8542364 -0.12876578 -1.2854944 -4.988676 -2.6122022 -5.774289
-2.1437528 -0.023460902 0.097141296 0.096897036 0.09200954 -0.1342082 0.21077013 -0.021208176
-7.3398447 0.23397872 -0.6297979 -0.3737521 2.0688472 1.8512831 -0.29679248 -0.8006893
1.0161539 0.8448053 -0.47785977 0.5935771 7.056091 0.20986868 -0.2702092 -1.1476554
0.31824017 0.26679388 0.11826128 0.85683763 1.2692554 0.36696973 0.53000444 0.64537203
8.546838 0.19725424 1.0683922 1.1099559 -0.84376645 3.9963944 0.5918253 -2.1622539
-3.258296 1.1889131 -0.18449967 1.3926047 -2.152213 1.7594262 5.536586 4.697676
0.35495263 2.778609 0.3880351 1.210377 -0.5177051 0.50988907 -4.019555 0.2785095
1.5473075 1.137774 -0.10904388 -3.8950193 -0.72696537 3.6853347 0.7660938 0.21206658
-1.7298676 1.4844096 1.4231737 -2.1896815 -3.5792763 2.4217072 0.42768788 7.7629747
-0.27625945 -4.2367854 0.081906006 0.6815359 0.5105602 -0.5167563 -4.115208 1.7245175
-0.9239532 3.4947531 -0.9599903 -9.818888 -0.7671024 -1.4224293 0.027010731 0.049226582

0.bias f4 [24]
00000000: 81ba aebf 4726 3f3f 9f56 453f 5f50 c13f
00000010: e350 2f40 c130 7fbf 8d48 7f3f d27b 1d40
00000020: 933e bfbe abff 0340 adb9 8440 ad90 9140
00000030: 3493 ce3f 8118 5b40 4e33 e540 2e77 febf
00000040: 665c debf 1d9e 1c40 fcae 94bf 6c84 4940
00000050: 3216 ab3f d99e fc40 19b5 993e f73b 7f3f
-1.3650666 0.7466778 0.770853 1.5102652 2.739312 -0.9968377 0.9972008 2.4606824
-0.37352428 2.0624797 4.1476655 4.5489106 1.6138673 3.4233706 7.162513 -1.9880121
-1.7371948 2.4471505 -1.1615901 3.1487074 1.3366148 7.8943906 0.3002098 0.99700874

2.weight f4 [24, 24]
00000000: 6d9e 363e f25b 58c1 a978 49c1 73c7 c7c0
00000010: 40f2 03c0 e3ff 2840 a08f 66c0 4a52 05c0
00000020: 3c47 f5bd 4858 b9bf aacf 933f 7d00 ac40
00000030: a38d 3940 cd77 41bf 70fe d6bf 9c13 8abf
00000040: 035b 4bbc 9af4 c1c0 486b 863f 08ff 78c0
00000050: 2d03 10c1 8428 92c0 de94 8740 cf1c 1dbf
00000060: 1ef4 4dbd a411 97c0 cffa 17c1 95bc bbbf
00000070: fd03 1bc0 a551 b0be 0bbd b2c0 3e91 2f3f
00000080: ee50 483f 3e41 c0c0 35fb 1fc0 254e 8ac0
00000090: 5c28 6840 629d 05c1 63a3 9d3f c99d febd
000000a0: 3435 6b3f 4dce 88c0 8199 8340 29ef 2ac1
000000b0: 9ac1 20c1 398c 85c0 2344 2d40 a0af 8b40
000000c0: b09a 4140 9246 64c0 177b 963f 1c30 773f
000000d0: cb4d ccc0 548e e4be 9374 1f3f a6de f5c0
000000e0: b4b2 06c0 e9d6 5dc0 9f00 ae40 190c b240
000000f0: a0e3 6bbf 553a afc0 21c4 a040 1793 1fbf
00000100: 0883 c6bf 9a4b d4bf 1498 fe3f 71e1 18bf
00000110: c8b1 c8bf 1b5d 63c0 d023 0440 0a48 c5bf
00000120: 6b8e f9bf db20 3cc0 6676 bac0 3d3c f4c0
00000130: c2ac c9c0 6e89 9140 521d d6c0 67ab 46c0
00000140: d8df e7bf 9046 25c1 ec49 1940 4668 9e40
00000150: b840 0dbf 1766 7abe deb4 1ec0 afc6 0d3f
00000160: 0e48 bebe fbbe c4c0 7089 6f3c 5685 bbc0
00000170: 482e ffc0 f6fd 29c0 42be a73f a4ba 0dbf
00000180: d548 1740 d328 87bf 026e 1fbf dd3b bc3e
00000190: 2264 f3bf d1af f73d ee69 5a3f ac78 aa3f
000001a0: b169 5bbf 0625 0640 e4e2 2d40 4a2b 8140
000001b0: 17d6 22bf 7ea9 7c3f ca19 8f3e 85dd 6e40
000001c0: 8124 6e40 0183 bb3f c73d 0e40 94d5 9abe
000001d0: 0dc9 15bf daaf d440 31f0 a840 0148 6bbf
000001e0: 7094 a0be dcf1 20bc 98c9 11bf f3f5 9bbe
000001f0: 436b 62be 59f6 e7bc 047c 92be cd50 c7be
00000200: c5bf b5be 61c4 253e 89de 1c3d 03ee 2b3e
00000210: 15eb 8abe e63b 58bd faf3 95be 1731 dabe
00000220: e2a4 3cbe 7438 13bf e0d0 17be 0ff6 c9be
00000230: 1b78 8cbe d42e 0cbf 007a 003f 4a36 3dbe
00000240: a81c 4d3d a830 903f 31fa 953d d104 be3f
00000250: 26ec 933f 4729 c1bf 76ca 9040 c8fd 813f
00000260: 7645 04c0 886e 1c3e a482 b03f 5628 2ac0
00000270: 0e28 28bf 4587 a33f 36ab a040 fc90 963f
00000280: 8d6a f5be c228 1dbd 40ed 36be df9d 9d3f
00000290: a5a8 0fbc 8baa f6c0 2947 dabf 4c74 4fc0
000002a0: 578c 4740 6a8f a9c0 1888 86c0 ba95 b63d
000002b0: 21c9 1e40 b922 9ec0 8501 14c0 2aff 20c0
000002c0: 74e1 473d da2f c4bf d162 0340 a9af 05c0
000002d0: 36ba 823f 4841 c0be dc1b 893f ba62 843f
000002e0: 858f 87bf f039 4bbf eec0 1e3f 5f64 77c0
000002f0: efb4 d8bf 0194 b2c0 06b2 dd3d 6894 6c3e
00000300: 07cf 4240 aefc 8ac0 b0c1 1cc1 0ea3 26c0
00000310: aa23 6ec0 1398 8b40 dd0e 203e 4bbf 433e
00000320: 1611 afbd b252 44bf db96 4340 d075 1c40
00000330: d1b5 44c1 0fec 6cbf 27fb dcc0 1b93 6e3e
00000340: abf2 9dbe b3bc 49bf 1ca4 d83f cfd5 b13e
00000350: eba7 bcc0 2dcd 12c0 f601 23c0 ec72 df3f
00000360: c47a 663f 56b8 10c0 d77a a2bf 3393 95c0
00000370: 2cb4 70c0 dd9a 8640 4ca2 c940 f067 14c1
00000380: bb1d 1ec0 e0c7 59c0 2f38 f1bf 7de1 d23f
00000390: 71fa a8c0 40b6 053e b5f8 8740 7d61 1c40
000003a0: 1411 4240 d027 94bf a7f7 1140 ec6a c0bf
000003b0: 81f7 f9c0 5cf2 2dc1 cb1d 05c0 e3db 7240
000003c0: ebed 5e3f 1983 623d 7bcb 893f 52de 8d3f
000003d0: 87c8 f13f d2b5 46c0 693e 4f3e aca2 7dbf
000003e0: d600 2cbf 5fc8 2e40 3276 4c40 5db6 4fbf
000003f0: 4a0c 99be 9775 2d40 12b2 2bc1 faf5 4cbf
0.17833872 -13.522448 -12.591958 -6.243097 -2.0616608 2.640618 -3.6025162 -2.0831475
-0.119764775 -1.4480066 1.1547749 5.3750596 2.8992698 -0.75573426 -1.6796398 -1.0787234
-0.012411836 -6.0611086 1.050149 -3.8905659 -9.000775 -4.5674458 4.2369223 -0.61372083
-0.050281636 -4.7209034 -9.498733 -1.4666926 -2.4221184 -0.3443729 -5.5855765 0.68580997
0.7824849 -6.007964 -2.4997075 -4.322039 3.6274633 -8.350924 1.2315487 -0.12432439
0.91878057 -4.275183 4.1124883 -10.683389 -10.047266 -4.173367 2.7072837 4.3651886
3.0250664 -3.5668073 1.1756314 0.96557784 -6.384496 -0.44639838 0.62287253 -7.683429
-2.1046572 -3.466242 5.437576 5.563977 -0.92144203 -5.4758706 5.0239415 -0.62333816
-1.5508738 -1.6585572 1.989016 -0.59718996 -1.5679255 -3.5525577 2.0646858 -1.541261
-1.9496588 -2.9395053 -5.826953 -7.6323533 -6.3023386 4.548026 -6.691079 -3.1042116
-1.8115187 -10.329727 2.3951368 4.9502287 -0.5517688 -0.24453007 -2.4797893 0.5538129
-0.37164348 -6.148313 0.01462017 -5.8600264 -7.9743996 -2.6561255 1.3104937 -0.55362916
2.3638203 -1.0559334 -0.62277234 0.36764422 -1.9014933 0.12094081 0.85317886 1.3318076
-0.8570815 2.0960097 2.7169733 4.0365343 -0.63607925 0.98696125 0.27949363 3.7322705
3.720978 1.4649354 2.2225206 -0.30241072 -0.58509904 6.6464663 5.2793202 -0.91906744
-0.3136325 -0.009823289 -0.5694823 -0.30461082 -0.2211123 -0.02831571 -0.2861024 -0.38928834
-0.3549787 0.16188194 0.038298164 0.16790013 -0.27132478 -0.0527915 -0.29287702 -0.42615578
-0.18422273 -0.57508016 -0.14825773 -0.3944554 -0.27435383 -0.54758954 0.5018616 -0.18477741
0.050076157 1.1264849 0.07323111 1.484522 1.1556442 -1.5090722 4.5247145 1.0155573
-2.0667396 0.1527654 1.3789868 -2.658712 -0.6568612 1.2775656 5.0209 1.1762996
-0.47932854 -0.038368948 -0.17863941 1.2313803 -0.008768235 -7.708318 -1.7052966 -3.2414732
3.1179407 -5.2987566 -4.204113 0.08915277 2.481026 -4.9417386 -2.3125927 -2.515574
0.048798993 -1.5327103 2.0529063 -2.0888464 1.0213077 -0.37549806 1.0711627 1.0342629
-1.0590674 -0.7938528 0.6201314 -3.8655012 -1.6930217 -5.580567 0.10824971 0.23103487
3.043886 -4.3433447 -9.797287 -2.603702 -3.7209268 4.3623137 0.1563067 0.19115941
-0.08548181 -0.76688683 3.0560825 2.4446907 -12.294389 -0.92547697 -6.9056582 0.23298304
-0.30849203 -0.7880356 1.6925082 0.34733436 -5.895498 -2.293773 -2.5469947 1.7456946
0.90031075 -2.261251 -1.2693738 -4.6742187 -3.7609968 4.206404 6.3010616 -9.275375
-2.4705646 -3.4028244 -1.8845271 1.6475064 -5.2805715 0.13057804 4.2491097 2.4434502
3.0322924 -1.157465 2.2807405 -1.503263 -7.811463 -10.87167 -2.0799434 3.7946708
0.87081784 0.055300806 1.0765222 1.1083472 1.8889321 -3.1048474 0.20238651 -0.9907634
-0.67188776 2.7309797 3.194714 -0.8113764 -0.29892188 2.710302 -10.730974 -0.8006283

2.bias f4 [24]
00000000: dac1 363f 336f 713e 4451 ab3f f033 db3d
00000010: e5d7 a040 6076 d0be e3e5 cdbf e900 6bc0
00000020: 2239 e4bf 6066 15be 9668 8ebd 4a42 5b40
00000030: 4c6b 0d40 0b5c 2bc0 7c5e 0fbe 1a71 c03f
00000040: dfe7 fd3f 72ec 0740 b80e 4b3e 0fbd 52bf
00000050: d285 f8be 2756 53be aef9 aa3f 6a3d 2d40
0.71389544 0.23577575 1.3384175 0.10703266 5.0263543 -0.40715313 -1.6085781 -3.6719306
-1.7829936 -0.14589834 -0.06953542 3.425921 2.209674 -2.6774929 -0.14000887 1.5034516
1.9836386 2.1238065 0.19829834 -0.8231973 -0.48539597 -0.20638333 1.3357446 2.7068734

4.weight f4 [4, 24]
00000000: 8270 8440 9f4c d13f 6b0b 3f41 a807 33c1
00000010: c383 0a40 9380 89be ebfe 7cc0 be17 03be
00000020: 2ba6 aec0 7a52 d73f 4556 a7bf 6cc3 963f
00000030: 1ede a040 5024 a440 a83f e540 f8b7 9640
00000040: fd8d d3be fa67 f840 7037 25c0 ccb3 f1bf
00000050: 3b3f 06c0 1377 1e3d 4720 06c1 20cd 4040
00000060: afce 1d41 e8eb 7f40 9cd6 b040 a3af 9b40
00000070: b502 4e40 514c 3abf 69b9 fe3e 26a7 c03f
00000080: 9de3 4cc0 79b0 9140 23c4 7cc0 8b9c 783f
00000090: 3171 b840 f4ca 24c0 35be 8e40 5050 5a40
000000a0: 324c 63c0 cd58 2441 eeb3 4c40 59b4 b5c0
000000b0: b3bc ba3e d4bd 3c3d b804 1741 260b 8ebf
000000c0: 80e6 8e3f 6bd7 313d 8b34 4e3f 84ae 29c0
000000d0: 504d 0940 eaa4 853e 8ed4 64c0 216e 8240
000000e0: 3592 ba40 4374 cc3f 459b b8bf 3781 4abf
000000f0: 7708 7140 e75e 2f41 3323 b4bf acdc 1d40
00000100: 1b96 d23f 86a0 c540 f04d 7fc0 e5da 0cc0
00000110: 67cc c740 1a01 c23d 2354 99bf e343 2840
00000120: edad bc40 71fb 2b41 af6f 59c0 dd54 2641
00000130: f028 5140 c0fb e7bd 6c40 3cbf ebe7 aec0
00000140: 5a8d d740 eef9 7740 a394 41c0 2585 54c0
00000150: a3fa 6b40 f728 9ac0 e5a5 2a41 2b65 8e40
00000160: 7e0c 09be 995d 0a41 6944 7740 23db b7bf
00000170: a75b 913f e3e0 a3bd b6d8 db40 3d25 8e3f
4.138734 1.6351508 11.940288 -11.189369 2.164292 -0.26855907 -3.953059 -0.12802026
-5.457784 1.6822045 -1.3073202 1.1778388 5.027114 5.1294327 7.1640205 4.709957
-0.41319266 7.7626925 -2.5815086 -1.8882995 -2.0976093 0.038687777 -8.38288 3.0125198
9.86296 3.9987736 5.5261974 4.86519 3.2189152 -0.727727 0.49750832 1.505101
-3.2013924 4.552792 -3.9494712 0.97113866 5.7638173 -2.5748873 4.4607186 3.411152
-3.5515256 10.27168 3.198482 -5.678265 0.3647209 0.04607947 9.438652 -1.1097152
1.1164093 0.04341833 0.80548924 -2.6512766 2.1453438 0.26102382 -3.5754733 4.0759435
5.8303475 1.597298 -1.4422385 -0.79103416 3.7661417 10.9606695 -1.4073242 2.4665937
1.6452059 6.175845 -3.989132 -2.2008603 6.2437015 0.09472866 -1.1978801 2.6291435
5.896231 10.748887 -3.3974416 10.395719 3.2681236 -0.113273144 -0.735358 -5.4658103
6.736005 3.8746295 -3.024697 -3.3206265 3.6871727 -4.8175006 10.665502 4.4498496
-0.13383672 8.647851 3.8635504 -1.436375 1.1356095 -0.08001878 6.870204 1.1105114

4.bias f4 [4]
00000000: f972 6240 f115 8540 28cf 1b40 b41c 353f
3.5382674 4.1589284 2.4345188 0.7074692
