logs_800/logs/target_params_B_500.pt (torch, 6263 bytes, 6 tensors)

0.weight f4 [24, 12]
1.1856484 0.7727631 0.34172428 0.54578924 1.9954958 0.17800121 0.66803575 -1.29052
-2.002856 0.62052613 4.9524565 2.7326977 0.54164714 2.3396945 0.40659827 -1.0786732
0.63360953 0.52392924 -0.219951 -1.2790837 -2.549288 -3.788393 -3.2611432 -1.0953653
-0.22588167 1.7841756 -2.0506713 -0.6252354 -1.6380293 0.5273693 0.18891282 1.6371297
0.50584847 -0.97431225 -1.3946066 4.197936 1.1156554 0.58228683 -0.25632378 0.007838516
-0.37940943 -0.84225726 0.41200414 0.8576868 5.8510137 0.11770329 -4.6964574 2.7553663
-0.8503035 0.31557593 0.90834534 -0.57552034 0.43167153 0.14998019 0.30145508 0.20403457
-4.7059827 -3.3351703 -4.6396055 -4.0026155 0.07216037 0.69541574 -1.2402194 -0.5947096
0.4010985 1.2306182 0.67016894 0.57373357 -0.30845174 -0.61427546 5.3401427 -0.82291895
1.312827 -0.10213937 -0.8381644 -2.8540428 -2.2096097 0.15374942 -0.36927265 -1.0217991
1.7083349 -1.1358231 -3.0257246 -1.1208332 1.3125157 2.3854632 -1.7473233 -0.50481844
-0.25554717 1.5176682 -0.6504187 -0.3018563 -4.102922 -3.8521757 -1.8950788 -3.5213802
-0.72984225 1.6457955 -0.075045265 -0.0806735 0.6060073 0.24363264 0.52241015 0.24589989
3.2188218 -0.8880392 -0.44850224 2.426951 -0.2889991 -0.5368244 -0.24913466 -0.20032534
-0.1047958 -0.35121724 -0.25090683 -0.15200211 0.13749449 -0.38547802 0.04214167 -0.033107076
-0.10727691 -0.401454 -0.3144527 0.08210003 -0.2063369 -0.36087865 -0.29465178 0.009519788
0.101241976 -0.2990811 -0.05221104 -0.024516994 2.2497432 -1.6818787 -0.25255975 0.099365406
-0.2152083 -0.547887 0.04435639 0.08248167 -3.7386672 -0.28459033 -1.3329618 -0.12946191
-1.4224862 -0.3938362 -0.22722793 0.20202108 1.0069511 -0.13365747 0.3114488 -0.331596
6.004765 1.4318744 -0.123557694 4.7457166 0.82038116 -0.17826444 -0.095323265 0.053522058
0.08073929 -0.23749393 0.60939676 0.623959 0.8092755 0.25830996 -0.63822186 4.068605
-0.5605464 2.6766262 0.40583864 -0.08315384 -0.06699038 -1.5007191 0.12607953 -0.7225767
1.3879817 0.1643473 -1.82745 0.59195167 0.16634211 0.6576599 0.25041106 -0.30618173
0.053883016 0.6217748 0.05944917 -0.3222578 4.4586186 -2.0311882 -3.1843982 -2.671373
-0.15785113 -0.30721465 -0.31659198 0.6990272 0.1472486 0.9887 0.97054803 1.385753
-5.3866816 1.3652455 -1.9339772 -3.711271 -1.7866787 -0.37577227 0.16864415 1.0034666
-1.8018337 1.3431172 1.0274854 0.08859421 -1.2768573 -1.3025302 0.74538285 0.8480821
1.0299892 0.19690198 -0.7242681 -1.6727159 -0.43204388 0.09675144 -0.31109065 0.021936007
-7.7298346 0.8982542 4.599693 2.0366356 -2.5479734 -1.1405897 0.48648128 0.46856108
1.7170233 1.2211525 0.28186858 0.14463435 -5.2088747 -0.014800587 -2.3941157 -2.5011742
-0.19203979 -0.51164293 -1.249041 -3.594575 -1.6960295 1.4085991 0.5608659 2.758144
-0.36646453 -0.57868975 -2.2318137 2.5641232 -0.81831 -0.54448617 -0.507649 0.24377929
00000000: 54c3 973f cdd3 453f 7cf6 ae3e d8b8 0b3f
00000010: 686c ff3f f345 363e 6404 2b3f c22f a5bf
00000020: cb2e 00c0 cdda 1e3f 867a 9e40 85e4 2e40
00000030: 63a9 0a3f 8ebd 1540 a62d d03e f711 8abf
00000040: 3c34 223f 3a20 063f d63a 61be 04b9 a3bf
00000050: 8927 23c0 0875 72c0 92b6 50c0 ee34 8cbf
00000060: 864d 67be de5f e43f 333e 03c0 6d0f 20bf
00000070: f2aa d1bf ad01 073f 5d72 413e 778d d13f
00000080: 497f 013f 876c 79bf 7882 b2bf 7e55 8640
00000090: cccd 8e3f c010 153f df3c 83be 1e6d 003c
000000a0: f441 c2be 2c9e 57bf 35f2 d23e 5d91 5b3f
000000b0: 813b bb40 6c0e f13d 6149 96c0 ec57 3040
000000c0: 7dad 59bf 2b93 a13e 5289 683f 4d55 13bf
000000d0: 0d04 dd3e 6894 193e 5258 9a3e 70ee 503e
000000e0: 6997 96c0 6e73 55c0 a677 94c0 6d15 80c0
000000f0: d1c8 933d c406 323f 82bf 9ebf e33e 18bf
00000100: c85c cd3e e684 9d3f 3190 2b3f 34e0 123f
00000110: 63ed 9dbe 2841 1dbf 73e2 aa40 d1aa 52bf
00000120: b70a a83f 722e d1bd f191 56bf a3a8 36c0
00000130: 3f6a 0dc0 7d70 1d3e 4e11 bdbe 50ca 82bf
00000140: b8aa da3f a762 91bf 79a5 41c0 7677 8fbf
00000150: 8400 a83f 6eab 1840 4aa8 dfbf c83b 01bf
00000160: 14d7 82be f442 c23f d781 26bf e98c 9abe
00000170: 234b 83c0 0c8a 76c0 f191 f2bf 4b5e 61c0
00000180: f1d6 3abf 6da9 d23f 55b1 99bd 2638 a5bd
00000190: 4b23 1b3f d67a 793e acbc 053f 2ecd 7b3e
000001a0: 2d01 4e40 8956 63bf 16a2 e5be 2a53 1b40
000001b0: b1f7 93be 536d 09bf 281d 7fbe 1622 4dbe
000001c0: 2e9f d6bd bfd2 b3be dc76 80be 71a6 1bbe
000001d0: 5bcb 0c3e 605d c5be be9c 2c3d 499b 07bd
000001e0: ffb3 dbbd 618b cdbe f2ff a0be 0f24 a83d
000001f0: fb49 53be 16c5 b8be 99dc 96be e3f8 1b3c
00000200: f457 cf3d 2821 99be 3edb 55bd ddd7 c8bc
00000210: cbfb 0f40 cd47 d7bf 834f 81be 1780 cb3d
00000220: 915f 5cbe 5342 0cbf 0caf 353d 26ec a83d
00000230: 5346 6fc0 d3b5 91be 7e9e aabf aa91 04be
00000240: 0714 b6bf e6a4 c9be 70ae 68be 9dde 4e3e
00000250: c6e3 803f 81dd 08be 3876 9f3e f3c6 a9be
00000260: 0927 c040 a947 b73f d10b fdbd e9dc 9740
00000270: 8004 523f f48a 36be d838 c3bd f239 5b3d
00000280: a45a a53d 9c31 73be 6d01 1c3f c7bb 1f3f
00000290: ae2c 4f3f 3441 843e 8262 23bf 0332 8240
000002a0: f87f 0fbf d84d 2b40 15ca cf3e 8f4c aabd
000002b0: 4132 89bd 9017 c0bf fe1a 013e c9fa 38bf
000002c0: 62a9 b13f a94a 283e e2e9 e9bf 258a 173f
000002d0: 9655 2a3e 665c 283f e135 803e dac3 9cbe
000002e0: 70b4 5c3d a22c 1f3f f980 733d f9fe a4be
000002f0: 01ad 8e40 fdfe 01c0 2ecd 4bc0 c6f7 2ac0
00000300: baa3 21be 3d4b 9dbe 5818 a2be 72f3 323f
00000310: 56c8 163e 711b 7d3f d675 783f 5b60 b13f
00000320: b25f acc0 5dc0 ae3f 918c f7bf 7785 6dc0
00000330: e3b1 e4bf 3965 c0be 0db1 2c3e 9871 803f
00000340: 7da2 e6bf 44eb ab3f a484 833f e270 b53d
00000350: 0f70 a3bf 4fb9 a6bf 69d1 3e3f e91b 593f
00000360: b0d6 833f aca0 493e a269 39bf 8e1b d6bf
00000370: db34 ddbe 9e25 c63d 4647 9fbe 24b3 b33c
00000380: ce5a f7c0 fdf3 653f af30 9340 3d58 0240
00000390: ff11 23c0 d8fe 91bf 1314 f93e 3de7 ef3e
000003a0: 6bc7 db3f ba4e 9c3f 1451 903e 071b 143e
000003b0: 1aaf a6c0 297e 72bc 3139 19c0 3d13 20c0
000003c0: 14a6 44be 08fb 02bf 93e0 9fbf 840d 66c0
000003d0: 7f17 d9bf fa4c b43f e894 0f3f 6e85 3040
000003e0: 3da1 bbbe 0325 14bf 09d6 0ec0 981a 2440
000003f0: c47c 51bf 7263 0bbf 49f5 01bf 47a1 793e

0.bias f4 [24]
-1.1887225 -1.7189432 -3.3347654 -3.8318338 3.424465 -5.742424 -3.0509722 -1.8948334
-6.5667596 -0.642619 -0.6710471 2.8022847 1.7915467 -6.9326253 4.9963045 -6.643148
-3.0260859 3.6467767 -0.6456814 2.3253405 0.40143624 0.50164425 -2.94773 -5.6357436
00000000: 0f28 98bf 5506 dcbf cc6c 55c0 c43c 75c0
00000010: 6f2a 5b40 f0c1 b7c0 2143 43c0 e789 f2bf
00000020: e522 d2c0 ae82 24bf bec9 2bbf a258 3340
00000030: 6751 e53f 11d8 ddc0 bae1 9f40 ab94 d4c0
00000040: 64ab 41c0 ca64 6940 604b 25bf 61d2 1440
00000050: 0d89 cd3e c26b 003f 9ca7 3cc0 0358 b4c0

2.weight f4 [24, 24]
2.649637 -2.0660796 1.8132972 2.7228775 -2.332782 3.0939987 -4.853627 -1.1034892
3.9107604 0.037973613 -0.04215173 -2.2098067 -2.5336206 0.8929329 -2.3299203 4.123436
-0.5472507 0.29414505 0.069778204 -1.469475 -5.0330505 0.7389082 6.3002186 6.39655
-1.4079837 -1.9288743 1.1679885 0.6621116 -4.826811 1.0709743 2.103684 0.61094356
-0.12183222 0.059880443 0.061263435 -2.340707 -1.2527757 1.2451677 -2.6524005 1.7287188
-3.5253124 -2.6749148 -0.29321525 -3.3736174 1.5012473 -3.8813555 -1.4563158 0.84947205
-2.0391324 -4.2205796 1.7863162 1.4301112 -4.959315 0.98734605 0.91234946 -0.07151381
0.68928593 -0.041786715 -0.09437884 -0.8563557 -2.0088081 0.9595758 -1.4410245 0.58165234
-4.4419518 -2.3635497 -0.46669155 -5.3528643 0.35179088 -3.7964232 -1.4042379 1.1418461
1.2044384 -0.009796317 0.060432505 2.5724247 -2.1717794 0.598807 0.25845957 1.2144665
0.5113849 0.093736485 0.0796448 -4.711262 -2.2159796 0.586379 -0.8922065 -0.38275716
0.9982951 -0.2982887 -2.9193227 -4.420582 -0.62378365 -9.775394 -1.1781482 2.7542257
-2.6267672 1.7977183 1.2063508 2.1450994 -9.263705 1.5946188 3.1698961 0.8153994
-2.0996282 0.13612746 -0.13304676 0.00078150386 1.4334627 1.4556392 -8.064879 2.1930482
-1.7595744 -0.47357666 -0.34452417 0.28640234 0.64769363 -2.71658 -4.3170514 1.5868541
-0.17613015 -0.0022035053 -0.30496088 -0.22015025 0.040190022 -0.22332506 0.044683594 0.009981389
-0.015710505 0.13170639 0.10489019 -0.14758657 -0.23861417 0.08191218 -0.21762039 -0.2163974
-0.35929266 -0.3831795 -0.059477236 -0.4559201 -0.16798495 -0.030313792 0.0873279 -0.18453674
-0.18982664 -0.1964336 -0.0975149 -0.13385324 -0.17646974 -0.3025683 0.035426006 -0.04661565
-0.065570906 -0.0064480305 0.11015496 -0.13449202 -0.1259025 -0.15370542 -0.29198155 0.044579234
0.022673475 -0.2294019 -0.26240152 0.072565384 -0.1520722 -0.10510623 0.06919242 -0.097853035
-0.28687456 -0.42723984 -0.048323274 -0.40372318 -0.08789658 -0.041268155 -0.18351373 -0.013946578
-0.0065710098 0.039094433 -0.022181123 -0.036150433 -0.36272922 -0.05784926 -0.29942682 -0.040625423
-0.3956335 -0.27003995 -0.10471691 0.0056993663 0.016478866 -0.33640805 -0.110941954 0.027605236
1.6801746 -0.124113366 -0.115593165 -2.7261715 -4.9080706 4.555857 3.7034433 1.191966
-5.9893317 0.08934975 -0.009492464 -1.5103267 -1.6159382 -4.4567714 -2.5944254 -0.25437236
-0.6849681 -6.986804 -0.5672063 -4.788733 -0.5204923 0.4038501 -0.27034834 -6.9725366
-1.9751343 -2.1950686 1.148369 0.90868026 -4.686938 0.48319796 1.7686908 0.17389672
0.07395445 -0.10282647 -0.008637749 -1.4517361 -1.4267287 1.0370991 -1.4282513 1.159493
-4.534974 -1.65861 0.0883906 -4.3104415 1.0212073 -3.1652255 -0.55043405 0.773317
0.9372045 0.69565105 1.0757226 0.7005472 0.030302575 -0.31489223 -4.700055 -1.6991504
-1.5671711 0.064794146 0.20921281 0.9739862 -1.1968253 2.2120087 -0.097999096 3.7439897
00000000: a793 2940 a63a 04c0 1f1a e83f a043 2e40
00000010: 4d4c 15c0 1304 4640 ea50 9bc0 223f 8dbf
00000020: e649 7a40 388a 1b3d 4ba7 2cbd 796d 0dc0
00000030: d726 22c0 4097 643f 6a1d 15c0 30f3 8340
00000040: 9f18 0cbf 2e9a 963e e0e7 8e3d c217 bcbf
00000050: c00e a1c0 1629 3d3f 649b c940 8ab0 cc40
00000060: cf38 b4bf 5ae5 f6bf a680 953f 2580 293f
00000070: 3c75 9ac0 b015 893f c2a2 0640 cc66 1c3f
00000080: 2c83 f9bd 3245 753d 5eef 7a3d 25ce 15c0
00000090: f45a a0bf a861 9f3f eec0 29c0 a846 dd3f
000000a0: b89e 61c0 ce31 2bc0 4f20 96be 59e9 57c0
000000b0: df28 c03f 2168 78c0 8e68 babf 0077 593f
000000c0: 2581 02c0 fd0e 87c0 02a6 e43f e20d b73f
000000d0: b5b2 9ec0 b6c2 7c3f bc8f 693f d575 92bd
000000e0: 0b75 303f 8c28 2bbd b149 c1bd 213a 5bbf
000000f0: 5090 00c0 c2a6 753f 7e73 b8bf 2be7 143f
00000100: 7824 8ec0 6644 17c0 32f2 eebe aa4a abc0
00000110: ef1d b43e 99f8 72c0 11be b3bf 0328 923f
00000120: 0a2b 9a3f bb80 20bc 1388 773d 9ba2 2440
00000130: 6ffe 0ac0 6a4b 193f d054 843e a373 9b3f
00000140: 1fea 023f eaf8 bf3d d01c a33d a9c2 96c0
00000150: 9cd2 0dc0 ef1c 163f a567 64bf bff8 c3be
00000160: 4590 7f3f 4cb9 98be 2fd6 3ac0 6875 8dc0
00000170: 49b0 1fbf 0468 1cc1 8fcd 96bf 3c45 3040
00000180: f41c 28c0 a21b e63f b469 9a3f 4f49 0940
00000190: 2338 14c1 781c cc3f 94df 4a40 04be 503f
000001a0: 4f60 06c0 ff64 0b3e 693d 08be d6dd 4c3a
000001b0: b57b b73f 6352 ba3f bf09 01c1 e75a 0c40
000001c0: bc39 e1bf a478 f2be 7965 b0be 54a3 923e
000001d0: 40cf 253f 72dc 2dc0 4925 8ac0 091e cb3f
000001e0: 765b 34be af68 10bb d523 9cbe 116f 61be
000001f0: 4b9e 243d 53af 64be 2506 373d fb88 233c
00000200: 51b3 80bc 0ade 063e abd0 d63d ef20 17be
00000210: 4657 74be 93c1 a73d e1d7 5ebe 4897 5dbe
00000220: 35f5 b7be 1a30 c4be 679e 73bd 5c6e e9be
00000230: 3f04 2cbe a154 f8bc f8d8 b23d 33f7 3cbe
00000240: ea61 42be e425 49be e4b5 c7bd d310 09be
00000250: 7cb4 34be 3bea 9abe dc1a 113d 0df0 3ebd
00000260: 0a4a 86bd 004a d3bb ec98 e13d 47b8 09be
00000270: 96ec 00be f464 1dbe 9b7e 95be b798 363d
00000280: b9bd b93c 55e8 6abe 7e59 86be 299d 943d
00000290: d1b8 1bbe ef41 d7bd c1b4 8d3d 2c67 c8bd
000002a0: 39e1 92be 2ebf dabe a0ee 45bd ceb4 cebe
000002b0: 1f03 b4bd cc08 29bd 06eb 3bbe 3080 64bc
000002c0: a051 d7bb 7c21 203d 30b5 b5bc 7a12 14bd
000002d0: a5b7 b9be 58f3 6cbd 794e 99be d866 26bd
000002e0: 7990 cabe ad42 8abe d275 d6bd c0c1 ba3b
000002f0: b0fe 863c ad3d acbe 8935 e3bd 6024 e23c
00000300: f60f d73f 262f febd 1cbc ecbd 9879 2ec0
00000310: ea0e 9dc0 95c9 9140 3705 6d40 5892 983f
00000320: 9ba8 bfc0 00fd b63d 4886 1bbc 6352 c1bf
00000330: 10d7 cebf df9d 8ec0 110b 26c0 183d 82be
00000340: 125a 2fbf e693 dfc0 6f34 11bf 4d3d 99c0
00000350: fc3e 05bf 71c5 ce3e 196b 8abe 051f dfc0
00000360: 33d1 fcbf 017c 0cc0 c1fd 923f 459f 683f
00000370: 65fb 95c0 b965 f73e 7664 e23f fb11 323e
00000380: 6e75 973d af96 d2bd 5885 0dbc 7dd2 b9bf
00000390: 0c9f b6bf aabf 843f f0d0 b6bf 446a 943f
000003a0: 821e 91c0 554d d4bf 2206 b53d 23ef 89c0
000003b0: ecb6 823f 0e93 4ac0 3fe9 0cbf 1af8 453f
000003c0: a2ec 6f3f 3016 323f 47b1 893f 1057 333f
000003d0: 1b3d f83c 8e39 a1be da66 96c0 c37d d9bf
000003e0: 1099 c8bf cbb2 843d e23b 563e 2957 793f
000003f0: 9231 99bf 8d91 0d40 c0b3 c8bd 879d 6f40

2.bias f4 [24]
-1.9234445 -1.5908296 -1.6627007 -3.809117 0.340762 -0.19822964 -0.22528094 -0.26985198
-0.2853759 -1.7987872 1.7660164 -2.2496703 0.006904984 -1.5753667 -0.034876317 1.399324
1.4220126 1.5650637 3.5230186 -2.0907545 -0.47731772 0.5077446 4.601841 -2.7259266
00000000: 6e33 f6bf 4ea0 cbbf 60d3 d4bf 93c8 73c0
00000010: 5b78 ae3e b6fc 4abe 0cb0 66be 0a2a 8abe
00000020: ca1c 92be a93e e6bf d30c e23f 99fa 0fc0
00000030: 3443 e23b 9ea5 c9bf 78da 0ebd 0d1d b33f
00000040: 8204 b63f 0254 c83f 2379 6140 ecce 05c0
00000050: fd62 f4be 8dfb 013f 4842 9340 9575 2ec0

4.weight f4 [4, 24]
3.787764 1.3620075 -1.471465 4.778597 2.9948335 0.08824033 -0.053924844 -0.15879211
3.9795558 0.5176701 1.3273176 -5.963301 -0.32588425 -0.64510864 -0.027274445 -0.36743295
1.0888265 -1.3792976 1.8739934 -2.8165061 -0.52118534 1.4299948 -0.056525636 -6.301522
3.477347 1.6933707 0.108568646 3.3763278 3.9452007 0.0890991 -0.008520887 0.04732108
4.6919622 0.67019403 1.6654636 -5.8992443 -3.5708 1.4820229 0.0018487362 3.8444746
2.5958016 -0.48603812 -0.5593474 -1.526497 0.076750495 -2.031095 -0.9742678 3.113036
2.3803415 0.18147685 2.1678407 2.3346472 -0.67683226 0.0008727958 -0.1268874 -0.15585671
3.0158217 3.5024304 1.0908898 -0.6256475 -0.9527648 1.3722155 0.05807482 0.076526456
0.14786042 0.4788502 1.5019125 -1.3848935 -0.62311375 -0.42593384 1.5363548 -0.1014203
3.438368 0.7078286 2.7268608 4.1299796 0.99133015 -0.20714521 -0.1987733 0.1545601
3.3496156 0.75886863 2.048218 -1.4935627 -1.1996173 1.8626171 -0.06484093 0.67171663
-0.6340713 1.1283417 1.363984 0.37946114 -3.0018947 -3.270814 3.8192742 -2.695374
00000000: ba6a 7240 4356 ae3f f758 bcbf 44ea 9840
00000010: 5aab 3f40 59b7 b43d 4ce0 5cbd 669a 22be
00000020: 0bb1 7e40 0786 043f 8be5 a93f 5dd3 bec0
00000030: 4dda a6be d725 25bf a86e dfbc 2c20 bcbe
00000040: ab5e 8b3f d38c b0bf 04df ef3f a341 34c0
00000050: 676c 05bf 120a b73f 6d87 67bd 11a6 c9c0
00000060: da8c 5e40 5fc0 d83f 3d59 de3d c115 5840
00000070: 2b7e 7c40 9779 b63d 319b 0bbc c0d3 413d
00000080: 8e24 9640 d691 2b3f e92d d53f 9cc6 bcc0
00000090: fd87 64c0 edb2 bd3f 4b51 f23a df0b 7640
000000a0: 9d21 2640 fdd9 f8be 6431 0fbf 4164 c3bf
000000b0: 5d2f 9d3d 76fd 01c0 9d69 79bf fb3b 4740
000000c0: 8457 1840 11d5 393e e7bd 0a40 dc6a 1540
000000d0: e144 2dbf 56cc 643a c5ee 01be e798 1fbe
000000e0: 3903 4140 d227 6040 47a2 8b3f 6f2a 20bf
000000f0: 65e8 73bf c2a4 af3f dddf 6d3d e7b9 9c3d
00000100: b968 173e da2b f53e ab3e c03f 3144 b1bf
00000110: 6284 1fbf 0014 dabe 46a7 c43f 72b5 cfbd
00000120: 390e 5c40 4134 353f e384 2e40 cb28 8440
00000130: d0c7 7d3f e01d 54be 3a8b 4bbe 0145 1e3e
00000140: 1a60 5640 3745 423f 0116 0340 102d bfbf
00000150: 0f8d 99bf 3d6a ee3f 52cb 84bd 9ff5 2b3f
00000160: 7f52 22bf 806d 903f 0797 ae3f bb48 c23e
00000170: 0b1f 40c0 0455 51c0 fd6e 7440 0281 2cc0

4.bias f4 [4]
-2.4430776 1.8577065 -3.9295545 1.9248447
00000000: 625b 1cc0 54c9 ed3f d27d 7bc0 5061 f63f
