logs_800/logs/target_params_B_675.pt (torch, 6263 bytes, 6 tensors)

0.weight f4 [24, 12]
1.0174745 0.54475576 0.3266133 0.57047075 1.8677425 0.51780486 0.5967309 -1.0251268
-1.9165907 0.3965937 5.8573303 2.5927765 0.429634 1.9830068 0.22738904 -0.9612174
0.9389184 0.99722934 -0.12812519 -0.7642486 -1.5579036 -6.783685 -2.722863 -0.33645105
-0.63491243 1.2337049 -2.4524584 -0.5743792 -1.4326797 0.48466647 -0.08145698 1.0189588
1.492559 -0.77868825 -1.4653535 4.4352927 1.1761562 0.40774554 -0.43029872 -0.2180566
-0.16065408 -0.68553877 0.3802263 0.79508674 6.1021404 0.5684164 -4.864462 2.9359133
-0.3913957 0.38377956 0.5188118 -0.7899352 0.34346697 -0.4659382 0.53675234 0.23215666
-7.293077 -3.690767 -4.8828444 -5.278967 -0.1811466 0.6192171 -1.0324148 -0.3970555
0.11377765 1.3956997 0.7296774 1.1405991 -3.7094932 -1.1393672 4.9656124 0.25513306
1.0749848 -0.29581335 -0.8381644 -2.8540428 -2.2096097 -0.033417977 -0.52799994 -1.3182327
1.7083349 -1.1358231 -3.0257246 -1.1208332 0.67786694 2.4052355 -1.4791349 -0.3691301
-0.35209742 1.4579585 -0.49164587 -1.1439914 -5.082106 -3.0633268 -1.5639127 -6.334718
-1.1258864 1.4873351 0.16149254 0.021186788 0.7529282 -0.32188892 0.5522034 0.4207075
3.621465 0.3835944 0.60134095 1.8864882 -0.2889991 -0.5368244 -0.24913466 -0.20032534
-0.1047958 -0.35121724 -0.25090683 -0.15200211 0.13749449 -0.38547802 0.04214167 -0.033107076
-0.10727691 -0.401454 -0.3144527 0.08210003 -0.2063369 -0.36087865 -0.29465178 0.009519788
0.101241976 -0.2990811 -0.05221104 -0.024516994 2.3271496 -1.766454 -0.20033462 -0.09753046
-0.22192214 -0.308408 0.036753517 0.19072187 -3.7587833 -0.4122594 -1.0621064 -0.5666271
-1.42126 -0.31311727 0.13027357 0.09144204 0.94005954 0.029116563 0.0544632 -0.87496066
5.9945827 0.5504259 -0.16437866 4.838959 0.7927504 -0.0852727 -0.08801762 -0.03956541
0.029991014 -0.4943955 0.66189677 0.72113675 1.057302 -0.228741 -0.73623484 4.4470096
-0.29304597 2.7759733 0.1359372 -0.04978946 -0.31682423 -1.8645353 0.19253291 -0.68156105
1.4538442 0.6293831 -2.2315412 0.5305793 0.1853059 0.4929327 0.27201685 -0.2665967
-0.20961091 0.7773887 -0.40919662 0.23052627 6.345143 -1.3657175 -1.0087502 -0.67335486
-0.17927647 -0.4330119 -0.21422255 0.5640486 -0.094286755 0.8110092 1.119755 1.8402083
-7.4649053 1.291234 -2.9840143 -4.812098 -1.8934568 -0.6150803 0.28797656 1.7187461
-1.7622701 1.488212 0.9398156 0.6062841 -4.3066096 -4.354488 -0.28941986 0.3447735
0.3462277 0.5739055 -0.76518464 -1.2380877 -0.35151184 0.857751 -0.16342148 0.42150056
-9.776545 3.2299967 4.974751 1.4748917 -2.5576463 -0.9601712 0.6001969 0.5917411
1.8345926 0.97144806 0.33882383 -0.0784711 -5.12769 0.0049256496 -2.2729027 -3.324244
-0.18685791 -0.546691 -1.5274194 -3.9428518 -0.55794954 0.53587675 1.384632 2.5970345
-4.0587854 -0.052662607 -1.7911189 1.8149806 -1.1217629 -0.9956907 0.1940564 0.3697808
00000000: 9b3c 823f 1d75 0b3f dc39 a73e 5f0a 123f
00000010: 3012 ef3f dc8e 043f 5bc3 183f 5b37 83bf
00000020: d852 f5bf 540e cb3e 406f bb40 0df0 2540
00000030: fdf8 db3e 2bd3 fd3f acd8 683e 5812 76bf
00000040: f55c 703f 6c4a 7f3f 4033 03be cca5 43bf
00000050: 6369 c7bf f313 d9c0 6343 2ec0 5043 acbe
00000060: 9f89 22bf 0bea 9d3f 14f5 1cc0 840a 13bf
00000070: 0c62 b7bf 3426 f83e ebd2 a6bd 3e6d 823f
00000080: 2c0c bf3f 1d58 47bf b490 bbbf ebed 8d40
00000090: 498c 963f 06c4 d03e 1d50 dcbe 3b4a 5fbe
000000a0: 8182 24be 787f 2fbf 06ad c23e ce8a 4b3f
000000b0: bc44 c340 bd83 113f aca9 9bc0 01e6 3b40
000000c0: 0465 c8be c17e c43e dad0 043f 3139 4abf
000000d0: e7da af3e 748f eebe 9a68 093f 7aba 6d3e
000000e0: e360 e9c0 8735 6cc0 4340 9cc0 4ced a8c0
000000f0: 7f7e 39be 0385 1e3f 2b26 84bf dc4a cbbe
00000100: 4204 e93d 4aa6 b23f 23cc 3a3f 27ff 913f
00000110: 5668 6dc0 c9d6 91bf 4ce6 9e40 cda0 823e
00000120: 1a99 893f d974 97be f191 56bf a3a8 36c0
00000130: 3f6a 0dc0 4ae1 08bd 012b 07bf d9bb a8bf
00000140: b8aa da3f a762 91bf 79a5 41c0 7677 8fbf
00000150: b088 2d3f 61ef 1940 4b54 bdbf 9ffe bcbe
00000160: 1d46 b4be 629e ba3f 02b9 fbbe 4f6e 92bf
00000170: 9da0 a2c0 8c0d 44c0 4b2e c8bf 03b6 cac0
00000180: 0c1d 90bf ff60 be3f 4d5e 253e ea8f ad3c
00000190: e7bf 403f a0ce a4be 345d 0d3f f966 d73e
000001a0: 15c6 6740 7c66 c43e 7bf1 193f 7278 f13f
000001b0: b1f7 93be 536d 09bf 281d 7fbe 1622 4dbe
000001c0: 2e9f d6bd bfd2 b3be dc76 80be 71a6 1bbe
000001d0: 5bcb 0c3e 605d c5be be9c 2c3d 499b 07bd
000001e0: ffb3 dbbd 618b cdbe f2ff a0be 0f24 a83d
000001f0: fb49 53be 16c5 b8be 99dc 96be e3f8 1b3c
00000200: f457 cf3d 2821 99be 3edb 55bd ddd7 c8bc
00000210: 05f0 1440 2a1b e2bf 8524 4dbe 0dbe c7bd
00000220: 8f3f 63be a7e7 9dbe db8a 163d 984c 433e
00000230: e88f 70c0 aa13 d3be 1af3 87bf 790e 11bf
00000240: d9eb b5bf e850 a0be 6f66 053e f745 bb3d
00000250: bea7 703f dc85 ee3c ce14 5f3d 6cfd 5fbf
00000260: 9fd3 bf40 b6e8 0c3f e152 28be c1d8 9a40
00000270: b1f1 4a3f 74a3 aebd 9542 b4bd 570f 22bd
00000280: b7af f53c 6821 fdbe 1172 293f 6b9c 383f
00000290: ac55 873f 153b 6abe e379 3cbf e74d 8e40
000002a0: 1f0a 96be 8ca9 3140 1f33 0b3e 08f0 4bbd
000002b0: c936 a2be 18a9 eebf 5927 453e c97a 2ebf
000002c0: 9117 ba3f 401f 213f 92d1 0ec0 0cd4 073f
000002d0: d4c0 3d3e ad61 fc3e cb45 8b3e 5d7f 88be
000002e0: 3ea4 56be f202 473f 3882 d1be 140f 6c3e
000002f0: 690b cb40 d5cf aebf ba1e 81bf fc60 2cbf
00000300: 4094 37be bcb3 ddbe 285d 5bbe 7d65 103f
00000310: 6a19 c1bd 4d9e 4f3f 2254 8f3f f28b eb3f
00000320: 81e0 eec0 2847 a53f 17fa 3ec0 b5fc 99c0
00000330: cb5c f2bf e775 1dbf aa71 933e dfff db3f
00000340: 1192 e1bf bb7d be3f c197 703f 6f35 1b3f
00000350: bfcf 89c0 f757 8bc0 d72e 94be 2786 b03e
00000360: c244 b13e 79eb 123f 24e3 43bf a879 9ebf
00000370: 5cf9 b3be 9295 5b3f f657 27be ecce d73e
00000380: ba6c 1cc1 44b8 4e40 2931 9f40 40c9 bc3f
00000390: 7ab0 23c0 c8cd 75bf 81a6 193f 587c 173f
000003a0: eed3 ea3f d2b0 783f 517a ad3e 75b5 a0bd
000003b0: 0916 a4c0 5867 a13b 3d77 11c0 6ac0 54c0
000003c0: ae57 3fbe f1f3 0bbf 7b82 c3bf af57 7cc0
000003d0: c8d5 0ebf 382f 093f 9f3b b13f d035 2640
000003e0: 92e1 81c0 bfb4 57bd 6243 e5bf 4951 e83f
000003f0: ed95 8fbf 96e5 7ebf b9b6 463e e953 bd3e

0.bias f4 [24]
-1.2004235 -2.0586772 -3.5932102 -3.878989 3.840557 -6.5113487 -3.2881217 -2.26798
-6.406822 -0.642619 -0.6710471 2.932176 1.8418707 -7.0834885 5.361721 -5.996602
-2.9095898 3.3749702 -0.45616505 2.912169 0.5395861 0.0312949 -3.5405588 -5.7797804
00000000: 7aa7 99bf 5ec1 03c0 28f7 65c0 5b41 78c0
00000010: b0cb 7540 f85c d0c0 9670 52c0 9626 11c0
00000020: b004 cdc0 ae82 24bf bec9 2bbf c6a8 3b40
00000030: 6bc2 eb3f f0ab e2c0 3893 ab40 2ae4 bfc0
00000040: b836 3ac0 83ff 5740 778e e9be fa60 3a40
00000050: 5122 0a3f 152f 003d 8498 62c0 f6f3 b8c0

2.weight f4 [24, 24]
2.8785417 -1.84141 2.178498 2.7801726 -2.993987 2.668728 -4.853627 -0.1721113
3.7823143 0.037973613 -0.04215173 -2.081227 -2.096841 0.7958433 -2.4970684 3.7566614
-1.1052029 0.055419654 0.6919212 -1.3845692 -3.6723638 1.2403617 5.8241644 6.5073795
-1.4079837 -1.9288743 1.1679885 0.6621116 -4.826811 1.0709743 2.103684 0.61094356
-0.12183222 0.059880443 0.061263435 -2.340707 -1.2527757 1.2451677 -2.6524005 1.7287188
-3.5253124 -2.6749148 -0.29321525 -3.3736174 1.5012473 -3.8813555 -1.4563158 0.84947205
-2.0391324 -4.2205796 1.7863162 1.4301112 -4.959315 0.98734605 0.91234946 -0.07151381
0.68928593 -0.041786715 -0.09437884 -0.8563557 -2.0088081 0.9595758 -1.4410245 0.58165234
-4.4419518 -2.3635497 -0.46669155 -5.3528643 0.35179088 -3.7964232 -1.4042379 1.1418461
1.2862437 -0.24017309 -0.83929396 2.5539274 -0.30291766 1.5599152 0.25845957 0.63965285
0.2553894 0.093736485 0.0796448 -4.910109 -2.328116 0.7102168 -1.0226363 0.6987976
1.2753631 -0.5628057 -0.41913188 -2.1240911 -1.448281 -9.788736 -1.1781482 3.63025
-2.8931844 1.4021268 1.2063508 1.7804569 -9.34544 1.5946188 3.1698961 0.8153994
-2.0996282 0.13612746 -0.13304676 -0.28407305 1.2309313 1.4556392 -8.442564 1.9041154
-1.7595744 -0.47357666 -0.34452417 0.1218381 0.64769363 -2.71658 -4.3170514 1.4212924
-0.17613015 -0.0022035053 -0.30496088 -0.22015025 0.040190022 -0.22332506 0.044683594 0.009981389
-0.015710505 0.13170639 0.10489019 -0.14758657 -0.23861417 0.08191218 -0.21762039 -0.2163974
-0.35929266 -0.3831795 -0.059477236 -0.4559201 -0.16798495 -0.030313792 0.0873279 -0.18453674
-0.18982664 -0.1964336 -0.0975149 -0.13385324 -0.17646974 -0.3025683 0.035426006 -0.04661565
-0.065570906 -0.0064480305 0.11015496 -0.13449202 -0.1259025 -0.15370542 -0.29198155 0.044579234
0.022673475 -0.2294019 -0.26240152 0.072565384 -0.1520722 -0.10510623 0.06919242 -0.097853035
-0.28687456 -0.42723984 -0.048323274 -0.40372318 -0.08789658 -0.041268155 -0.18351373 -0.013946578
-0.0065710098 0.039094433 -0.022181123 -0.036150433 -0.36272922 -0.05784926 -0.29942682 -0.040625423
-0.3956335 -0.27003995 -0.10471691 0.0056993663 0.016478866 -0.33640805 -0.110941954 0.027605236
1.9304129 -0.7997575 2.203115 -1.8362437 -4.611595 3.7148585 3.7034433 2.8672833
-4.8099194 0.08934975 -0.009492464 -2.1394799 -1.2951003 -5.6923065 -2.2010338 -1.092675
-2.1035967 -8.058333 -0.22831231 -3.8629987 -1.1499267 -0.8633691 -0.17081445 -10.583094
-1.9751343 -2.1950686 1.148369 0.90868026 -4.686938 0.48319796 1.7686908 0.17389672
0.07395445 -0.10282647 -0.008637749 -1.4517361 -1.4267287 1.0370991 -1.4282513 1.159493
-4.534974 -1.65861 0.0883906 -4.3104415 1.0212073 -3.1652255 -0.55043405 0.773317
0.69363284 0.39703855 0.544404 0.6714154 -0.21732877 -0.46538556 -4.9275136 -1.8240397
-1.5734291 0.064794146 0.20921281 0.68372613 -1.3420358 1.6899385 -0.043211497 3.0050662
00000000: 073a 3840 53b3 ebbf 836c 0b40 59ee 3140
00000010: 7c9d 3fc0 71cc 2a40 ea50 9bc0 f23d 30be
00000020: 7011 7240 388a 1b3d 4ba7 2cbd d332 05c0
00000030: a532 06c0 63bc 4b3f f8cf 1fc0 246d 7040
00000040: 4a77 8dbf b8ff 623d bf21 313f 9039 b1bf
00000050: 0208 6bc0 2cc4 9e3f 8e5f ba40 743c d040
00000060: cf38 b4bf 5ae5 f6bf a680 953f 2580 293f
00000070: 3c75 9ac0 b015 893f c2a2 0640 cc66 1c3f
00000080: 2c83 f9bd 3245 753d 5eef 7a3d 25ce 15c0
00000090: f45a a0bf a861 9f3f eec0 29c0 a846 dd3f
000000a0: b89e 61c0 ce31 2bc0 4f20 96be 59e9 57c0
000000b0: df28 c03f 2168 78c0 8e68 babf 0077 593f
000000c0: 2581 02c0 fd0e 87c0 02a6 e43f e20d b73f
000000d0: b5b2 9ec0 b6c2 7c3f bc8f 693f d575 92bd
000000e0: 0b75 303f 8c28 2bbd b149 c1bd 213a 5bbf
000000f0: 5090 00c0 c2a6 753f 7e73 b8bf 2be7 143f
00000100: 7824 8ec0 6644 17c0 32f2 eebe aa4a abc0
00000110: ef1d b43e 99f8 72c0 11be b3bf 0328 923f
00000120: a2a3 a43f efef 75be f8db 56bf 8c73 2340
00000130: 0618 9bbe 4dab c73f d054 843e 4ac0 233f
00000140: 66c2 823e eaf8 bf3d d01c a33d 9d1f 9dc0
00000150: daff 14c0 c5d0 353f bfe5 82bf 66e4 323f
00000160: 193f a33f 0914 10bf 7498 d6be 1cf1 07c0
00000170: 4661 b9bf aa9e 1cc1 8fcd 96bf 0456 6840
00000180: ef29 39c0 e478 b33f b469 9a3f 03e6 e33f
00000190: ec86 15c1 781c cc3f 94df 4a40 04be 503f
000001a0: 4f60 06c0 ff64 0b3e 693d 08be 0672 91be
000001b0: 288f 9d3f 6352 ba3f be14 07c1 0eba f33f
000001c0: bc39 e1bf a478 f2be 7965 b0be 4186 f93d
000001d0: 40cf 253f 72dc 2dc0 4925 8ac0 e9ec b53f
000001e0: 765b 34be af68 10bb d523 9cbe 116f 61be
000001f0: 4b9e 243d 53af 64be 2506 373d fb88 233c
00000200: 51b3 80bc 0ade 063e abd0 d63d ef20 17be
00000210: 4657 74be 93c1 a73d e1d7 5ebe 4897 5dbe
00000220: 35f5 b7be 1a30 c4be 679e 73bd 5c6e e9be
00000230: 3f04 2cbe a154 f8bc f8d8 b23d 33f7 3cbe
00000240: ea61 42be e425 49be e4b5 c7bd d310 09be
00000250: 7cb4 34be 3bea 9abe dc1a 113d 0df0 3ebd
00000260: 0a4a 86bd 004a d3bb ec98 e13d 47b8 09be
00000270: 96ec 00be f464 1dbe 9b7e 95be b798 363d
00000280: b9bd b93c 55e8 6abe 7e59 86be 299d 943d
00000290: d1b8 1bbe ef41 d7bd c1b4 8d3d 2c67 c8bd
000002a0: 39e1 92be 2ebf dabe a0ee 45bd ceb4 cebe
000002b0: 1f03 b4bd cc08 29bd 06eb 3bbe 3080 64bc
000002c0: a051 d7bb 7c21 203d 30b5 b5bc 7a12 14bd
000002d0: a5b7 b9be 58f3 6cbd 794e 99be d866 26bd
000002e0: 7990 cabe ad42 8abe d275 d6bd c0c1 ba3b
000002f0: b0fe 863c ad3d acbe 8935 e3bd 6024 e23c
00000300: c517 f73f e8bc 4cbf d6ff 0c40 090a ebbf
00000310: 3092 93c0 3ec0 6d40 3705 6d40 9281 3740
00000320: dcea 99c0 00fd b63d 4886 1bbc 3ded 08c0
00000330: d9c5 a5bf 6027 b6c0 bddd 0cc0 c6dc 8bbf
00000340: 54a1 06c0 efee 00c1 b4ca 69be 5f3b 77c0
00000350: cc30 93bf c205 5dbf fce9 2ebe 5a54 29c1
00000360: 33d1 fcbf 017c 0cc0 c1fd 923f 459f 683f
00000370: 65fb 95c0 b965 f73e 7664 e23f fb11 323e
00000380: 6e75 973d af96 d2bd 5885 0dbc 7dd2 b9bf
00000390: 0c9f b6bf aabf 843f f0d0 b6bf 446a 943f
000003a0: 821e 91c0 554d d4bf 2206 b53d 23ef 89c0
000003b0: ecb6 823f 0e93 4ac0 3fe9 0cbf 1af8 453f
000003c0: ec91 313f a348 cb3e 0f5e 0b3f e1e1 2b3f
000003d0: 6f8b 5ebe 0447 eebe 31ae 9dc0 227a e9bf
000003e0: 2066 c9bf cbb2 843d e23b 563e ad08 2f3f
000003f0: d4c7 abbf e84f d83f 8afe 30bd 0153 4040

2.bias f4 [24]
-1.3125193 -1.5908296 -1.6627007 -4.35053 -0.0062319417 -0.19822964 -0.22528094 -0.26985198
-0.7142376 -1.7987872 2.566433 -2.543058 -0.81504506 -1.5753667 -0.034876317 1.6978267
1.5612131 1.1514491 4.3544307 -2.3934422 -1.702311 0.17849816 5.7291913 -3.0220544
00000000: a200 a8bf 4ea0 cbbf 60d3 d4bf 8b37 8bc0
00000010: 5135 ccbb b6fc 4abe 0cb0 66be 0a2a 8abe
00000020: 46d8 36bf a93e e6bf 7040 2440 76c1 22c0
00000030: cba6 50bf 9ea5 c9bf 78da 0ebd 6352 d93f
00000040: d5d5 c73f af62 933f 7f57 8b40 282e 19c0
00000050: 54e5 d9bf 39c8 363e 8955 b740 5769 41c0

4.weight f4 [4, 24]
3.9046524 1.3620075 -1.471465 3.86637 2.9948335 0.08824033 -0.053924844 -0.15879211
4.3310685 0.5176701 1.0129695 -3.4040654 -0.06642716 -0.64510864 -0.027274445 -0.47884256
1.0175357 -1.5916371 1.9183707 -2.5362785 -0.03777744 2.1600363 -0.12513705 -6.575846
3.319915 1.6933707 0.108568646 3.9015093 3.6756632 0.0890991 -0.008520887 0.04732108
4.248791 0.67019403 1.7139835 -6.0177383 -3.3115442 1.4820229 0.0018487362 3.615611
2.241066 -0.5254334 -0.57851315 -1.648222 -0.32741013 -0.70335054 -0.6636329 2.9435036
3.114301 0.18147685 2.1678407 2.553745 -0.67683226 0.0008727958 -0.1268874 -0.15585671
2.3507779 3.5024304 0.976293 -0.7567176 -0.49859786 1.3722155 0.05807482 -0.026102565
0.38594097 0.05669054 1.2067842 -1.1450511 -0.43598226 -0.28026733 0.95359457 -2.1875799
3.8877316 0.7078286 2.7268608 3.7682557 1.0623413 -0.20714521 -0.1987733 0.1545601
3.4860835 0.75886863 2.0797951 -3.642799 -1.2864374 1.8626171 -0.06484093 0.51507187
-0.7542627 0.7770291 1.0368992 -0.21735443 -2.663186 -1.8721097 3.4366357 -2.8159325
00000000: d3e5 7940 4356 ae3f f758 bcbf 9b72 7740
00000010: 5aab 3f40 59b7 b43d 4ce0 5cbd 669a 22be
00000020: 1d98 8a40 0786 043f fca8 813f 35dc 59c0
00000030: f60a 88bd d725 25bf a86e dfbc da2a f5be
00000040: 9c3e 823f c4ba cbbf 2c8d f53f 6352 22c0
00000050: 84bc 1abd 093e 0a40 ed23 00be 556d d2c0
00000060: 7d79 5440 5fc0 d83f 3d59 de3d 54b2 7940
00000070: 113e 6b40 9779 b63d 319b 0bbc c0d3 413d
00000080: 19f6 8740 d691 2b3f d063 db3f 5091 c0c0
00000090: 57f0 53c0 edb2 bd3f 4b51 f23a 2c66 6740
000000a0: a06d 0f40 ce82 06bf 7019 14bf f0f8 d2bf
000000b0: 4da2 a7be c80e 34bf d9e3 29bf 5d62 3c40
000000c0: b550 4740 11d5 393e e7bd 0a40 8f70 2340
000000d0: e144 2dbf 56cc 643a c5ee 01be e798 1fbe
000000e0: 2573 1640 d227 6040 57ee 793f 3fb8 41bf
000000f0: 3848 ffbe c2a4 af3f dddf 6d3d 0cd5 d5bc
00000100: 0e9a c53e 5734 683d e877 9a3f 0991 92bf
00000110: 1139 dfbe 337f 8fbe c61e 743f 4f01 0cc0
00000120: 98d0 7840 4134 353f e384 2e40 1a2b 7140
00000130: cdfa 873f e01d 54be 3a8b 4bbe 0145 1e3e
00000140: fe1b 5f40 3745 423f 5d1b 0540 9e23 69c0
00000150: fba9 a4bf 3d6a ee3f 52cb 84bd c0db 033f
00000160: 5c17 41bf 61eb 463f 1db9 843f 2992 5ebe
00000170: a471 2ac0 4aa1 efbf d7f1 5b40 3d38 34c0

4.bias f4 [4]
-1.944724 1.9724009 -0.83301556 2.84573
00000000: b7ec f8bf a277 fc3f 8240 55bf 7120 3640
