logs_800/logs/target_params_B_375.pt (torch, 6263 bytes, 6 tensors)

0.weight f4 [24, 12]
0	0x3f98c4d3	1.1935066
1	0x3f4b7e09	0.7948919
2	0x3e9c120a	0.30482513
3	0x3f293f49	0.6611219
4	0x4004fd7c	2.0779715
5	0xbd8ede0e	-0.06975947
6	0x3f3e1ab2	0.74259484
7	0xbfc2e2f8	-1.5225515
8	0xbff8fcbc	-1.9452128
9	0x3ee84830	0.45367575
10	0x40908a83	4.516908
11	0x403a392f	2.9097402
12	0x3f8c1b10	1.0945759
13	0x40015573	2.0208404
14	0x3da761a9	0.08172924
15	0xbf92b4be	-1.1461408
16	0x3e430f9d	0.19048925
17	0x3e5ae541	0.21376516
18	0xbf318077	-0.69336647
19	0xbf9fa5a0	-1.247242
20	0xbffadd76	-1.9598835
21	0xc063f118	-3.5615902
22	0xc063a935	-3.5572026
23	0xbf0429a8	-0.5162606
24	0xbe6d1643	-0.23153023
25	0x3ffc0850	1.9690037
26	0xbfc9c0cd	-1.5761963
27	0xbee776dc	-0.4520787
28	0xbf9e8635	-1.2384707
29	0x3e692ba8	0.2277056
30	0x3c9650a8	0.018349007
31	0x3fcf6c22	1.6204875
32	0xbe8485c3	-0.25883302
33	0x3f013a0a	0.50479186
34	0xc0175d64	-2.365075
35	0x40835957	4.1046557
36	0x3f83aea3	1.028767
37	0x3f1b81cf	0.6074495
38	0xbe04134f	-0.1289799
39	0xbe03f3c2	-0.12885955
40	0xbf1c0147	-0.6093945
41	0xbf45c6c4	-0.7725642
42	0x3ed75cf7	0.42063114
43	0x3f482a58	0.7818961
44	0x40b99814	5.799814
45	0x3e932d50	0.28745508
46	0xc097b33e	-4.74063
47	0x401ec66f	2.4808614
48	0xbf9b93d8	-1.2154493
49	0x3f1156a0	0.56772804
50	0x3f4d8b26	0.8029045
51	0xbebb6099	-0.36597136
52	0x3ee02346	0.43776911
53	0x3ee7f31c	0.45302665
54	0x3ea4fbaa	0.32223254
55	0xbc3bbb72	-0.011458265
56	0xc072ed47	-3.7957323
57	0xbffcd4b7	-1.9752415
58	0xc08500eb	-4.156362
59	0xc070a728	-3.7602024
60	0x3d8aa32c	0.06769404
61	0x3f72eb2b	0.9489009
62	0xbf4d5b8f	-0.8021783
63	0xbecee2d7	-0.4040744
64	0x3e280ca7	0.16411076
65	0x3fa85d7b	1.3153528
66	0x3db13928	0.0865348
67	0x3e440527	0.1914259
68	0x3f960c77	1.1722554
69	0x3d1bd6a1	0.038046483
70	0x40b03329	5.506245
71	0xbf89fba5	-1.0779921
72	0x3fa80ab7	1.312827
73	0xbdd12e72	-0.10213937
74	0xbf5691f1	-0.8381644
75	0xc036a8a3	-2.8540428
76	0xc00d6a3f	-2.2096097
77	0x3e1d707d	0.15374942
78	0xbebd114e	-0.36927265
79	0xbf82ca50	-1.0217991
80	0x3fdaaab8	1.7083349
81	0xbf9162a7	-1.1358231
82	0xc041a579	-3.0257246
83	0xbf8f7776	-1.1208332
84	0x3fba34f8	1.4547415
85	0x401df262	2.4679189
86	0xbfb7168f	-1.4303759
87	0xbf252243	-0.64505404
88	0xbf42db98	-0.76116323
89	0x3f69d50a	0.91340697
90	0xbf41fdee	-0.7577809
91	0xbf1b0d2f	-0.6056699
92	0xc06fdc0e	-3.747806
93	0xc0b08f90	-5.5175247
94	0xc004d45c	-2.0754614
95	0xbfbdacdb	-1.4818376
96	0xbf4a796b	-0.7909152
97	0x3fe05a77	1.7527608
98	0xbe05eced	-0.13078661
99	0xbd778952	-0.060433693
100	0x3e6c3602	0.23067477
101	0x3ec47224	0.38368332
102	0x3edaefc6	0.42761058
103	0x3e038a8d	0.12845822
104	0x404c6281	3.1935122
105	0x3f011475	0.5042184
106	0xbf62cde9	-0.88595444
107	0x40190dc6	2.3914657
108	0xbe93f7b1	-0.2889991
109	0xbf096d53	-0.5368244
110	0xbe7f1d28	-0.24913466
111	0xbe4d2216	-0.20032534
112	0xbdd69f2e	-0.1047958
113	0xbeb3d2bf	-0.35121724
114	0xbe8076dc	-0.25090683
115	0xbe1ba671	-0.15200211
116	0x3e0ccb5b	0.13749449
117	0xbec55d60	-0.38547802
118	0x3d2c9cbe	0.04214167
119	0xbd079b49	-0.033107076
120	0xbddbb3ff	-0.10727691
121	0xbecd8b61	-0.401454
122	0xbea0fff2	-0.3144527
123	0x3da8240f	0.08210003
124	0xbe5349fb	-0.2063369
125	0xbeb8c516	-0.36087865
126	0xbe96dc99	-0.29465178
127	0x3c1bf8e3	0.009519788
128	0x3dcf57f4	0.101241976
129	0xbe992128	-0.2990811
130	0xbd55db3e	-0.05221104
131	0xbcc8d7dd	-0.024516994
132	0x40109ebd	2.2596886
133	0xbfcfe6f6	-1.6242359
134	0x3d0c05e1	0.034185294
135	0xbd4424f7	-0.047886815
136	0xbe965526	-0.29361838
137	0xbf0627a3	-0.5240423
138	0x3d06d4d3	0.03291781
139	0x3e31120e	0.17292044
140	0xc0803414	-4.006357
141	0xbf1f1e4a	-0.6215559
142	0xbfded7c2	-1.7409594
143	0xbf049364	-0.517874
144	0xbf9a37e5	-1.2048308
145	0xbf127599	-0.5721069
146	0xbec03c10	-0.37545824
147	0x3e6df0fd	0.23236461
148	0x3f475e5e	0.7787837
149	0xbd85d7d6	-0.06535308
150	0x3ebd9935	0.3703095
151	0xbee8a889	-0.45441082
152	0x40b848e4	5.758898
153	0x3fe017bd	1.7507244
154	0x3e02485b	0.12722914
155	0x409b4c55	4.853068
156	0x3f84da67	1.0379151
157	0xbe1cfc22	-0.15330556
158	0xbd9beb8d	-0.07613287
159	0xbcb6e966	-0.02232809
160	0xbe2797ab	-0.1636645
161	0xbe7abb3b	-0.24485485
162	0x3f0d5ba9	0.5521799
163	0x3f29c138	0.66310453
164	0x3f382bd9	0.71941906
165	0x3eda5a39	0.4264696
166	0xbf8093aa	-1.0045063
167	0x405b486e	3.4262958
168	0xbf023bd7	-0.5087256
169	0x4037d970	2.8726463
170	0x3efce4af	0.49393222
171	0xbd62e082	-0.05538989
172	0xbd6ebea3	-0.058287274
173	0xbfb7e86b	-1.4367803
174	0x3e1d41df	0.15357159
175	0xbf812421	-1.0089151
176	0x3f8d2ef7	1.1029958
177	0xbe822b80	-0.25423813
178	0xbfde0a21	-1.7346841
179	0x3e5dde34	0.21666795
180	0x3d78fa49	0.060785566
181	0x3f06ec8e	0.52704704
182	0x3e3a6c1a	0.182053
183	0xbe610933	-0.21976165
184	0x3ef85e8c	0.48509634
185	0x3ef7e0f5	0.48413816
186	0x3e2529af	0.16129182
187	0xbe68841a	-0.22706643
188	0x4086f390	4.2172318
189	0xbff761eb	-1.9326757
190	0xc04c8d79	-3.1961348
191	0xc01f2585	-2.486665
192	0xbe024df9	-0.12725057
193	0xbe56116f	-0.20905088
194	0xbf1af62f	-0.60531896
195	0x3f11f476	0.5701364
196	0xbe292d01	-0.16521074
197	0x3f466fd0	0.7751436
198	0x3f999b50	1.2000523
199	0x3f90c2f5	1.1309496
200	0xc03c751f	-2.9446485
201	0x3fa9335c	1.3218799
202	0xc00cc664	-2.1996088
203	0xc002478e	-2.0356174
204	0xbfbe42a1	-1.4864084
205	0xbddf2995	-0.10896603
206	0x3d419a7c	0.04726647
207	0x3f5cf27e	0.86307514
208	0xbfc846ed	-1.5646645
209	0x3f7f51d8	0.9973426
210	0x3f74412f	0.9541196
211	0xbe2a7579	-0.16646375
212	0xbdb99f9c	-0.09063646
213	0xbfa8a833	-1.317633
214	0x3f2fc982	0.6866685
215	0x3f767b04	0.96281457
216	0x3fa846f4	1.3146653
217	0xbeb7d809	-0.3590701
218	0xbf1fd692	-0.62436783
219	0xbfddf262	-1.7339594
220	0xbf273379	-0.65312916
221	0xbd8c2c54	-0.068443924
222	0x3e829ef9	0.25511912
223	0x3f5887c6	0.84582174
224	0xc0e60ef5	-7.189326
225	0x3e66f011	0.22552516
226	0x407a8ab5	3.914716
227	0x3ff61462	1.922497
228	0xc01d2d8f	-2.4559057
229	0xbf7cfffc	-0.988281
230	0x3f38f395	0.72246677
231	0x3f16ff5a	0.58983386
232	0x3fd3d828	1.6550341
233	0x3f840cdf	1.0316428
234	0xbd97a604	-0.07404712
235	0x3d8fd281	0.07022572
236	0xc08bb355	-4.365641
237	0xbf7b39be	-0.9813498
238	0xc0001a0f	-2.0015905
239	0xc03033b8	-2.7531567
240	0x3ac35a2a	0.001490419
241	0xbeebfefc	-0.46092975
242	0xbfde0e04	-1.7348027
243	0xc082a8a7	-4.0830874
244	0xbe84e25c	-0.25953948
245	0x3f98b17f	1.1929168
246	0xbbd869ce	-0.00660441
247	0x40165103	2.3486946
248	0xbf91aa84	-1.1380162
249	0xbea7ed0f	-0.3279805
250	0xbf886a50	-1.0657444
251	0x402d214a	2.7051568
252	0xbebf609f	-0.37378404
253	0xbf3b9921	-0.7328053
254	0xbea98dd0	-0.33116007
255	0x3f027cfa	0.5097195

0.bias f4 [24]
0	0xbf87d495	-1.061175
1	0xbfb8074a	-1.4377224
2	0xc02c15d9	-2.6888335
3	0xc0705dab	-3.755717
4	0x405928dd	3.393119
5	0xc0aaacd3	-5.3335967
6	0xc0434321	-3.0509722
7	0xc0011437	-2.0168588
8	0xc0cdb250	-6.4280167
9	0xbf2482ae	-0.642619
10	0xbf2bc9be	-0.6710471
11	0x4028d4f0	2.6379967
12	0x3fd6a7c5	1.6769949
13	0xc0ddb174	-6.9279118
14	0x40923539	4.568997
15	0xc0d449a7	-6.633991
16	0xbffc7737	-1.9723881
17	0x405c03b8	3.437727
18	0xbf2c4aa0	-0.6730137
19	0x40106925	2.2564175
20	0x3f188157	0.59572357
21	0x3f04e8d6	0.5191778
22	0xc03d24f3	-2.9553802
23	0xc0b0d93e	-5.526519

2.weight f4 [24, 24]
0	0x40214b5b	2.5202243
1	0xc005c23f	-2.0899808
2	0x3f882181	1.0635225
3	0x40462efd	3.096618
4	0xc006775d	-2.1010354
5	0x4054edfd	3.3270257
6	0xc09b50ea	-4.853627
7	0xbf838dce	-1.027765
8	0x4069b0f0	3.6514244
9	0x3d1b8a38	0.037973613
10	0xbd2ca74b	-0.04215173
11	0xbffe4a13	-1.9866356
12	0xc01e4d66	-2.473474
13	0x3fa9dfbd	1.3271405
14	0xc023a757	-2.5570886
15	0x4096a7a8	4.707966
16	0x3dbb06a6	0.091321275
17	0x3e977fdc	0.29589736
18	0xbe5e9c87	-0.21739398
19	0xc082e0aa	-4.089925
20	0xc0b48bd8	-5.642071
21	0x3f24dd8b	0.6440055
22	0x40ca5b39	6.3236356
23	0x40c4ca65	6.1497064
24	0xbfb438cf	-1.4079837
25	0xbff6e55a	-1.9288743
26	0x3f9580a6	1.1679885
27	0x3f298025	0.6621116
28	0xc09a753c	-4.826811
29	0x3f8915b0	1.0709743
30	0x4006a2c2	2.103684
31	0x3f1c66cc	0.61094356
32	0xbdf9832c	-0.12183222
33	0x3d754532	0.059880443
34	0x3d7aef5e	0.061263435
35	0xc015ce25	-2.340707
36	0xbfa05af4	-1.2527757
37	0x3f9f61a8	1.2451677
38	0xc029c0ee	-2.6524005
39	0x3fdd46a8	1.7287188
40	0xc0619eb8	-3.5253124
41	0xc02b31ce	-2.6749148
42	0xbe96204f	-0.29321525
43	0xc057e959	-3.3736174
44	0x3fc028df	1.5012473
45	0xc0786821	-3.8813555
46	0xbfba688e	-1.4563158
47	0x3f597700	0.84947205
48	0xc0028125	-2.0391324
49	0xc0870efd	-4.2205796
50	0x3fe4a602	1.7863162
51	0x3fb70de2	1.4301112
52	0xc09eb2b5	-4.959315
53	0x3f7cc2b6	0.98734605
54	0x3f698fbc	0.91234946
55	0xbd9275d5	-0.07151381
56	0x3f30750b	0.68928593
57	0xbd2b288c	-0.041786715
58	0xbdc149b1	-0.09437884
59	0xbf5b3a21	-0.8563557
60	0xc0009050	-2.0088081
61	0x3f75a6c2	0.9595758
62	0xbfb8737e	-1.4410245
63	0x3f14e72b	0.58165234
64	0xc08e2478	-4.4419518
65	0xc0174466	-2.3635497
66	0xbeeef232	-0.46669155
67	0xc0ab4aaa	-5.3528643
68	0x3eb41def	0.35179088
69	0xc072f899	-3.7964232
70	0xbfb3be11	-1.4042379
71	0x3f922803	1.1418461
72	0x3f8d853d	1.1056286
73	0xbdf559f3	-0.11980047
74	0xbfb5c07d	-1.4199368
75	0x40246904	2.5689096
76	0xc029c510	-2.6526527
77	0x3e81096f	0.2520251
78	0x3e8454d0	0.25845957
79	0x3f879b1d	1.0594212
80	0x3f540316	0.8281721
81	0x3dbff8ea	0.093736485
82	0x3da31cd0	0.0796448
83	0xc0a19c59	-5.0503354
84	0xc00d2b6a	-2.2057748
85	0x3e82bbd2	0.2553392
86	0xbf2959bf	-0.66152567
87	0x3f3e97c3	0.7445032
88	0x3e8edf74	0.27904856
89	0xbebe2e3f	-0.37144658
90	0xc07138db	-3.7690952
91	0xc06c69ab	-3.6939495
92	0x3f83cf6a	1.0297673
93	0xc10a1d3f	-8.63214
94	0xbf96cd8f	-1.1781482
95	0x40315f34	2.7714357
96	0xc01449ea	-2.3170114
97	0x3ff9581d	1.9480015
98	0x3fcda3c6	1.6065605
99	0x4024e9b5	2.5767643
100	0xc110881f	-9.033233
101	0x3fcea4f1	1.6144086
102	0x404adf94	3.1698961
103	0x3f9790c3	1.1841053
104	0xc006604f	-2.0996282
105	0x3e0b64ff	0.13612746
106	0xbe083d69	-0.13304676
107	0x3f138640	0.57626724
108	0x3fd77e44	1.6835408
109	0x3fd832a2	1.6890452
110	0xc0e81db9	-7.2536283
111	0x400c5ae7	2.1930482
112	0xbfca1384	-1.5787206
113	0x3dac9e52	0.08428635
114	0x3e877d2e	0.26462692
115	0x3e18d826	0.14926204
116	0x3f9ea7bf	1.2394942
117	0xc02dd16d	-2.7159073
118	0xc07ac2c4	-3.9181376
119	0x3fcb1e09	1.5868541
120	0xbe345b76	-0.17613015
121	0xbb1068af	-0.0022035053
122	0xbe9c23d5	-0.30496088
123	0xbe616f11	-0.22015025
124	0x3d249e4b	0.040190022
125	0xbe64af53	-0.22332506
126	0x3d370625	0.044683594
127	0x3c2388fb	0.009981389
128	0xbc80b351	-0.015710505
129	0x3e06de0a	0.13170639
130	0x3dd6d0ab	0.10489019
131	0xbe1720ef	-0.14758657
132	0xbe745746	-0.23861417
133	0x3da7c193	0.08191218
134	0xbe5ed7e1	-0.21762039
135	0xbe5d9748	-0.2163974
136	0xbeb7f535	-0.35929266
137	0xbec4301a	-0.3831795
138	0xbd739e67	-0.059477236
139	0xbee96e5c	-0.4559201
140	0xbe2c043f	-0.16798495
141	0xbcf854a1	-0.030313792
142	0x3db2d8f8	0.0873279
143	0xbe3cf733	-0.18453674
144	0xbe4261ea	-0.18982664
145	0xbe4925e4	-0.1964336
146	0xbdc7b5e4	-0.0975149
147	0xbe0910d3	-0.13385324
148	0xbe34b47c	-0.17646974
149	0xbe9aea3b	-0.3025683
150	0x3d111adc	0.035426006
151	0xbd3ef00d	-0.04661565
152	0xbd864a0a	-0.065570906
153	0xbbd34a00	-0.0064480305
154	0x3de198ec	0.11015496
155	0xbe09b847	-0.13449202
156	0xbe00ec96	-0.1259025
157	0xbe1d64f4	-0.15370542
158	0xbe957e9b	-0.29198155
159	0x3d3698b7	0.044579234
160	0x3cb9bdb9	0.022673475
161	0xbe6ae855	-0.2294019
162	0xbe86597e	-0.26240152
163	0x3d949d29	0.072565384
164	0xbe1bb8d1	-0.1520722
165	0xbdd741ef	-0.10510623
166	0x3d8db4c1	0.06919242
167	0xbdc8672c	-0.097853035
168	0xbe92e139	-0.28687456
169	0xbedabf2e	-0.42723984
170	0xbd45eea0	-0.048323274
171	0xbeceb4ce	-0.40372318
172	0xbdb4031f	-0.08789658
173	0xbd2908cc	-0.041268155
174	0xbe3beb06	-0.18351373
175	0xbc648030	-0.013946578
176	0xbbd751a0	-0.0065710098
177	0x3d20217c	0.039094433
178	0xbcb5b530	-0.022181123
179	0xbd14127a	-0.036150433
180	0xbeb9b7a5	-0.36272922
181	0xbd6cf358	-0.05784926
182	0xbe994e79	-0.29942682
183	0xbd2666d8	-0.040625423
184	0xbeca9079	-0.3956335
185	0xbe8a42ad	-0.27003995
186	0xbdd675d2	-0.10471691
187	0x3bbac1c0	0.0056993663
188	0x3c86feb0	0.016478866
189	0xbeac3dad	-0.33640805
190	0xbde33589	-0.110941954
191	0x3ce22460	0.027605236
192	0x3fbbd8d1	1.4675542
193	0xbe404a43	-0.18778329
194	0x3e6b4dd2	0.22978905
195	0xbfd62294	-1.6729302
196	0xc0d6a328	-6.7074165
197	0x408800a6	4.250079
198	0x406d0537	3.7034433
199	0x3ff4be84	1.9120641
200	0xc0b910cc	-5.7833004
201	0x3db6fd00	0.08934975
202	0xbc1b8648	-0.009492464
203	0xbfc07c20	-1.503788
204	0xbff9d55c	-1.9518237
205	0xc024ef9d	-2.5771248
206	0xc027bd3c	-2.620925
207	0xbe823d18	-0.25437236
208	0xbf72f5de	-0.94906414
209	0xc0b81223	-5.752214
210	0xbdc301e2	-0.095218435
211	0xc0d5c3a8	-6.680134
212	0x3ef5b1d9	0.4798725
213	0xc02cf537	-2.7024667
214	0xbe6ec392	-0.23316792
215	0xc0a87d12	-5.2652674
216	0xbfd4a712	-1.6613486
217	0xbff0b164	-1.8804135
218	0x3fbba3a4	1.4659314
219	0x3f837f43	1.0273212
220	0xc095fb65	-4.686938
221	0x3f4bea2a	0.7965418
222	0x3fe26476	1.7686908
223	0x3ef9a0c0	0.48755455
224	0x3d97756e	0.07395445
225	0xbdd296af	-0.10282647
226	0xbc0d8558	-0.008637749
227	0xbf914861	-1.1350213
228	0xbfb69f0c	-1.4267287
229	0x3f84bfaa	1.0370991
230	0xbf8e3190	-1.1108875
231	0x3f946a44	1.159493
232	0xc0911e82	-4.534974
233	0xbfd44d55	-1.65861
234	0x3ece2ab8	0.40266967
235	0xc089ef23	-4.3104415
236	0x3fab1741	1.3366472
237	0xc03688ce	-2.8521
238	0xbf0ce93f	-0.55043405
239	0x3f45f81a	0.773317
240	0x3f8f3ff1	1.1191388
241	0x3f51dbfb	0.8197629
242	0x3f1584ec	0.5840595
243	0x3f632904	0.8873446
244	0x3d9c4f2e	0.0763229
245	0x3e90396c	0.2816881
246	0xc09666da	-4.700055
247	0xbfbaf95e	-1.4607351
248	0xbfb84fab	-1.4399313
249	0x3d84b2cb	0.064794146
250	0x3e563be2	0.20921281
251	0x3f9d17b5	1.227286
252	0xbf78a27d	-0.9712294
253	0x40084a08	2.1295185
254	0xbd3d4777	-0.046210732
255	0x408dd038	4.4316673

2.bias f4 [24]
0	0xc0090158	-2.140707
1	0xbfcba04e	-1.5908296
2	0xbfd4d360	-1.6627007
3	0xc0522977	-3.2837808
4	0x3f69d90a	0.913468
5	0xbe4afcb6	-0.19822964
6	0xbe66b00c	-0.22528094
7	0xbe8a2a0a	-0.26985198
8	0x3e703208	0.23456585
9	0xbfbe5d34	-1.4872193
10	0x3fb87a8d	1.44124
11	0xc0171a12	-2.3609662
12	0xbe17ba31	-0.1481712
13	0xbfc9a59e	-1.5753667
14	0xbd0eda78	-0.034876317
15	0x3fb7d23a	1.4361031
16	0x3fbd01f4	1.4766221
17	0x3fb25e83	1.3935093
18	0x403942cf	2.8947027
19	0xc00307b4	-2.0473452
20	0x3e556a7e	0.20841405
21	0x3f96ecdb	1.1791033
22	0x40796123	3.8965538
23	0xc01ff91b	-2.4995792

4.weight f4 [4, 24]
0	0x40826f41	4.076081
1	0x3fae5643	1.3620075
2	0xbfbc58f7	-1.471465
3	0x4098e807	4.7783237
4	0x4074cb72	3.8249173
5	0x3db4b759	0.08824033
6	0xbd5ce04c	-0.053924844
7	0xbe229a66	-0.15879211
8	0x408b1a5a	4.3469667
9	0x3f048607	0.5176701
10	0x3fa80ba6	1.3128555
11	0xc0644866	-3.5669188
12	0xbe89eba1	-0.26937583
13	0xbf2525d7	-0.64510864
14	0xbcdf6ea8	-0.027274445
15	0xbf6c6e76	-0.9235605
16	0x3f74e8b4	0.95667577
17	0xbf650232	-0.89456475
18	0x4005459e	2.082374
19	0xc04beb15	-3.1862233
20	0xbf49ec1b	-0.78875893
21	0x3f7e1722	0.9925405
22	0xbe242717	-0.16030537
23	0xc0c799dd	-6.237532
24	0x40620d15	3.5320485
25	0x3fd8c05f	1.6933707
26	0x3dde593d	0.108568646
27	0x40543a2b	3.3160503
28	0x4080aac1	4.020844
29	0x3db67997	0.0890991
30	0xbc0b9b31	-0.008520887
31	0x3d41d3c0	0.04732108
32	0x40c7e6ce	6.2469244
33	0x3f2b91d6	0.67019403
34	0x3fd8638c	1.6905379
35	0xc0c25dcc	-6.07395
36	0xc065b4f0	-3.5891685
37	0x3fbdb2ed	1.4820229
38	0x3af2514b	0.0018487362
39	0x407aa555	3.916341
40	0x402f1ad0	2.7360115
41	0xbf050c52	-0.51971924
42	0xbf1d321e	-0.614046
43	0xbfb71cf1	-1.4305707
44	0x3cbe8731	0.023257824
45	0xbffca1a3	-1.9736828
46	0xbfa1c6a3	-1.2638744
47	0x406d5413	3.7082565
48	0x402c8969	2.6958869
49	0x3e39d511	0.18147685
50	0x400abde7	2.1678407
51	0x3f9dc193	1.2324699
52	0xbea0ec68	-0.31430364
53	0x3a64cc56	0.0008727958
54	0xbe01eec5	-0.1268874
55	0xbe1f98e7	-0.15585671
56	0x4009578b	2.1459682
57	0x406027d2	3.5024304
58	0x3faec0fa	1.3652642
59	0xbf507b22	-0.81437886
60	0xbf83c20e	-1.0293596
61	0x3fafa4c2	1.3722155
62	0x3d6ddfdd	0.05807482
63	0x3e0d2d99	0.13786925
64	0xbe6fe645	-0.23427685
65	0x3f8516bf	1.0397567
66	0x3f6eb2ae	0.93241394
67	0xbfae378f	-1.3610705
68	0xbf2095ca	-0.6272856
69	0x3e777bbd	0.24168296
70	0x3fa9e90e	1.3274248
71	0x3ed20b4d	0.41024247
72	0x405ca6b0	3.4476738
73	0x3f353441	0.7078286
74	0x402e84e3	2.7268608
75	0x4097c292	4.7425013
76	0x3fcecdf8	1.6156607
77	0xbe541de0	-0.20714521
78	0xbe4b8b3a	-0.1987733
79	0x3e1e4501	0.1545601
80	0x4048ec49	3.1394217
81	0x3f7326b3	0.94980925
82	0x3fde412a	1.7363636
83	0xbee4ce61	-0.44688705
84	0xbf3ef7fb	-0.7459714
85	0x3fee6a3d	1.8626171
86	0xbd84cb52	-0.06484093
87	0x3f0ed028	0.5578637
88	0xbecf8f02	-0.40538794
89	0x3f9a9b3e	1.2078626
90	0x3fb4228c	1.4073043
91	0x3eb8ed47	0.36118528
92	0xc041f8f4	-3.03082
93	0xc03c483c	-2.9419088
94	0x407bca55	3.9342244
95	0xc057db96	-3.3727775

4.bias f4 [4]
0	0xc02ca565	-2.697595
1	0x400213bc	2.0324545
2	0xc0bad8a5	-5.838946
3	0x3facbf22	1.3495829
