logs_800/logs/target_params_B_250.pt (torch, 6263 bytes, 6 tensors)

0.weight f4 [24, 12]
0	0x3f9f573c	1.2448497
1	0x3f686e4b	0.90793294
2	0x3e510ebf	0.20415781
3	0x3efcd67c	0.4938239
4	0x400dc885	2.2153637
5	0xbe829f03	-0.2551194
6	0x3f6518a7	0.8949074
7	0xbfce8ff9	-1.6137687
8	0xbfe87eea	-1.8163731
9	0x3f9e355a	1.2360032
10	0x4081287b	4.0361915
11	0x40466ac1	3.1002657
12	0x3fc78eb5	1.5590426
13	0x3fe1ac54	1.7630715
14	0x3e19067b	0.14943878
15	0xbfbf2753	-1.4933876
16	0x3efb8300	0.49123383
17	0xbf9916be	-1.1960065
18	0xbe9220b5	-0.28540578
19	0xbf940ce4	-1.1566434
20	0xc032f535	-2.7962162
21	0xbfb13004	-1.3842778
22	0xc03e0058	-2.968771
23	0xbcdd6d83	-0.027029758
24	0xbec420c8	-0.3830626
25	0x3f981863	1.1882442
26	0xbfbc67f4	-1.4719224
27	0xbecb4346	-0.39699763
28	0xbf83fb38	-1.0311041
29	0x3eb7b06d	0.3587679
30	0x3d1843e7	0.03717413
31	0x3fac6f2c	1.3471427
32	0x400e6ff3	2.2255828
33	0xbe1f529c	-0.15558857
34	0xc0375d27	-2.8650606
35	0x4061ca0f	3.5279577
36	0x3f72ba88	0.94815874
37	0x3f53ced3	0.82737464
38	0x3e197ad1	0.14988257
39	0xbd010860	-0.031502128
40	0xbf860f53	-1.0473427
41	0xbf106ac3	-0.56412905
42	0x3e915075	0.28381696
43	0x3ed3d01c	0.41369712
44	0x40ab94ae	5.3618994
45	0xbe00b736	-0.1256989
46	0xc0889bcf	-4.2690196
47	0x405506ee	3.328548
48	0xbf656829	-0.8961206
49	0x3f88e3cc	1.0694518
50	0x3d0f9c3d	0.03506111
51	0x3d46218d	0.04837184
52	0x3e6f8fb3	0.2339466
53	0x3e278df9	0.16362752
54	0x3ee9f230	0.45692587
55	0xbe8ae290	-0.27125978
56	0xc00e14d8	-2.2200222
57	0xbfa3c3c5	-1.2794119
58	0xc0702c81	-3.7527163
59	0xc06c2a75	-3.6900914
60	0x3e27cb09	0.16386046
61	0x3f668bce	0.90057075
62	0xbf68e066	-0.90967405
63	0xbeb24cfb	-0.34824356
64	0x3e4b654d	0.19862862
65	0x3f9bcc5b	1.2171739
66	0xbe19bc5d	-0.15013261
67	0x3e9299d8	0.28632998
68	0x3f8543a4	1.0411267
69	0xbf7fdeb8	-0.99949217
70	0x40a3df47	5.1210055
71	0xbf8b5134	-1.0884156
72	0x3fc14a72	1.5100844
73	0x3e1cc3d3	0.15309076
74	0xbf29c23d	-0.6631201
75	0xc04d2c6f	-3.205837
76	0xc00c9bad	-2.1970017
77	0x3f06a39a	0.52593386
78	0xbe173ed7	-0.14770065
79	0xbfa5166d	-1.2897469
80	0x3ffcfab6	1.9764011
81	0xbf8ebb5a	-1.1150925
82	0xc042f60a	-3.046267
83	0xbfad969e	-1.356159
84	0x3faad2aa	1.334554
85	0x4032f5e7	2.7962587
86	0xbf79bfad	-0.975581
87	0xbef08a3e	-0.4698047
88	0xbfa2d272	-1.2720473
89	0x3eabc8c4	0.3355161
90	0xbf412820	-0.7545185
91	0xbedfbc08	-0.43698144
92	0xc0821667	-4.0652347
93	0xc0b98ffb	-5.7988257
94	0xc0085c13	-2.1306198
95	0xbe2b2f78	-0.16717327
96	0xbf678fe4	-0.90453935
97	0x3fead59a	1.8346436
98	0x3dd1c506	0.10242657
99	0xbe6d3dee	-0.23168156
100	0xbd5aacf9	-0.053387616
101	0xbdffb1df	-0.12485098
102	0x3efc712c	0.49305093
103	0x3ed5d424	0.41763413
104	0x401c3a56	2.4410605
105	0x3eccf1f9	0.4002836
106	0xbf9c1599	-1.2194091
107	0x4016e299	2.3575804
108	0xbe93f7b1	-0.2889991
109	0xbf096d53	-0.5368244
110	0xbe7f1d28	-0.24913466
111	0xbe4d2216	-0.20032534
112	0xbdd69f2e	-0.1047958
113	0xbeb3d2bf	-0.35121724
114	0xbe8076dc	-0.25090683
115	0xbe1ba671	-0.15200211
116	0x3e0ccb5b	0.13749449
117	0xbec55d60	-0.38547802
118	0x3d2c9cbe	0.04214167
119	0xbd079b49	-0.033107076
120	0xbddbb3ff	-0.10727691
121	0xbecd8b61	-0.401454
122	0xbea0fff2	-0.3144527
123	0x3da8240f	0.08210003
124	0xbe5349fb	-0.2063369
125	0xbeb8c516	-0.36087865
126	0xbe96dc99	-0.29465178
127	0x3c1bf8e3	0.009519788
128	0x3dcf57f4	0.101241976
129	0xbe992128	-0.2990811
130	0xbd55db3e	-0.05221104
131	0xbcc8d7dd	-0.024516994
132	0x4008858d	2.1331513
133	0xbfd0e4ce	-1.6319826
134	0x3ee13723	0.43987378
135	0x3e6861ae	0.22693512
136	0xbed777d9	-0.42083624
137	0xbec69a7f	-0.38789746
138	0x3d6f5d09	0.058438335
139	0x3daa8983	0.083270095
140	0xc0832e6f	-4.099418
141	0xbe9d8631	-0.30766442
142	0xc02456f1	-2.5678065
143	0x3d97f3b7	0.07419532
144	0xbf9ecd25	-1.2406355
145	0xbf636b8b	-0.8883597
146	0xbe1ce8ea	-0.15323225
147	0x3eada7d4	0.33917105
148	0x3f1d36c4	0.6141169
149	0xbe35ca94	-0.17753059
150	0x3f292882	0.66077435
151	0xbf389f6b	-0.7211825
152	0x40aa368c	5.3191586
153	0x3ff4e7de	1.913326
154	0xbeab6506	-0.33475512
155	0x409961c0	4.7931824
156	0x3f6408fb	0.89076203
157	0xbd9b0d7c	-0.07570931
158	0xbd37ff75	-0.044921357
159	0xbde391e8	-0.11111814
160	0xbd9ce623	-0.076610826
161	0xbdef38b1	-0.11680735
162	0x3f07580b	0.5286872
163	0x3efa522f	0.48890826
164	0x3de86e5c	0.113491744
165	0x3dc33500	0.09531593
166	0xbfb0c1a0	-1.380909
167	0x406bda46	3.6851974
168	0xbf25e0a5	-0.64795905
169	0x402e9083	2.7275703
170	0x3f0cd02e	0.55005157
171	0xbcaa8473	-0.02081511
172	0xbdb1a5cb	-0.086742006
173	0xbfd36824	-1.6516156
174	0x3df738f0	0.12071407
175	0xbf6131ab	-0.8796641
176	0x3f9165ec	1.1359229
177	0x3f1a89c1	0.60366446
178	0xbfe3f2a4	-1.7808423
179	0x3c63213c	0.013862904
180	0x3e26b719	0.16280784
181	0x3f6e942a	0.9319483
182	0xbd660bd0	-0.05616361
183	0xbe47a469	-0.19496311
184	0x3eda1720	0.42595768
185	0x3eb74e1d	0.35801783
186	0x3d62ea43	0.05539919
187	0xbefc4f46	-0.4927923
188	0x408bf457	4.3735766
189	0xbf77b55d	-0.96761113
190	0xc04b62b5	-3.1778996
191	0xc00e029c	-2.2189093
192	0x3efb4750	0.49077845
193	0xbeaac1d7	-0.33351013
194	0xbf4f10a1	-0.8088475
195	0x3f45fcb5	0.77338725
196	0xbe228928	-0.15872633
197	0x3f3523b0	0.7075758
198	0x3f35038d	0.70708543
199	0x3fa03cdb	1.2518572
200	0xc0435248	-3.051897
201	0x3f93ff71	1.156233
202	0xc008028f	-2.1251562
203	0xc00f5b29	-2.239939
204	0xbfa9bede	-1.3261373
205	0xbee3e349	-0.44509342
206	0x3e8f71a7	0.28016397
207	0x3f9c8acc	1.2229857
208	0xbfd02f77	-1.6264485
209	0x3f9ada64	1.2097898
210	0xbbcfec56	-0.006345312
211	0x3ee39a13	0.44453487
212	0x3e329004	0.1743775
213	0x3e335310	0.17512155
214	0x3f6f1501	0.93391424
215	0x3fe7728b	1.8081831
216	0x3fc3e028	1.5302782
217	0xbd9b1e82	-0.07574178
218	0xbed3993d	-0.4132785
219	0xc013ec42	-2.311295
220	0xbfa2a0fc	-1.2705379
221	0xbf49e44b	-0.7886397
222	0xbe64fb6d	-0.22361536
223	0x3e7adc2d	0.24498053
224	0xc0957697	-4.6707263
225	0x3fca3c09	1.5799571
226	0x40643f3f	3.5663602
227	0x3f43c0ae	0.7646588
228	0xc019ff6a	-2.4062142
229	0xbf6d7dac	-0.92769885
230	0x3f36c4e2	0.7139417
231	0x3e73c6e3	0.23806338
232	0x3fd7e50b	1.6866773
233	0x3f95aed8	1.1693983
234	0x3e142ad9	0.1446947
235	0xbdd96bca	-0.10616262
236	0xc02f588f	-2.7397802
237	0xbfa2eb9d	-1.2728153
238	0xc02f42fa	-2.738463
239	0xbfa14aed	-1.260099
240	0x3e87f1fb	0.26551804
241	0xbf02d1e1	-0.511015
242	0xc00f8ca1	-2.2429583
243	0xc0806416	-4.0122175
244	0xbed7b174	-0.42127573
245	0x3f8ec04a	1.1152432
246	0xbe764913	-0.24051313
247	0x3ff1c743	1.8888935
248	0xbfadc9af	-1.3577174
249	0xbeaf9223	-0.3429118
250	0xbf4c3543	-0.7976877
251	0x40329189	2.7901328
252	0x3e039bc8	0.12852395
253	0xbf6aa9e2	-0.9166547
254	0x3ea0fb23	0.31441602
255	0x3d60f20c	0.054918334

0.bias f4 [24]
0	0xbf6885c2	-0.908291
1	0xbf35530a	-0.7082983
2	0xc004ea0e	-2.0767856
3	0xc056d226	-3.3565764
4	0x405e3828	3.4721775
5	0xc0aaa152	-5.3321924
6	0xc0372962	-2.8619008
7	0xbffedb9b	-1.9910768
8	0xc0c2edad	-6.091513
9	0xbf2482ae	-0.642619
10	0xbf2bc9be	-0.6710471
11	0x401725b9	2.3616774
12	0x3f984ec0	1.1899033
13	0xc0d1dd85	-6.558291
14	0x40826762	4.07512
15	0xc0c93fc9	-6.2890363
16	0xbe97389e	-0.29535383
17	0x4042ac7f	3.0417783
18	0xbe1629d1	-0.14664389
19	0x400abdc4	2.1678324
20	0x3ee3606e	0.44409508
21	0x3f7cf85b	0.9881646
22	0xc02c18c5	-2.6890118
23	0xc0a8f990	-5.280464

2.weight f4 [24, 24]
0	0x4027d1d7	2.6221826
1	0xc00d686f	-2.2094991
2	0x3d48c800	0.04901886
3	0x403aa9f8	2.916624
4	0xbfe267ee	-1.7687967
5	0x406da9ea	3.7134957
6	0xc0add06f	-5.4316936
7	0xbfb75aed	-1.4324623
8	0x4073c958	3.809164
9	0x3d1b8a38	0.037973613
10	0xbd2ca74b	-0.04215173
11	0xc00be798	-2.1860104
12	0xc036c9bb	-2.8560627
13	0x3f86af72	1.0522292
14	0xc01ab55e	-2.4173198
15	0x40945209	4.635014
16	0x3ef9c33d	0.48781767
17	0xbef10d49	-0.47080448
18	0xbd3c185a	-0.04592166
19	0xc09c56ad	-4.8855805
20	0xc0b761bd	-5.730681
21	0x3eeb169e	0.45915693
22	0x40d57802	6.6708994
23	0x40b9c7c4	5.8056355
24	0xbfb438cf	-1.4079837
25	0xbff6e55a	-1.9288743
26	0x3f9580a6	1.1679885
27	0x3f298025	0.6621116
28	0xc09a753c	-4.826811
29	0x3f8915b0	1.0709743
30	0x4006a2c2	2.103684
31	0x3f1c66cc	0.61094356
32	0xbdf9832c	-0.12183222
33	0x3d754532	0.059880443
34	0x3d7aef5e	0.061263435
35	0xc015ce25	-2.340707
36	0xbfa05af4	-1.2527757
37	0x3f9f61a8	1.2451677
38	0xc029c0ee	-2.6524005
39	0x3fdd46a8	1.7287188
40	0xc0619eb8	-3.5253124
41	0xc02b31ce	-2.6749148
42	0xbe96204f	-0.29321525
43	0xc057e959	-3.3736174
44	0x3fc028df	1.5012473
45	0xc0786821	-3.8813555
46	0xbfba688e	-1.4563158
47	0x3f597700	0.84947205
48	0xc0028125	-2.0391324
49	0xc0870efd	-4.2205796
50	0x3fe4a602	1.7863162
51	0x3fb70de2	1.4301112
52	0xc09eb2b5	-4.959315
53	0x3f7cc2b6	0.98734605
54	0x3f698fbc	0.91234946
55	0xbd9275d5	-0.07151381
56	0x3f30750b	0.68928593
57	0xbd2b288c	-0.041786715
58	0xbdc149b1	-0.09437884
59	0xbf5b3a21	-0.8563557
60	0xc0009050	-2.0088081
61	0x3f75a6c2	0.9595758
62	0xbfb8737e	-1.4410245
63	0x3f14e72b	0.58165234
64	0xc08e2478	-4.4419518
65	0xc0174466	-2.3635497
66	0xbeeef232	-0.46669155
67	0xc0ab4aaa	-5.3528643
68	0x3eb41def	0.35179088
69	0xc072f899	-3.7964232
70	0xbfb3be11	-1.4042379
71	0x3f922803	1.1418461
72	0x3f2fe280	0.68704987
73	0xbd2fc2cc	-0.042910382
74	0xbf9f7c16	-1.2459743
75	0x401b06ad	2.4222825
76	0xc03e9882	-2.9780583
77	0x3e02d0e1	0.12774993
78	0x3dd9ca34	0.1063427
79	0x3f760f4d	0.961171
80	0xbff84df8	-1.9398794
81	0x3dbff8ea	0.093736485
82	0x3da31cd0	0.0796448
83	0xc08202cc	-4.0628414
84	0xbff2ece8	-1.8978548
85	0x3face845	1.3508383
86	0xbedfe310	-0.43727922
87	0x3e406125	0.18787058
88	0x3faf37ce	1.3688905
89	0xbfda901c	-1.7075229
90	0xc053b603	-3.307984
91	0xbfd636cd	-1.6735474
92	0x3fc704a9	1.5548297
93	0xc1089c1c	-8.538113
94	0xbfc6f799	-1.5544311
95	0x40439287	3.0558183
96	0xc003fe98	-2.0624142
97	0x4002a8d7	2.0415552
98	0x3f960147	1.171914
99	0x4028f57c	2.6399832
100	0xc11dc574	-9.860706
101	0x3feeca28	1.8655443
102	0x4028e552	2.6389966
103	0x3ea829bf	0.3284435
104	0xc006604f	-2.0996282
105	0x3e0b64ff	0.13612746
106	0xbe083d69	-0.13304676
107	0x3f30c202	0.6904603
108	0x3fe1c7b0	1.7639065
109	0x40082b05	2.1276257
110	0xc0ea367e	-7.319152
111	0x400c5ae7	2.1930482
112	0xbfc440ac	-1.5332236
113	0xbd898e8b	-0.06716641
114	0x3e97eb65	0.2967178
115	0x3e18d826	0.14926204
116	0x3f8b130a	1.0865185
117	0xc00cf2cb	-2.202319
118	0xc064ffbc	-3.5781088
119	0x3fb25cff	1.393463
120	0xbe345b76	-0.17613015
121	0xbb1068af	-0.0022035053
122	0xbe9c23d5	-0.30496088
123	0xbe616f11	-0.22015025
124	0x3d249e4b	0.040190022
125	0xbe64af53	-0.22332506
126	0x3d370625	0.044683594
127	0x3c2388fb	0.009981389
128	0xbc80b351	-0.015710505
129	0x3e06de0a	0.13170639
130	0x3dd6d0ab	0.10489019
131	0xbe1720ef	-0.14758657
132	0xbe745746	-0.23861417
133	0x3da7c193	0.08191218
134	0xbe5ed7e1	-0.21762039
135	0xbe5d9748	-0.2163974
136	0xbeb7f535	-0.35929266
137	0xbec4301a	-0.3831795
138	0xbd739e67	-0.059477236
139	0xbee96e5c	-0.4559201
140	0xbe2c043f	-0.16798495
141	0xbcf854a1	-0.030313792
142	0x3db2d8f8	0.0873279
143	0xbe3cf733	-0.18453674
144	0xbe4261ea	-0.18982664
145	0xbe4925e4	-0.1964336
146	0xbdc7b5e4	-0.0975149
147	0xbe0910d3	-0.13385324
148	0xbe34b47c	-0.17646974
149	0xbe9aea3b	-0.3025683
150	0x3d111adc	0.035426006
151	0xbd3ef00d	-0.04661565
152	0xbd864a0a	-0.065570906
153	0xbbd34a00	-0.0064480305
154	0x3de198ec	0.11015496
155	0xbe09b847	-0.13449202
156	0xbe00ec96	-0.1259025
157	0xbe1d64f4	-0.15370542
158	0xbe957e9b	-0.29198155
159	0x3d3698b7	0.044579234
160	0x3cb9bdb9	0.022673475
161	0xbe6ae855	-0.2294019
162	0xbe86597e	-0.26240152
163	0x3d949d29	0.072565384
164	0xbe1bb8d1	-0.1520722
165	0xbdd741ef	-0.10510623
166	0x3d8db4c1	0.06919242
167	0xbdc8672c	-0.097853035
168	0xbe92e139	-0.28687456
169	0xbedabf2e	-0.42723984
170	0xbd45eea0	-0.048323274
171	0xbeceb4ce	-0.40372318
172	0xbdb4031f	-0.08789658
173	0xbd2908cc	-0.041268155
174	0xbe3beb06	-0.18351373
175	0xbc648030	-0.013946578
176	0xbbd751a0	-0.0065710098
177	0x3d20217c	0.039094433
178	0xbcb5b530	-0.022181123
179	0xbd14127a	-0.036150433
180	0xbeb9b7a5	-0.36272922
181	0xbd6cf358	-0.05784926
182	0xbe994e79	-0.29942682
183	0xbd2666d8	-0.040625423
184	0xbeca9079	-0.3956335
185	0xbe8a42ad	-0.27003995
186	0xbdd675d2	-0.10471691
187	0x3bbac1c0	0.0056993663
188	0x3c86feb0	0.016478866
189	0xbeac3dad	-0.33640805
190	0xbde33589	-0.110941954
191	0x3ce22460	0.027605236
192	0x3f011ce9	0.5043474
193	0x3fa7320d	1.3062149
194	0x3ec4961f	0.38395783
195	0x3f69aa22	0.9127523
196	0xc0b24b23	-5.571672
197	0x401b740b	2.4289577
198	0x406e778e	3.726047
199	0x4009dc6c	2.1540785
200	0xbf8b1269	-1.0864993
201	0x3db6fd00	0.08934975
202	0xbc1b8648	-0.009492464
203	0xc0544d00	-3.3171997
204	0xc00edfc9	-2.2324088
205	0x3f85206a	1.0400517
206	0xbfe59e1e	-1.7938879
207	0x3ecf4651	0.40483335
208	0xc0389f36	-2.8847175
209	0xc0729e52	-3.790913
210	0x3fa8bcea	1.3182652
211	0xc0a2c71f	-5.086807
212	0x3f561032	0.8361846
213	0xc0416c24	-3.0222254
214	0xbfd1657d	-1.6359097
215	0x3f12aeef	0.5729818
216	0xbfd4a712	-1.6613486
217	0xbff0b164	-1.8804135
218	0x3fbba3a4	1.4659314
219	0x3f837f43	1.0273212
220	0xc095fb65	-4.686938
221	0x3f4bea2a	0.7965418
222	0x3fe26476	1.7686908
223	0x3ef9a0c0	0.48755455
224	0x3d97756e	0.07395445
225	0xbdd296af	-0.10282647
226	0xbc0d8558	-0.008637749
227	0xbf914861	-1.1350213
228	0xbfb69f0c	-1.4267287
229	0x3f84bfaa	1.0370991
230	0xbf8e3190	-1.1108875
231	0x3f946a44	1.159493
232	0xc0911e82	-4.534974
233	0xbfd44d55	-1.65861
234	0x3ece2ab8	0.40266967
235	0xc089ef23	-4.3104415
236	0x3fab1741	1.3366472
237	0xc03688ce	-2.8521
238	0xbf0ce93f	-0.55043405
239	0x3f45f81a	0.773317
240	0x3f9bc920	1.2170753
241	0x3f41116f	0.75417227
242	0x3e8daaa7	0.2766926
243	0x3f2b1894	0.6683438
244	0x3f18c3be	0.5967368
245	0x3f8bac28	1.0911913
246	0xc086a7d7	-4.2079883
247	0xbfb52ef3	-1.4154953
248	0xbf72fa08	-0.9491277
249	0x3d84b2cb	0.064794146
250	0x3e563be2	0.20921281
251	0x3fba613a	1.4560921
252	0xbef1776b	-0.4716142
253	0x401eb4c3	2.4797828
254	0xbd38e02e	-0.04513567
255	0x40930e71	4.595513

2.bias f4 [24]
0	0xc0071ba3	-2.1110618
1	0xbfcba04e	-1.5908296
2	0xbfd4d360	-1.6627007
3	0xc02537ae	-2.5815234
4	0x3f6ae2db	0.91752404
5	0xbe4afcb6	-0.19822964
6	0xbe66b00c	-0.22528094
7	0xbe8a2a0a	-0.26985198
8	0xbf3b12c2	-0.730755
9	0xbfbe5d34	-1.4872193
10	0x3f9a330a	1.2046826
11	0xc0191806	-2.3920913
12	0xbe8eb3ae	-0.2787146
13	0xbfc9a59e	-1.5753667
14	0xbd0eda78	-0.034876317
15	0x3f9083e4	1.129025
16	0x3fb1bdcd	1.3886048
17	0x3f977e08	1.1835337
18	0x401538bf	2.3315885
19	0xc0040d03	-2.0632942
20	0x3f49ac2e	0.7877835
21	0x3f92f00e	1.1479509
22	0x406290cf	3.5400884
23	0xc0104577	-2.2542398

4.weight f4 [4, 24]
0	0x4071fc78	3.7810345
1	0x3fae5643	1.3620075
2	0xbfbc58f7	-1.471465
3	0x402331ca	2.549914
4	0x406cb842	3.6987462
5	0x3db4b759	0.08824033
6	0xbd5ce04c	-0.053924844
7	0xbe229a66	-0.15879211
8	0x40538c1e	3.305427
9	0x3f048607	0.5176701
10	0x3faf507b	1.3696436
11	0xc00c8509	-2.1956198
12	0xbf08192e	-0.5316342
13	0xbf2525d7	-0.64510864
14	0xbcdf6ea8	-0.027274445
15	0xbf8cb577	-1.0992879
16	0x3f80077e	1.0002286
17	0xbf54981a	-0.8304459
18	0x400e6cb5	2.225385
19	0xc05eedd6	-3.4832664
20	0xbf731863	-0.94959086
21	0x3f329ee5	0.69773704
22	0x3e8de72c	0.27715433
23	0xc0900f35	-4.5018563
24	0x406170e4	3.5225153
25	0x3fd8c05f	1.6933707
26	0x3dde593d	0.108568646
27	0x4051d4a3	3.2786033
28	0x407608d7	3.8442895
29	0x3db67997	0.0890991
30	0xbc0b9b31	-0.008520887
31	0x3d41d3c0	0.04732108
32	0x40161501	2.345032
33	0x3f2b91d6	0.67019403
34	0x3fe53f21	1.790989
35	0xc06a881c	-3.6645575
36	0xc06233f2	-3.5344205
37	0x3fbdb2ed	1.4820229
38	0x3af2514b	0.0018487362
39	0x405ea41e	3.478767
40	0x402a270a	2.6586328
41	0xbf141a40	-0.57852554
42	0xbecede29	-0.4040387
43	0xbfd4f727	-1.6637925
44	0x3b31f31c	0.002715296
45	0xc010d81e	-2.2631907
46	0xbfbfe0e6	-1.4990509
47	0x40381e6c	2.8768568
48	0x40393627	2.8939302
49	0x3e39d511	0.18147685
50	0x400abde7	2.1678407
51	0x3f9a2ada	1.2044327
52	0x3faa7b82	1.3318942
53	0x3a64cc56	0.0008727958
54	0xbe01eec5	-0.1268874
55	0xbe1f98e7	-0.15585671
56	0x3f8c349b	1.0953554
57	0x406027d2	3.5024304
58	0x3fcd9e89	1.6064006
59	0xbf3616ab	-0.7112834
60	0xbf9d9c62	-1.2313349
61	0x3fafa4c2	1.3722155
62	0x3d6ddfdd	0.05807482
63	0xbd9f88db	-0.07789775
64	0xbec968e4	-0.39337838
65	0x3f860f2a	1.0473378
66	0x3f8ccaa3	1.099934
67	0xbfec94d7	-1.8482922
68	0xbf197bc7	-0.59954494
69	0x3e2e60a1	0.17029049
70	0x3fb258c2	1.3933337
71	0xbec188b5	-0.37799612
72	0x408807d4	4.2509556
73	0x3f353441	0.7078286
74	0x402e84e3	2.7268608
75	0x40718a3b	3.774062
76	0x40134146	2.300859
77	0xbe541de0	-0.20714521
78	0xbe4b8b3a	-0.1987733
79	0x3e1e4501	0.1545601
80	0x3fbabd27	1.4588975
81	0x3f7326b3	0.94980925
82	0x3fc9896f	1.5745066
83	0xc01e25f3	-2.4710662
84	0xbf2f2615	-0.68417484
85	0x3fee6a3d	1.8626171
86	0xbd84cb52	-0.06484093
87	0x3f1f313d	0.62184507
88	0xbe66b319	-0.22529258
89	0x3fc6a1ef	1.5518168
90	0x3f9d65b5	1.2296664
91	0x3e13e65c	0.14443344
92	0xc04ab9b8	-3.1675854
93	0xc040a61c	-3.0101385
94	0x408bb8c7	4.366306
95	0xc00212ea	-2.0324044

4.bias f4 [4]
0	0xc0557e55	-3.3358357
1	0x40083ead	2.1288254
2	0xc0c9a2ef	-6.3011394
3	0x3f93a24d	1.1533905
