logs_800/logs/target_params_A_625.pt (torch, 6263 bytes, 6 tensors)

0.weight f4 [24, 12]
0	0x403e10a7	2.9697664
1	0x3fc9cd6b	1.5765814
2	0xbca2614f	-0.019821791
3	0x3dec5d66	0.11541252
4	0xbec649d1	-0.38728192
5	0xbdccb131	-0.09994734
6	0xbe886d23	-0.26645765
7	0xbcd767e2	-0.026294652
8	0x40a3e752	5.1219873
9	0x3dc87fbc	0.097899884
10	0x3eeb2067	0.4592316
11	0x3f88cb22	1.0686991
12	0xc02440fb	-2.566466
13	0x3f839ba0	1.0281868
14	0xbd0b5474	-0.034016088
15	0xbec7c3be	-0.39016527
16	0x40503507	3.2532365
17	0xbf780b75	-0.9689248
18	0xbe037f50	-0.12841535
19	0x3fc362f9	1.5264579
20	0xc05ffce2	-3.4998097
21	0x3eb5ab98	0.35482478
22	0x3fdd86d3	1.730677
23	0xbfe0e58a	-1.757005
24	0x3faaf460	1.3355827
25	0xbfc540e6	-1.541043
26	0x3e512d72	0.20427492
27	0xbeec9414	-0.46206725
28	0xbfb5b249	-1.4195033
29	0x3fc13825	1.5095259
30	0xbfe3b7da	-1.7790482
31	0x3e90964d	0.2823967
32	0xc03747e5	-2.863763
33	0x3f41e00f	0.7573251
34	0x40a46176	5.136897
35	0x40ee1a04	7.4406757
36	0xc0470383	-3.1095893
37	0x3f69a98f	0.9127435
38	0x3d1e42b7	0.038637843
39	0x3e9df6d2	0.3085237
40	0xc0af597b	-5.479673
41	0xc0ecdd22	-7.4019938
42	0xbf731a13	-0.9496166
43	0x40289af6	2.634458
44	0xc00fd18b	-2.2471645
45	0x3ee405a8	0.44535565
46	0xc0c44c27	-6.134296
47	0xc05c9c36	-3.4470344
48	0x3fc21612	1.5162985
49	0xbfdf660d	-1.7453018
50	0x3ea9e0af	0.33179232
51	0x3f421e8f	0.7582788
52	0xbeee9e79	-0.4660528
53	0x3e5273e9	0.20552029
54	0xbf893ca1	-1.0721627
55	0x3ffcc5c3	1.9747852
56	0xc0d5645d	-6.6685014
57	0x3fffa2b2	1.9971526
58	0x3f9f4ec2	1.244591
59	0xc09d972c	-4.9247036
60	0xbef48ec4	-0.47765172
61	0xc06c572e	-3.692821
62	0xbebe56ff	-0.37175748
63	0x3fc91a57	1.5711163
64	0x3fa8167a	1.3131859
65	0x3f147161	0.579855
66	0xc071d7a1	-3.778786
67	0xc090c4f6	-4.524043
68	0x4075cac9	3.840502
69	0xc036e5ba	-2.8577714
70	0x4055d913	3.3413742
71	0xc121c5fc	-10.110836
72	0xc039014f	-2.8907049
73	0xbf459338	-0.77177763
74	0x3fc5148d	1.5396897
75	0xc0b08b28	-5.516987
76	0xbf3f1c23	-0.7465231
77	0xbffc1bb5	-1.9695956
78	0xbf9b1315	-1.2115198
79	0x400578f2	2.085507
80	0x3d92193d	0.0713372
81	0x4058634b	3.3810604
82	0xc10d9b13	-8.85036
83	0xc149ba43	-12.607974
84	0x4012d36a	2.2941537
85	0x40483feb	3.1289012
86	0xbfbf19d1	-1.4929754
87	0x3f14be6c	0.5810306
88	0xc0b99fd3	-5.80076
89	0xc07484f5	-3.820615
90	0xbf9e1417	-1.2349881
91	0xbf72af32	-0.94798577
92	0x3fbaa70d	1.458223
93	0xbf066515	-0.5249799
94	0x3fc2659b	1.5187258
95	0xc0801b22	-4.003312
96	0x3facf2cb	1.3511595
97	0xc09f6526	-4.981097
98	0x3e029409	0.12751783
99	0x3a848f58	0.001011352
100	0x3f8226db	1.0168108
101	0x4007eaa5	2.1236966
102	0xbec0e762	-0.3767653
103	0x3fb1c3df	1.38879
104	0x3ed7bc2d	0.42135754
105	0x3f12ea20	0.57388496
106	0x40569fce	3.3535037
107	0xbe40d8ec	-0.18832749
108	0x407e5906	3.9741836
109	0x3f17851e	0.59187496
110	0xbf01c43b	-0.5069005
111	0xbf8bde71	-1.0927259
112	0x3f99b0ce	1.2007082
113	0xc01810f4	-2.3760347
114	0xbf3042a4	-0.68851686
115	0xbfb08924	-1.3791852
116	0xbf45c91a	-0.7725998
117	0xc0562b86	-3.3464065
118	0xbf1c2069	-0.60986954
119	0x3f7b0fe1	0.98071104
120	0x4086409d	4.1953874
121	0xc02ce651	-2.7015574
122	0xbff35561	-1.901043
123	0xc0655980	-3.5835876
124	0xbfdd3faf	-1.728506
125	0x3fe52b14	1.7903771
126	0xc064a7f2	-3.5727506
127	0xc0045efb	-2.0682971
128	0x4061ae21	3.526253
129	0xbf9e8afd	-1.2386166
130	0x407ac990	3.9185524
131	0xc19d4e99	-19.663378
132	0xbf9d80e9	-1.2304965
133	0xbfdcaa63	-1.7239498
134	0x3e9418e6	0.28925246
135	0x3ec96ad8	0.39339328
136	0xbf5d6ab2	-0.8649093
137	0xbf76a5ac	-0.96346545
138	0xbf0af35d	-0.5427759
139	0xbf2b6033	-0.66943663
140	0x4016bd7e	2.3553157
141	0xc067530f	-3.6144445
142	0xc13acfe4	-11.675755
143	0x3ee78d83	0.45225152
144	0x3f62bbae	0.88567626
145	0x40636e2c	3.5535994
146	0xbe207241	-0.15668584
147	0x3fadab53	1.3567909
148	0x3dfb6ff3	0.12277212
149	0x3d962eab	0.0733312
150	0xc0358848	-2.836443
151	0xc086ad64	-4.208666
152	0x4007d3ff	2.1223142
153	0x3efe0600	0.49613953
154	0xbebd5341	-0.3697758
155	0x401177fa	2.2729478
156	0xbfa70a85	-1.3050085
157	0x3e15318e	0.14569685
158	0xbf49ce54	-0.78830457
159	0xbf680b7d	-0.9064253
160	0x3f345b56	0.7045187
161	0x40094971	2.1451075
162	0x3f73f119	0.9528976
163	0x3d8b3d14	0.06798759
164	0x3dda5672	0.106610194
165	0xc09c9e43	-4.894319
166	0xc0a53f35	-5.1639657
167	0xc0ff5c04	-7.9799824
168	0xbffe02ba	-1.9844582
169	0xbe928148	-0.2861426
170	0xbe055446	-0.13020429
171	0xbdabb988	-0.08384997
172	0x3e18ba67	0.14914857
173	0x3d6dbe0e	0.05804258
174	0x3d08574b	0.033286374
175	0xbe00aeb5	-0.12566645
176	0xc111c7e5	-9.111302
177	0xbe8af389	-0.27138928
178	0xbe3c10aa	-0.18365732
179	0x3d82cbda	0.06386538
180	0x401f16f8	2.485777
181	0x3f949dcf	1.1610659
182	0xbeb647b1	-0.3560157
183	0xbf26f3bf	-0.6521568
184	0x3eebfc30	0.4609084
185	0x3f1374b0	0.57599926
186	0xbe285ed4	-0.16442424
187	0x3eaa7b4f	0.33297202
188	0x40f9a782	7.8016977
189	0xbf5cf352	-0.8630878
190	0x3dd44481	0.103646286
191	0xc02708a4	-2.6099024
192	0x3e35a4cc	0.17738646
193	0xbe9e10c6	-0.30872172
194	0x3ed8497d	0.42243567
195	0x3f2b6620	0.66952705
196	0x3f8c6162	1.0967219
197	0x3e5ffd1f	0.21873902
198	0x3f39a4b6	0.72516954
199	0xbe4dfffb	-0.2011718
200	0x4114e7bd	9.306577
201	0x3e427fc9	0.18994059
202	0x3bcd6148	0.0062677003
203	0x3f3a4c44	0.7277262
204	0xbf58435b	-0.84477776
205	0x4084b58e	4.1471624
206	0xbca2b53b	-0.019861808
207	0xbd93a928	-0.07209998
208	0xc04baa58	-3.182272
209	0x3fb6931e	1.4263647
210	0xbf079f2c	-0.5297725
211	0x3ff16746	1.8859642
212	0xc0600a66	-3.5006347
213	0xbf91b9eb	-1.1384863
214	0x40c253ac	6.072714
215	0x408c3543	4.3815017
216	0x400aaabe	2.1666713
217	0x40249083	2.5713203
218	0xbe58ec07	-0.21183787
219	0x3f0b3e92	0.5439235
220	0xbf60b6a6	-0.877787
221	0xbea944b1	-0.3306022
222	0xc0768636	-3.8519416
223	0xbf514bee	-0.81756485
224	0x404381ab	3.0547893
225	0x3ffcf617	1.9762601
226	0x4078cc7a	3.8874803
227	0xc0ff0f74	-7.9706364
228	0xbf8acc3d	-1.0843579
229	0x402e3d5c	2.722495
230	0x3f9a3eae	1.2050378
231	0x4021c0e3	2.5273979
232	0xbfa16cee	-1.2611368
233	0x3fb0c2b3	1.3809417
234	0x3f7e4f61	0.9933987
235	0xbffda6e8	-1.9816561
236	0xc0988909	-4.766728
237	0x40770cb0	3.8601494
238	0x3fee2d54	1.8607583
239	0x40f84d34	7.759424
240	0xbf0efe09	-0.55856377
241	0xc0858bc6	-4.173312
242	0x4001a215	2.0255177
243	0x3fea4231	1.830145
244	0x3f5343c7	0.82525295
245	0xbff94c7a	-1.9476464
246	0xc0b19d61	-5.5504613
247	0xbe45e2f6	-0.1932486
248	0xbea299c1	-0.3175793
249	0x403d5663	2.9583976
250	0xc0da5167	-6.822437
251	0xc13af1b1	-11.684007
252	0xbf582c88	-0.8444295
253	0xbfbed9fb	-1.4910272
254	0x3b903693	0.004401037
255	0xbcb88a19	-0.022526788

0.bias f4 [24]
0	0xc07a30a4	-3.9092188
1	0x3f0e1aa1	0.5550938
2	0x3fd33531	1.6500608
3	0x3f8c5133	1.096228
4	0x404750c0	3.1143036
5	0x3f0e5655	0.5560048
6	0x3df80ef0	0.12112224
7	0x4031ef9a	2.780249
8	0xbeb581ae	-0.354505
9	0x4011cb0a	2.2780175
10	0x40950e2a	4.657979
11	0x40f7777f	7.733337
12	0x3fd6c0f9	1.677764
13	0x408b8e94	4.3611546
14	0x41030ad6	8.1901455
15	0xbfbb4904	-1.4631658
16	0xbf8cda1d	-1.1004063
17	0x3fbe447d	1.4864651
18	0xbf5d892a	-0.8653742
19	0x4033d3e8	2.8098087
20	0x3fc05bed	1.5028054
21	0x410445c1	8.26703
22	0x3f25eec7	0.6481747
23	0xbeca617b	-0.39527497

2.weight f4 [24, 24]
0	0xbe80fcea	-0.25192958
1	0xc13fa4be	-11.97772
2	0xc15111be	-13.066832
3	0xc0d1ef75	-6.5604806
4	0xbf7d54ca	-0.989575
5	0x3fd60518	1.6720304
6	0xc0b220ce	-5.5665045
7	0xc0999106	-4.798953
8	0xbf04f4be	-0.51935947
9	0xbf95af99	-1.1694213
10	0xbee949d4	-0.4556414
11	0x40b62f58	5.6932793
12	0xbf964053	-1.173838
13	0x3f51f28b	0.82010716
14	0x40757b67	3.835657
15	0xbfc60263	-1.5469478
16	0xbf66e178	-0.9018779
17	0xc0cfae4d	-6.490027
18	0x40170eff	2.3602903
19	0xc103f536	-8.247366
20	0xc140f83d	-12.060605
21	0xc0922884	-4.5674458
22	0x406e1246	3.7198653
23	0x3ef8d988	0.48603463
24	0xbf3b8e12	-0.7326366
25	0xc0aa5c1c	-5.323744
26	0xc117facf	-9.498733
27	0xbfd1357c	-1.6344447
28	0xc0489d22	-3.1345906
29	0xbeb051a5	-0.3443729
30	0xc0b31fcc	-5.5976315
31	0x3e9f3605	0.310959
32	0xbc0db5d4	-0.008649308
33	0xc0d072ca	-6.5140123
34	0xc01ffb35	-2.4997075
35	0xc08b53f6	-4.353999
36	0x4068285c	3.6274633
37	0xc10ee33e	-8.930479
38	0x3f9da363	1.2315487
39	0xbf6cc02e	-0.9248074
40	0x3e04fdbf	0.12987421
41	0xc088ce4d	-4.275183
42	0x40839981	4.1124883
43	0xc12aef29	-10.683389
44	0xc120c19a	-10.047266
45	0xc0858c39	-4.173367
46	0x3ffbd0ff	1.9673156
47	0x408bafa0	4.3651886
48	0x3ff65ca5	1.9247023
49	0xc047dfc6	-3.123033
50	0xc013aec9	-2.307543
51	0x4035bf18	2.8397884
52	0xc0f73773	-7.7255187
53	0x3f01f8a3	0.50770015
54	0x3fc12a76	1.5091083
55	0xc10caefb	-8.79272
56	0xbff20d30	-1.8910275
57	0xc0aaef2f	-5.341697
58	0x40acbc9b	5.398023
59	0x40e26dfd	7.0759263
60	0xc0230b15	-2.5475514
61	0xc03c4275	-2.9415562
62	0x4081aa23	4.0520186
63	0xbee9abfd	-0.4563903
64	0xbfd91dcb	-1.6962217
65	0xc056d333	-3.3566406
66	0x3dc2a019	0.095031925
67	0xc0334f76	-2.801725
68	0xc01b5e7e	-2.4276423
69	0xc0822a5b	-4.0676703
70	0x403e0ecf	2.9696538
71	0x3f2f0930	0.68373394
72	0xc0465d5d	-3.0994484
73	0xc0a437e9	-5.131825
74	0xc0bb53a7	-5.8539615
75	0xc0b3ec8e	-5.6226263
76	0xc0d338e9	-6.600697
77	0x3fb1724a	1.3863003
78	0xc086cd85	-4.212588
79	0xc08c5b55	-4.386149
80	0xc004a282	-2.0724187
81	0xc16050a5	-14.019689
82	0x3fa33ed6	1.2753551
83	0x40a0e979	5.0285
84	0xc09449f1	-4.634026
85	0xbf24c451	-0.64362055
86	0x3f21a4d3	0.63142127
87	0xbd4820d1	-0.04885942
88	0xbf401dbd	-0.75045377
89	0xbfcbc7f1	-1.5920392
90	0x3c6f8970	0.01462017
91	0xc0b5cf2e	-5.6815405
92	0xc11ac94a	-9.674143
93	0xc029fdf6	-2.6561255
94	0x400cedf3	2.2020233
95	0xbf283cf9	-0.65718037
96	0x40193fed	2.3945267
97	0xbdda350f	-0.106546514
98	0xbf2ac296	-0.66703165
99	0x3fa85ccb	1.3153318
100	0xc00be376	-2.185758
101	0xbdbe06bd	-0.09278629
102	0x3eca5934	0.39521182
103	0xbe0e46ac	-0.13894147
104	0xbeb36937	-0.3504121
105	0x3fe86d54	1.8158364
106	0x404e4487	3.2229326
107	0x40662c4c	3.5964537
108	0xc00ac2f8	-2.16815
109	0x3ec2815d	0.3798932
110	0x3ea8cf95	0.32970873
111	0x4076d008	3.8564472
112	0x4085df43	4.1835036
113	0x3fa3f1ac	1.2808127
114	0x403bda83	2.935212
115	0xbe3ac666	-0.18239745
116	0xc012cbda	-2.293692
117	0x40ba668a	5.825017
118	0x40a58394	5.172312
119	0xbf8a19bc	-1.0789104
120	0xbea09470	-0.3136325
121	0xbc20f1dc	-0.009823289
122	0xbf11c998	-0.5694823
123	0xbe9bf5f3	-0.30461082
124	0xbe626b43	-0.2211123
125	0xbce7f659	-0.02831571
126	0xbe927c04	-0.2861024
127	0xbec750cd	-0.38928834
128	0xbeb5bfc5	-0.3549787
129	0x3e25c461	0.16188194
130	0x3d1cde89	0.038298164
131	0x3e2bee03	0.16790013
132	0xbe8aeb15	-0.27132478
133	0xbd583be6	-0.0527915
134	0xbe95f3fa	-0.29287702
135	0xbeda3117	-0.42615578
136	0xbe3ca4e2	-0.18422273
137	0xbf133874	-0.57508016
138	0xbe17d0e0	-0.14825773
139	0xbec9f60f	-0.3944554
140	0xbe8c781b	-0.27435383
141	0xbf0c2ed4	-0.54758954
142	0x3f007a00	0.5018616
143	0xbe3d364a	-0.18477741
144	0x3f19675c	0.5992334
145	0x3f1b87ca	0.6075407
146	0x3f86252c	1.0480094
147	0x3ff5953f	1.9186171
148	0x3fc54d7d	1.5414273
149	0xc0cb7df9	-6.3591275
150	0x4073a79c	3.807105
151	0x3f1da2ff	0.6157684
152	0xbf8f8f80	-1.1215668
153	0xbe15336f	-0.14570402
154	0x3f134c8c	0.57538676
155	0xbf857c02	-1.0428469
156	0xbebb4579	-0.3657644
157	0x3fdf3c78	1.7440329
158	0x40baab6a	5.8334246
159	0x3fb30119	1.398471
160	0xbfa26e9c	-1.2690005
161	0x3f5f80c0	0.8730583
162	0xbf7e50ad	-0.9934185
163	0x3f25e1b7	0.6479754
164	0x3f721444	0.9456217
165	0xc0d72a29	-6.7238965
166	0xbfd7f712	-1.6872275
167	0xc0175963	-2.3648307
168	0x4054745c	3.319602
169	0xc0843721	-4.1317296
170	0xc045502b	-3.083018
171	0x3e0d0852	0.13772705
172	0x3f9fd544	1.2486959
173	0xc0e15185	-7.041201
174	0xbff3f9dc	-1.9060626
175	0xc0c79abb	-6.237638
176	0x3e4d6c30	0.20060802
177	0x3eff2fbc	0.49841106
178	0x407a3baf	3.9098928
179	0x3fa7c07a	1.3105614
180	0x400fa734	2.2445803
181	0xbf9d6b6e	-1.229841
182	0x3f9de211	1.2334615
183	0x3f8a632b	1.0811514
184	0xbfc5827f	-1.5430449
185	0x3eb78e5e	0.35850805
186	0xc0804d85	-4.009463
187	0xc0895711	-4.291878
188	0xc0c81522	-6.2525797
189	0xc0d03a74	-6.5071354
190	0xbeb0149f	-0.34390733
191	0x3f19b7cc	0.60046077
192	0x403bd3b9	2.9347975
193	0xc013ebbd	-2.3112633
194	0xc1339af5	-11.225331
195	0xbffdefff	-1.9838866
196	0xc0eb72da	-7.35777
197	0x40a061e9	5.011952
198	0xc00267a7	-2.0375764
199	0xc0014809	-2.0200217
200	0x3ec9129b	0.39272007
201	0xbf03d99e	-0.5150393
202	0x3f419f61	0.7563382
203	0x4046a97e	3.104095
204	0xc18b5085	-17.414316
205	0xbfa66bf2	-1.3001692
206	0xc0d74df8	-6.7282677
207	0xbc5762f3	-0.01314615
208	0x3e3dbdbd	0.1852941
209	0x3ecb4ac1	0.3970547
210	0x3f85c6a4	1.0451245
211	0xbf9c7bb7	-1.2225255
212	0xc0dc5a92	-6.886056
213	0xc012cd2d	-2.293773
214	0xbf88769c	-1.0661197
215	0x3f10a629	0.5650354
216	0x3f721ccb	0.94575185
217	0xbffcc04e	-1.9746187
218	0xbf0543e4	-0.5205672
219	0xbc28bfd6	-0.0102996435
220	0xc0665b17	-3.5993097
221	0x40bf5fb0	5.9804306
222	0x40d89705	6.768435
223	0xc134a540	-11.290344
224	0xc011c0a6	-2.2773833
225	0xc043fd74	-3.0623446
226	0x3ea7ab16	0.32747716
227	0x4088b2c8	4.271824
228	0xc0377af6	-2.86688
229	0xbf845b62	-1.0340388
230	0x4122a169	10.164407
231	0x401885f9	2.383177
232	0x403d9255	2.9620564
233	0xbfca82ad	-1.5821129
234	0x40ab93ac	5.3617764
235	0xbff76e37	-1.933051
236	0xc0cbc5da	-6.367902
237	0xc1232881	-10.197389
238	0xc08c3fb5	-4.3827767
239	0x40906d70	4.513359
240	0x3f924cfe	1.1429746
241	0x3f839f23	1.028294
242	0x3ff24217	1.8926419
243	0x4030aef3	2.760678
244	0x40133e08	2.300661
245	0xbff05ef9	-1.8778983
246	0xbff33f07	-1.900361
247	0x3e19db85	0.15025146
248	0xbfd7e52c	-1.6866813
249	0x4044924c	3.0714293
250	0x40129d56	2.290853
251	0x4037ac63	2.8698967
252	0xbe192fa3	-0.14959578
253	0x405b1ef7	3.423765
254	0xc1690de5	-14.565892
255	0xbea16514	-0.3152243

2.bias f4 [24]
0	0x3f0da281	0.55326086
1	0xbf17ea8f	-0.59342283
2	0x3fcbd994	1.5925775
3	0xbd460523	-0.048344743
4	0x40b89bc0	5.7690125
5	0xbed07660	-0.40715313
6	0xc02b5edc	-2.6776648
7	0xc0839e02	-4.113038
8	0xbfbcb920	-1.4743996
9	0x3f45fc49	0.7733808
10	0xbf14decc	-0.5815246
11	0x4050047c	3.2502737
12	0x402155b2	2.5208554
13	0xc05f43cc	-3.488513
14	0xbf967e44	-1.1757283
15	0x3fddf896	1.7341487
16	0x4024d67c	2.575591
17	0x3fbaa6c6	1.4582145
18	0xbdf472dd	-0.11935971
19	0xbfd4e1a2	-1.6631358
20	0xbf91c139	-1.1387092
21	0xbe535627	-0.20638333
22	0x3e980902	0.29694372
23	0x405ccf2a	3.4501443

4.weight f4 [4, 24]
0	0x3f69f8a1	0.91395
1	0x3fd14c9f	1.6351508
2	0x414e0f66	12.878759
3	0xc12ddff0	-10.867172
4	0x40126394	2.2873278
5	0xbe898093	-0.26855907
6	0xc04bd146	-3.184648
7	0x3ebd8363	0.37014303
8	0xc046b464	-3.1047602
9	0x3fc37a76	1.5271747
10	0xc002b2e4	-2.0421686
11	0x3e83cd57	0.257426
12	0x40aeacd8	5.458599
13	0x40a42450	5.1294327
14	0x40cafd00	6.343384
15	0x408052d5	4.0101113
16	0xbeca536b	-0.39516768
17	0x40ca659b	6.324903
18	0xc0253770	-2.5815086
19	0xc05f5f7d	-3.4902031
20	0xc0c38068	-6.1094246
21	0x3d1e7713	0.038687777
22	0xc0f89e85	-7.7693505
23	0x404e7a8a	3.2262292
24	0x410677a9	8.404214
25	0x407febe8	3.9987736
26	0x401b9052	2.4306836
27	0x408657a2	4.1981974
28	0x40333775	2.8002598
29	0xbf3a4c51	-0.727727
30	0xbea2cc11	-0.31796315
31	0x402a0339	2.6564467
32	0xc11ef511	-9.934831
33	0x409a3e34	4.820093
34	0xc09d4173	-4.9142394
35	0x40010d45	2.016435
36	0x40b55e8f	5.667793
37	0xc024caf4	-2.5748873
38	0x408ec6e9	4.461781
39	0x405ba95c	3.4322119
40	0xc0911c28	-4.534687
41	0x412458cd	10.27168
42	0x404cb3ee	3.198482
43	0xc09aec7d	-4.841368
44	0x3f6293ef	0.8850698
45	0x3d3cbdd4	0.04607947
46	0x411704b8	9.438652
47	0xbc0eaa14	-0.008707542
48	0x3e0c0e97	0.1367744
49	0x3d31d76b	0.04341833
50	0x40a59877	5.1748614
51	0xc029ae84	-2.6512766
52	0x4011ebd9	2.28002
53	0x3e85a4ea	0.26102382
54	0xc04703eb	-3.1096141
55	0x3f775eb1	0.9662886
56	0x404f1a96	3.2359977
57	0x4027b06a	2.6201425
58	0xbfdf6689	-1.7453166
59	0xbeec1a96	-0.46114033
60	0x4085a207	4.1760287
61	0x41230acf	10.190139
62	0xbfb42333	-1.4073242
63	0x3f41d9ff	0.7572326
64	0x3f9f945d	1.2467152
65	0x410221f4	8.133289
66	0xc07f4df0	-3.989132
67	0xbf1f9975	-0.6234353
68	0x40a22355	5.066813
69	0x3dc2011a	0.09472866
70	0xbf995423	-1.1978801
71	0x4031dd41	2.7791293
72	0x40bb8bc9	5.8608136
73	0x41257903	10.342044
74	0xc0b00dec	-5.5016994
75	0x41404f0c	12.019299
76	0x40601844	3.501481
77	0xbde7fbc0	-0.113273144
78	0x3ed06807	0.40704367
79	0xc0a98a8f	-5.298164
80	0x40af7c21	5.4839025
81	0x40834096	4.101634
82	0xc053049b	-3.297156
83	0xc06af213	-3.671025
84	0x40b7baef	5.741569
85	0xc090a886	-4.5205717
86	0x4114b71e	9.294706
87	0x4062ddae	3.5447803
88	0xbeee64a0	-0.46561146
89	0x410c3a11	8.764176
90	0x4062efed	3.545894
91	0xc00f1d61	-2.2361681
92	0x3e19bf62	0.15014413
93	0xbda3e0e3	-0.08001878
94	0x40c3f2fa	6.12341
95	0x3ea9fb3e	0.33199495

4.bias f4 [4]
0	0x40560369	3.3439581
1	0x409ea4de	4.9576254
2	0x40897316	4.2952986
3	0x3f73f13f	0.9528999
