logs_800/logs/target_params_B_625.pt (torch, 6263 bytes, 6 tensors)

0.weight f4 [24, 12]
0	0x3f8b4d16	1.08829
1	0x3f1efadc	0.6210153
2	0x3ea51684	0.3224374
3	0x3f0d5281	0.55204016
4	0x3ff620b1	1.9228727
5	0x3ee16cda	0.4402836
6	0x3f2b5ab9	0.66935307
7	0xbf82a6cb	-1.0207151
8	0xbff865dc	-1.9406085
9	0x3ee53c49	0.44772556
10	0x40aebdae	5.4606543
11	0x402af59c	2.6712408
12	0x3eee747f	0.46573254
13	0x40064801	2.0981448
14	0x3e87cfca	0.26525718
15	0xbf70567c	-0.93881965
16	0x3f3c5a06	0.73574865
17	0x3f64a19c	0.89309096
18	0x3e4a7042	0.19769385
19	0xbf79494b	-0.9737746
20	0xbfaa4cf2	-1.3304732
21	0xc0c69b3e	-6.2064505
22	0xc03f7b28	-2.9918919
23	0xbf06dbdf	-0.52679247
24	0xbeeb9b1e	-0.46016783
25	0x3fae1c81	1.3602449
26	0xc01c03b3	-2.4377258
27	0xbf163f4a	-0.5869032
28	0xbfdaca2c	-1.7092948
29	0x3f0d7449	0.5525556
30	0x3c00773b	0.007840927
31	0x3f9be737	1.2179936
32	0x3f967535	1.1754519
33	0xbfd217fe	-1.6413572
34	0xbfbe54c3	-1.4869617
35	0x407ad6fd	3.9193718
36	0x3f97ed72	1.1869338
37	0x3ed73b43	0.420374
38	0xbec5e514	-0.38651335
39	0xbdd86cfe	-0.105676636
40	0xbe4dbfbe	-0.20092675
41	0xbf0dc1fd	-0.5537413
42	0x3eaefbf0	0.34176588
43	0x3f6b3c59	0.9188896
44	0x40becb42	5.9623117
45	0x3e834ad1	0.25643018
46	0xc0a1e705	-5.0594506
47	0x40356f07	2.8349016
48	0xbf07cc83	-0.53046435
49	0x3ea129c1	0.31477168
50	0x3f2c88ac	0.67396045
51	0xbf33021c	-0.69925094
52	0x3efb4abe	0.4908046
53	0x3db48905	0.08815197
54	0x3ef7a72d	0.48369732
55	0x3ea0b1b6	0.31385583
56	0xc0de4379	-6.9457364
57	0xc079813f	-3.8985136
58	0xc0946a91	-4.6380086
59	0xc09a5796	-4.8231916
60	0xbe043dc3	-0.12914185
61	0x3f200ca5	0.62519294
62	0xbf94ab68	-1.1614809
63	0xbf00747b	-0.50177735
64	0x3e4250ea	0.18976179
65	0x3fbb1fe7	1.4619111
66	0x3f4b5c8c	0.7943809
67	0x3f8867ea	1.0656712
68	0xbff581be	-1.9180219
69	0xbfd28e7f	-1.6449736
70	0x4097a828	4.739277
71	0xbe1c2682	-0.15249065
72	0x3f89991a	1.0749848
73	0xbe9774d9	-0.29581335
74	0xbf5691f1	-0.8381644
75	0xc036a8a3	-2.8540428
76	0xc00d6a3f	-2.2096097
77	0xbd08e14a	-0.033417977
78	0xbf072b01	-0.52799994
79	0xbfa8bbd9	-1.3182327
80	0x3fdaaab8	1.7083349
81	0xbf9162a7	-1.1358231
82	0xc041a579	-3.0257246
83	0xbf8f7776	-1.1208332
84	0x3f2e683d	0.68127805
85	0x4008d7f0	2.1381798
86	0xbff4b1c7	-1.9116753
87	0xbe837923	-0.25678357
88	0xbeca6728	-0.39531827
89	0x3fcaa6d3	1.5832161
90	0xbf393c57	-0.72357696
91	0xbf8a0476	-1.0782611
92	0xc09b4b66	-4.852954
93	0xc071abd2	-3.776112
94	0xbfd17399	-1.6363403
95	0xc0acc1d6	-5.3986616
96	0xbf8aea72	-1.0852797
97	0x3fd3cf51	1.6547643
98	0x3e569c22	0.20957997
99	0xbd1a1860	-0.037620902
100	0x3f2ab4fb	0.66682404
101	0xbe060f50	-0.13091779
102	0x3f0a362f	0.5398893
103	0x3e67c65a	0.22634259
104	0x40546fed	3.3193314
105	0x3e8dfde0	0.27732754
106	0x3ea5b0ff	0.323616
107	0x40093a89	2.1441977
108	0xbe93f7b1	-0.2889991
109	0xbf096d53	-0.5368244
110	0xbe7f1d28	-0.24913466
111	0xbe4d2216	-0.20032534
112	0xbdd69f2e	-0.1047958
113	0xbeb3d2bf	-0.35121724
114	0xbe8076dc	-0.25090683
115	0xbe1ba671	-0.15200211
116	0x3e0ccb5b	0.13749449
117	0xbec55d60	-0.38547802
118	0x3d2c9cbe	0.04214167
119	0xbd079b49	-0.033107076
120	0xbddbb3ff	-0.10727691
121	0xbecd8b61	-0.401454
122	0xbea0fff2	-0.3144527
123	0x3da8240f	0.08210003
124	0xbe5349fb	-0.2063369
125	0xbeb8c516	-0.36087865
126	0xbe96dc99	-0.29465178
127	0x3c1bf8e3	0.009519788
128	0x3dcf57f4	0.101241976
129	0xbe992128	-0.2990811
130	0xbd55db3e	-0.05221104
131	0xbcc8d7dd	-0.024516994
132	0x40132a14	2.2994432
133	0xbfe4d58c	-1.7877669
134	0xbe50cf99	-0.20391692
135	0xbc5d707e	-0.01351559
136	0xbe5b765d	-0.21431871
137	0xbe872ca1	-0.26401237
138	0x3a6d4f46	0.0009052645
139	0x3e6d3d8d	0.23168011
140	0xc0746d52	-3.8191724
141	0xbea2c03e	-0.31787294
142	0xbf893af1	-1.0721112
143	0xbee7c76d	-0.45269337
144	0xbfb8e864	-1.444592
145	0xbe848eda	-0.25890237
146	0x3cef3d86	0.029204141
147	0x3d429d61	0.04751337
148	0x3f7776a1	0.9666539
149	0xbcf9f9ac	-0.03051456
150	0x3e50fd4b	0.20409124
151	0xbf8293fb	-1.020141
152	0x40bfe938	5.997219
153	0x3ec2e2bc	0.3806361
154	0xbdd6dd33	-0.10491409
155	0x40984758	4.758709
156	0x3f5ac2cc	0.85453486
157	0xbd49e397	-0.049289312
158	0xbe0661d9	-0.13123263
159	0x3bb45791	0.005503603
160	0x3d915682	0.07096578
161	0xbeed3fdc	-0.46337783
162	0x3f1472e2	0.579878
163	0x3f428826	0.75988996
164	0x3f4defa2	0.80443776
165	0xbe917517	-0.28409645
166	0xbf350e66	-0.70725095
167	0x408cd853	4.401407
168	0xbed405cd	-0.41410676
169	0x402e2f1b	2.721625
170	0x3e3e0a1c	0.18558544
171	0x3d489683	0.048971664
172	0xbe87a9f5	-0.26496854
173	0xbfe9a774	-1.8254228
174	0x3e55ca02	0.20877841
175	0xbf25ff0b	-0.6484229
176	0x3fc6ef23	1.5541729
177	0x3f109895	0.5648282
178	0xbfec5908	-1.846467
179	0x3ef79663	0.48356923
180	0x3df6221a	0.12018223
181	0x3f11d63a	0.5696751
182	0x3e9e6abc	0.30940807
183	0xbe2fd119	-0.17169608
184	0xbe28fd4b	-0.16502874
185	0x3f412843	0.7545206
186	0xbe9c2f81	-0.30504993
187	0xbb1f7979	-0.0024333878
188	0x40be7413	5.951669
189	0xbfd79164	-1.6841245
190	0xbf81b70f	-1.013399
191	0xbf434082	-0.76270306
192	0xbe09ea2a	-0.13468233
193	0xbec68e27	-0.3878033
194	0xbe1d7b1b	-0.15378992
195	0x3f38d0bd	0.7219351
196	0x3c46ce02	0.012134077
197	0x3f3e01dd	0.74221593
198	0x3f7b211c	0.98097396
199	0x3fd484e6	1.6603057
200	0xc0dbdde5	-6.8708367
201	0x3fae22c3	1.3604358
202	0xc038c78b	-2.8871791
203	0xc0903b9a	-4.5072756
204	0xbfeae326	-1.835057
205	0xbedae1b5	-0.42750326
206	0x3eabdc65	0.33566585
207	0x3fc03ad9	1.5017959
208	0xbfd6d284	-1.6782994
209	0x3f883b5b	1.0643114
210	0x3f755278	0.9582896
211	0x3f011014	0.5041516
212	0xc0898418	-4.2973747
213	0xc060f019	-3.5146544
214	0x3dd935e3	0.10605981
215	0x3f0cd24f	0.55008405
216	0x3ed02a36	0.40657204
217	0x3f0081f9	0.5019832
218	0xbf446308	-0.7671361
219	0xbf9e0618	-1.234561
220	0xbe96a763	-0.2942458
221	0x3f2e1bd2	0.680112
222	0xbf10f69e	-0.5662631
223	0x3e7f6964	0.24942547
224	0xc10a96da	-8.661829
225	0x4028889e	2.6333385
226	0x409d0692	4.907052
227	0x3fc4a9ab	1.5364279
228	0xc0262a17	-2.596319
229	0xbf75b319	-0.95976406
230	0x3f09ac69	0.537787
231	0x3f1f6dd1	0.6227694
232	0x3fd73688	1.6813517
233	0x3f8ef57d	1.1168667
234	0x3ebc2152	0.3674417
235	0xbe922717	-0.28545448
236	0xc0942c1f	-4.630386
237	0x3efc0d77	0.49229023
238	0xc0073dc8	-2.1131458
239	0xc066b5c5	-3.6048443
240	0xbe16bd04	-0.14720541
241	0xbebcdbfd	-0.36886588
242	0xbfea0a12	-1.8284323
243	0xc083b466	-4.1157713
244	0xbea4e5e9	-0.32206658
245	0x3f7ac8fa	0.97962916
246	0x3f5513fc	0.8323362
247	0x4023ac77	2.5574014
248	0xc0543a45	-3.3160565
249	0x3fec8602	1.8478396
250	0xc004b13e	-2.073318
251	0x4000c327	2.0119112
252	0xbf74e397	-0.95659775
253	0xbf10fee0	-0.5663891
254	0xbdcc5901	-0.09977914
255	0xbd0fb486	-0.03508427

0.bias f4 [24]
0	0xbf97b481	-1.185196
1	0xbff9a716	-1.9504116
2	0xc071b52b	-3.7766826
3	0xc076f6f5	-3.858823
4	0x406be619	3.685919
5	0xc0c9e7e5	-6.3095574
6	0xc0527096	-3.2881217
7	0xc006c824	-2.1059656
8	0xc0cea54e	-6.457679
9	0xbf2482ae	-0.642619
10	0xbf2bc9be	-0.6710471
11	0x403665b3	2.8499572
12	0x3fecdac8	1.8504267
13	0xc0dd3811	-6.913094
14	0x40a7ee74	5.247858
15	0xc0c09e61	-6.0193334
16	0xc0474436	-3.1135383
17	0x405ed64a	3.4818292
18	0xbf087419	-0.5330215
19	0x402e1ef5	2.7206395
20	0x3ef2e586	0.47440737
21	0x3efb11a1	0.49036887
22	0xc05dd353	-3.4660232
23	0xc0b76553	-5.7311187

2.weight f4 [24, 24]
0	0x40325e4b	2.7870052
1	0xbfe36a74	-1.7766862
2	0x40018420	2.0236893
3	0x402d24c9	2.7053702
4	0xc02ef23f	-2.7335355
5	0x402ead73	2.7293365
6	0xc09b50ea	-4.853627
7	0xbf54f8c5	-0.8319209
8	0x407aa00f	3.9160192
9	0x3d1b8a38	0.037973613
10	0xbd2ca74b	-0.04215173
11	0xc0070b20	-2.110054
12	0xc00a9f8e	-2.1659884
13	0x3f39e1c6	0.7261013
14	0xc01aff3b	-2.421828
15	0x405e0a8e	3.4693942
16	0xbf52d834	-0.8236115
17	0x3dd46152	0.10370125
18	0x3ef808bc	0.48444164
19	0xbf84a299	-1.0362121
20	0xc0a32eb0	-5.099449
21	0x3f97a14c	1.1846099
22	0x40ba5f8e	5.8241644
23	0x40cff88a	6.4990892
24	0xbfb438cf	-1.4079837
25	0xbff6e55a	-1.9288743
26	0x3f9580a6	1.1679885
27	0x3f298025	0.6621116
28	0xc09a753c	-4.826811
29	0x3f8915b0	1.0709743
30	0x4006a2c2	2.103684
31	0x3f1c66cc	0.61094356
32	0xbdf9832c	-0.12183222
33	0x3d754532	0.059880443
34	0x3d7aef5e	0.061263435
35	0xc015ce25	-2.340707
36	0xbfa05af4	-1.2527757
37	0x3f9f61a8	1.2451677
38	0xc029c0ee	-2.6524005
39	0x3fdd46a8	1.7287188
40	0xc0619eb8	-3.5253124
41	0xc02b31ce	-2.6749148
42	0xbe96204f	-0.29321525
43	0xc057e959	-3.3736174
44	0x3fc028df	1.5012473
45	0xc0786821	-3.8813555
46	0xbfba688e	-1.4563158
47	0x3f597700	0.84947205
48	0xc0028125	-2.0391324
49	0xc0870efd	-4.2205796
50	0x3fe4a602	1.7863162
51	0x3fb70de2	1.4301112
52	0xc09eb2b5	-4.959315
53	0x3f7cc2b6	0.98734605
54	0x3f698fbc	0.91234946
55	0xbd9275d5	-0.07151381
56	0x3f30750b	0.68928593
57	0xbd2b288c	-0.041786715
58	0xbdc149b1	-0.09437884
59	0xbf5b3a21	-0.8563557
60	0xc0009050	-2.0088081
61	0x3f75a6c2	0.9595758
62	0xbfb8737e	-1.4410245
63	0x3f14e72b	0.58165234
64	0xc08e2478	-4.4419518
65	0xc0174466	-2.3635497
66	0xbeeef232	-0.46669155
67	0xc0ab4aaa	-5.3528643
68	0x3eb41def	0.35179088
69	0xc072f899	-3.7964232
70	0xbfb3be11	-1.4042379
71	0x3f922803	1.1418461
72	0x3fa96261	1.3233148
73	0xbcb65083	-0.022255188
74	0xbf1a64f8	-0.60310316
75	0x401f9a0a	2.4937768
76	0xbe8c0e2b	-0.2735456
77	0x3fb1b102	1.3882143
78	0x3e8454d0	0.25845957
79	0x3ee487fc	0.44634998
80	0x3f0b6167	0.544455
81	0x3dbff8ea	0.093736485
82	0x3da31cd0	0.0796448
83	0xc09f7d39	-4.984036
84	0xc0182f36	-2.3778815
85	0x3f830c75	1.0238177
86	0xbf80e44f	-1.0069674
87	0x3e6806c4	0.22658831
88	0x3fb1cfd3	1.3891548
89	0xbf573cbb	-0.8407704
90	0xbf94307e	-1.1577299
91	0xbff8ae60	-1.9428215
92	0xbfe68062	-1.8007929
93	0xc12ab5ed	-10.669415
94	0xbf96cd8f	-1.1781482
95	0x4052a6fa	3.2914414
96	0xc035c4a3	-2.8401268
97	0x3fbec087	1.4902505
98	0x3f9a69b4	1.2063508
99	0x3fe9fe75	1.8280779
100	0xc11586ec	-9.34544
101	0x3fcc1c78	1.5946188
102	0x404adf94	3.1698961
103	0x3f50be04	0.8153994
104	0xc006604f	-2.0996282
105	0x3e0b64ff	0.13612746
106	0xbe083d69	-0.13304676
107	0xbe81ea33	-0.25373992
108	0x3fac520a	1.3462536
109	0x3fba5263	1.4556392
110	0xc104f633	-8.310107
111	0x3ffeacb0	1.989645
112	0xbfe139bc	-1.7595744
113	0xbef278a4	-0.47357666
114	0xbeb06579	-0.34452417
115	0x3e98e0da	0.29859048
116	0x3f25cf40	0.64769363
117	0xc02ddc72	-2.71658
118	0xc08a2549	-4.3170514
119	0x3fbebeb6	1.490195
120	0xbe345b76	-0.17613015
121	0xbb1068af	-0.0022035053
122	0xbe9c23d5	-0.30496088
123	0xbe616f11	-0.22015025
124	0x3d249e4b	0.040190022
125	0xbe64af53	-0.22332506
126	0x3d370625	0.044683594
127	0x3c2388fb	0.009981389
128	0xbc80b351	-0.015710505
129	0x3e06de0a	0.13170639
130	0x3dd6d0ab	0.10489019
131	0xbe1720ef	-0.14758657
132	0xbe745746	-0.23861417
133	0x3da7c193	0.08191218
134	0xbe5ed7e1	-0.21762039
135	0xbe5d9748	-0.2163974
136	0xbeb7f535	-0.35929266
137	0xbec4301a	-0.3831795
138	0xbd739e67	-0.059477236
139	0xbee96e5c	-0.4559201
140	0xbe2c043f	-0.16798495
141	0xbcf854a1	-0.030313792
142	0x3db2d8f8	0.0873279
143	0xbe3cf733	-0.18453674
144	0xbe4261ea	-0.18982664
145	0xbe4925e4	-0.1964336
146	0xbdc7b5e4	-0.0975149
147	0xbe0910d3	-0.13385324
148	0xbe34b47c	-0.17646974
149	0xbe9aea3b	-0.3025683
150	0x3d111adc	0.035426006
151	0xbd3ef00d	-0.04661565
152	0xbd864a0a	-0.065570906
153	0xbbd34a00	-0.0064480305
154	0x3de198ec	0.11015496
155	0xbe09b847	-0.13449202
156	0xbe00ec96	-0.1259025
157	0xbe1d64f4	-0.15370542
158	0xbe957e9b	-0.29198155
159	0x3d3698b7	0.044579234
160	0x3cb9bdb9	0.022673475
161	0xbe6ae855	-0.2294019
162	0xbe86597e	-0.26240152
163	0x3d949d29	0.072565384
164	0xbe1bb8d1	-0.1520722
165	0xbdd741ef	-0.10510623
166	0x3d8db4c1	0.06919242
167	0xbdc8672c	-0.097853035
168	0xbe92e139	-0.28687456
169	0xbedabf2e	-0.42723984
170	0xbd45eea0	-0.048323274
171	0xbeceb4ce	-0.40372318
172	0xbdb4031f	-0.08789658
173	0xbd2908cc	-0.041268155
174	0xbe3beb06	-0.18351373
175	0xbc648030	-0.013946578
176	0xbbd751a0	-0.0065710098
177	0x3d20217c	0.039094433
178	0xbcb5b530	-0.022181123
179	0xbd14127a	-0.036150433
180	0xbeb9b7a5	-0.36272922
181	0xbd6cf358	-0.05784926
182	0xbe994e79	-0.29942682
183	0xbd2666d8	-0.040625423
184	0xbeca9079	-0.3956335
185	0xbe8a42ad	-0.27003995
186	0xbdd675d2	-0.10471691
187	0x3bbac1c0	0.0056993663
188	0x3c86feb0	0.016478866
189	0xbeac3dad	-0.33640805
190	0xbde33589	-0.110941954
191	0x3ce22460	0.027605236
192	0x3fec16d1	1.8444463
193	0xbebc67da	-0.36797982
194	0x400d9754	2.2123613
195	0xc03245dd	-2.785514
196	0xc090adcd	-4.521216
197	0x40852355	4.160563
198	0x406d0537	3.7034433
199	0x40043405	2.065675
200	0xc0a724cf	-5.223243
201	0x3db6fd00	0.08934975
202	0xbc1b8648	-0.009492464
203	0xbfef67f4	-1.8703599
204	0xbfc7ac76	-1.5599506
205	0xc0b22a8c	-5.5676937
206	0xc01ce6f1	-2.4515955
207	0xbf8bdcc6	-1.092675
208	0xc0043b9d	-2.0661385
209	0xc0e3751b	-7.108045
210	0xbf483386	-0.7820362
211	0xc0855ef5	-4.1678414
212	0xbf98b54a	-1.1930325
213	0x3e3076aa	0.17232767
214	0xbe2ee9fc	-0.17081445
215	0xc12a8a95	-10.6588335
216	0xbffcd133	-1.9751343
217	0xc00c7c01	-2.1950686
218	0x3f92fdc1	1.148369
219	0x3f689f45	0.90868026
220	0xc095fb65	-4.686938
221	0x3ef765b9	0.48319796
222	0x3fe26476	1.7686908
223	0x3e3211fb	0.17389672
224	0x3d97756e	0.07395445
225	0xbdd296af	-0.10282647
226	0xbc0d8558	-0.008637749
227	0xbfb9d27d	-1.4517361
228	0xbfb69f0c	-1.4267287
229	0x3f84bfaa	1.0370991
230	0xbfb6d0f0	-1.4282513
231	0x3f946a44	1.159493
232	0xc0911e82	-4.534974
233	0xbfd44d55	-1.65861
234	0x3db50622	0.0883906
235	0xc089ef23	-4.3104415
236	0x3f82b6ec	1.0212073
237	0xc04a930e	-3.1652255
238	0xbf0ce93f	-0.55043405
239	0x3f45f81a	0.773317
240	0x3f30ff6b	0.69139737
241	0x3ede2246	0.43385524
242	0x3f2ff4d8	0.68732977
243	0x3f368016	0.71289194
244	0xbdeb9e50	-0.11504805
245	0xbf03f3e7	-0.5154404
246	0xc09dae31	-4.9275136
247	0xbfe19add	-1.7625386
248	0xbfd66edb	-1.675258
249	0x3d84b2cb	0.064794146
250	0x3e563be2	0.20921281
251	0x3f659050	0.8967333
252	0xbfa4d321	-1.2876931
253	0x3ffc8d6e	1.9730661
254	0xbdf7094a	-0.120623186
255	0x403b65d9	2.9280913

2.bias f4 [24]
0	0xbfc1785f	-1.5114859
1	0xbfcba04e	-1.5908296
2	0xbfd4d360	-1.6627007
3	0xc085ba99	-4.179028
4	0x3d9c6784	0.076369315
5	0xbe4afcb6	-0.19822964
6	0xbe66b00c	-0.22528094
7	0xbe8a2a0a	-0.26985198
8	0xbf167d79	-0.58785206
9	0xbfe63ea9	-1.7987872
10	0x40170dad	2.3602097
11	0xc0151e47	-2.329973
12	0xbf1d7ac7	-0.6151547
13	0xbfc9a59e	-1.5753667
14	0xbd0eda78	-0.034876317
15	0x3fc93308	1.5718699
16	0x3fcd69f4	1.6047959
17	0x3f9eeda6	1.2416275
18	0x40864bbf	4.1967463
19	0xc00eefd4	-2.233388
20	0xbfad6b76	-1.354842
21	0x3e3bfa07	0.18357097
22	0x40b0f78b	5.5302176
23	0xc03bfcf8	-2.937315

4.weight f4 [4, 24]
0	0x40751ee7	3.8300111
1	0x3fae5643	1.3620075
2	0xbfbc58f7	-1.471465
3	0x406ab581	3.6673281
4	0x403fab5a	2.9948335
5	0x3db4b759	0.08824033
6	0xbd5ce04c	-0.053924844
7	0xbe229a66	-0.15879211
8	0x408bcfac	4.3691006
9	0x3f048607	0.5176701
10	0x3f90f379	1.1324302
11	0xc0c61483	-6.190004
12	0xbe315a7a	-0.1731967
13	0xbf2525d7	-0.64510864
14	0xbcdf6ea8	-0.027274445
15	0xbebf0ca1	-0.37314323
16	0x3f88b95e	1.068157
17	0xbfcc62eb	-1.5967687
18	0x3fe7e4ff	1.8116759
19	0xc018fbc7	-2.3903673
20	0xbe07c2a2	-0.1325784
21	0x3ff1d21b	1.8892244
22	0xbd8c3872	-0.068467036
23	0xc0b71ca7	-5.7222476
24	0x404cdb0d	3.2008698
25	0x3fd8c05f	1.6933707
26	0x3dde593d	0.108568646
27	0x407f5c82	3.9900212
28	0x406b3e11	3.6756632
29	0x3db67997	0.0890991
30	0xbc0b9b31	-0.008520887
31	0x3d41d3c0	0.04732108
32	0x408d3fcd	4.414038
33	0x3f2b91d6	0.67019403
34	0x3fdd69ed	1.7297951
35	0xc0c125d9	-6.03587
36	0xc0545d0c	-3.3181791
37	0x3fbdb2ed	1.4820229
38	0x3af2514b	0.0018487362
39	0x406beeac	3.6864424
40	0x401a208a	2.408236
41	0xbeefb34a	-0.46816474
42	0xbf105650	-0.563817
43	0xbfcb7703	-1.5895694
44	0xbeba690a	-0.36408263
45	0xbf9c1f13	-1.2196983
46	0xbf3832a3	-0.71952266
47	0x4046b0dc	3.1045446
48	0x403d69ff	2.9595945
49	0x3e39d511	0.18147685
50	0x400abde7	2.1678407
51	0x40558f5d	3.3368752
52	0xbf2d44e1	-0.67683226
53	0x3a64cc56	0.0008727958
54	0xbe01eec5	-0.1268874
55	0xbe1f98e7	-0.15585671
56	0x40211dbd	2.51744
57	0x406027d2	3.5024304
58	0x3f4e733b	0.8064458
59	0xbf00def8	-0.50340223
60	0xbf3caa34	-0.7369721
61	0x3fafa4c2	1.3722155
62	0x3d6ddfdd	0.05807482
63	0xbd3390fa	-0.043839432
64	0x3ea03a56	0.31294507
65	0x3e3339d5	0.1750253
66	0x3fb31726	1.3991439
67	0xbf9f9cd9	-1.2469741
68	0xbf0a9093	-0.5412685
69	0xbecb4d24	-0.3970729
70	0x3f91eca9	1.1400348
71	0xbffbea2d	-1.968084
72	0x407347e9	3.801264
73	0x3f353441	0.7078286
74	0x402e84e3	2.7268608
75	0x4068ae88	3.6356525
76	0x3f89959c	1.0748782
77	0xbe541de0	-0.20714521
78	0xbe4b8b3a	-0.1987733
79	0x3e1e4501	0.1545601
80	0x4052cbb1	3.2936823
81	0x3f424537	0.75886863
82	0x40065b5c	2.0993261
83	0xc0142b6e	-2.3151507
84	0xbfae1652	-1.3600562
85	0x3fee6a3d	1.8626171
86	0xbd84cb52	-0.06484093
87	0x3f11665a	0.567968
88	0xbf43d2de	-0.7649363
89	0x3f636d25	0.88838416
90	0x3f8bb38f	1.0914172
91	0xbdc0e435	-0.09418527
92	0xc0308c61	-2.758568
93	0xc0193227	-2.393686
94	0x406ac3a4	3.668191
95	0xc0111c2c	-2.2673445

4.bias f4 [4]
0	0xc002ea38	-2.0455456
1	0x3ff73f0a	1.9316113
2	0xbfbcbb20	-1.4744606
3	0x40236698	2.5531368
