logs_800/logs/target_params_B_150.pt (torch, 6263 bytes, 6 tensors)

0.weight f4 [24, 12]
0	0x3f8c77a6	1.0974014
1	0x3f8701c1	1.054741
2	0xbdab7028	-0.083710015
3	0x3efdf15f	0.49598214
4	0x401a0d84	2.407075
5	0xbeb12147	-0.345957
6	0x3f93670b	1.1515821
7	0xbfcd8578	-1.6056356
8	0xbfa3f831	-1.2810117
9	0x3f9fadc3	1.2474903
10	0x40495de3	3.1463554
11	0x404e3a57	3.2223108
12	0x3fb34f50	1.4008579
13	0x3fcaf98c	1.5857406
14	0xbdcc7505	-0.09983257
15	0xbfb46f12	-1.4096396
16	0xbdb42efb	-0.08798023
17	0xbf55b73c	-0.8348272
18	0xbe3ddf05	-0.18542106
19	0xbfd4a567	-1.6612977
20	0xc035a430	-2.8381462
21	0xbe216fbb	-0.15765278
22	0xbffc435a	-1.9708054
23	0x3fe6bdfc	1.8026729
24	0xbdeb4f90	-0.11489785
25	0x3f44dafc	0.76896644
26	0xbfce739b	-1.612903
27	0xbda74f00	-0.08169365
28	0xbfbf83df	-1.4962119
29	0xbf893d4c	-1.0721831
30	0x3e0b5797	0.13607632
31	0x3fabc28e	1.3418748
32	0x40092513	2.1428878
33	0xc056e237	-3.357557
34	0xc074533d	-3.8175805
35	0x402ded5e	2.7176127
36	0x3f58d464	0.8469908
37	0x3f295407	0.6614384
38	0x3d7490eb	0.059708517
39	0xbe399127	-0.18121777
40	0xbf9f46c8	-1.2443476
41	0xbed13f78	-0.40868735
42	0x3ef7e66e	0.4841799
43	0x3f1e6fc2	0.6188928
44	0x40a79f1d	5.238173
45	0xbea17304	-0.31533062
46	0xc057ec21	-3.3737872
47	0x404d2483	3.2053535
48	0xbf27a811	-0.65490824
49	0x3f68a42a	0.90875494
50	0xbf25b782	-0.64733136
51	0x3f05cd94	0.5226681
52	0x3f266c94	0.6500943
53	0x3e889d75	0.2668263
54	0x3ee00657	0.43754837
55	0xbece214a	-0.40259773
56	0xc01f5b9a	-2.489966
57	0xbec503c9	-0.3847945
58	0xc033b2c9	-2.8077872
59	0xc048f550	-3.1399727
60	0xbbf3178a	-0.0074185776
61	0x3f1f8b5b	0.62322015
62	0xbea7b6b5	-0.32756582
63	0xbeea6ac4	-0.4578458
64	0x3eb11c16	0.3459174
65	0x3f94a170	1.1611767
66	0xbecf64b9	-0.40506533
67	0x3e43a4b6	0.19105801
68	0x3ed58557	0.41703293
69	0xbfb4eefb	-1.4135431
70	0x40a1cdf0	5.056389
71	0xbfbdf35a	-1.483989
72	0x3fbe3fab	1.486318
73	0xbebb66b5	-0.36601797
74	0xbec9dbdb	-0.3942555
75	0xc05bc404	-3.4338388
76	0xc0143d89	-2.3162558
77	0x3ed26bf9	0.41098002
78	0xbe996a87	-0.29964086
79	0xbf051447	-0.51984066
80	0x4029c63c	2.6527243
81	0xbf1311b0	-0.57448864
82	0xc00fac82	-2.244904
83	0xbee8552a	-0.45377475
84	0x3f5cc8c8	0.8624387
85	0x40393dcd	2.894397
86	0xbf53f700	-0.8279877
87	0xbf6cb595	-0.9246457
88	0xbf792795	-0.9732602
89	0x3ee7e8a8	0.4529469
90	0xbf60bf3d	-0.87791806
91	0xbee2a6c1	-0.44267848
92	0xbfa9c6bb	-1.3263773
93	0xc056f296	-3.3585563
94	0xc0064338	-2.0978527
95	0x3f0f0691	0.55869395
96	0xbf0d02c5	-0.5508235
97	0x3fcb0e40	1.5863724
98	0xbdfc15c1	-0.12308837
99	0xbe185e44	-0.1487971
100	0xbe599161	-0.21246864
101	0xbe41d9be	-0.18930718
102	0x3eeb20ff	0.45923612
103	0x3ef96848	0.48712373
104	0x403c5a57	2.943014
105	0x3f200bc2	0.6251794
106	0xbf8a5f8d	-1.081041
107	0x401932b4	2.3937197
108	0xbe93f7b1	-0.2889991
109	0xbf096d53	-0.5368244
110	0xbe7f1d28	-0.24913466
111	0xbe4d2216	-0.20032534
112	0xbdd69f2e	-0.1047958
113	0xbeb3d2bf	-0.35121724
114	0xbe8076dc	-0.25090683
115	0xbe1ba671	-0.15200211
116	0x3e0ccb5b	0.13749449
117	0xbec55d60	-0.38547802
118	0x3d2c9cbe	0.04214167
119	0xbd079b49	-0.033107076
120	0xbddbb3ff	-0.10727691
121	0xbecd8b61	-0.401454
122	0xbea0fff2	-0.3144527
123	0x3da8240f	0.08210003
124	0xbe5349fb	-0.2063369
125	0xbeb8c516	-0.36087865
126	0xbe96dc99	-0.29465178
127	0x3c1bf8e3	0.009519788
128	0x3dcf57f4	0.101241976
129	0xbe992128	-0.2990811
130	0xbd55db3e	-0.05221104
131	0xbcc8d7dd	-0.024516994
132	0x3fe49df7	1.7860707
133	0xbfbf8da4	-1.49651
134	0x3eb466c5	0.35234657
135	0x3f06500d	0.524659
136	0xbf3ba3e4	-0.7329695
137	0xbc1b0d77	-0.0094636595
138	0x3e344c1a	0.17607155
139	0x3eb9a479	0.36258295
140	0xc084a78d	-4.145453
141	0x3e840dab	0.25791678
142	0xc03bc5e0	-2.9339523
143	0xbe801da8	-0.25022626
144	0xbfa2f99b	-1.2732424
145	0xbf8c9d39	-1.098548
146	0xbe4eecfd	-0.20207591
147	0x3da3ede9	0.08004362
148	0x3f1a9bfd	0.6039427
149	0xbe8f19fd	-0.27949515
150	0x3fb23549	1.3922511
151	0xbf2af8a1	-0.6678563
152	0x4077dc28	3.8728123
153	0x3f26851d	0.65046865
154	0xbfacf615	-1.3512598
155	0x4089fe4d	4.3122926
156	0x3f38cfb5	0.72191936
157	0x3d1e13e1	0.038593177
158	0x3e32c412	0.17457607
159	0xbe158eff	-0.1460533
160	0xbd92f23d	-0.071751095
161	0xbdda8eab	-0.10671743
162	0x3f2977f6	0.6619867
163	0x3e9eedf6	0.31040925
164	0x3f6b16c6	0.91831625
165	0xbd604621	-0.05475438
166	0xbfad0e7b	-1.3520044
167	0x406e931d	3.727729
168	0xbf5de6c8	-0.8668027
169	0x40254433	2.5822875
170	0x3f570140	0.8398628
171	0x3e43eb3b	0.19132702
172	0x3a38e71d	0.00070534815
173	0xbfe49469	-1.7857791
174	0x3e2082e7	0.15674935
175	0xbf7e8ca5	-0.99433357
176	0x3f253fc8	0.6455045
177	0xbf3629fa	-0.711578
178	0xbfcf8a1b	-1.6214021
179	0xbf3a8737	-0.7286257
180	0x3f067215	0.52517825
181	0x3f0a56ee	0.54038894
182	0xbe49e0ce	-0.19714662
183	0xbe91d668	-0.2848389
184	0x3f02a0cd	0.5102661
185	0x3e196c46	0.1498271
186	0xbea780c2	-0.32715422
187	0x3d8e3253	0.06943192
188	0x40997e4c	4.796667
189	0xbdab2943	-0.083574794
190	0xc01e1ccd	-2.4705079
191	0xbfdfb998	-1.7478514
192	0x3efe30c4	0.4964658
193	0xbee2f614	-0.44328368
194	0xbf66487e	-0.89954364
195	0x3fd6dafc	1.6785579
196	0xbc647786	-0.013944512
197	0x3f5fe1cc	0.87453914
198	0x3da9295b	0.08259841
199	0x3ecf3165	0.40467373
200	0xc00c5384	-2.1925974
201	0x3ea066e0	0.31328487
202	0xbf52745b	-0.82208794
203	0xc00791dd	-2.1182778
204	0xbfda5367	-1.7056702
205	0xbe7cba36	-0.24680409
206	0x3ee2711f	0.4422693
207	0x3fa0ec8b	1.2572187
208	0xbfd77da1	-1.6835214
209	0x3fa0b76d	1.2555977
210	0xbf271368	-0.65263987
211	0x3eac0a11	0.3360143
212	0xbf248b77	-0.64275306
213	0xbfd08655	-1.6290995
214	0x3f355bfc	0.7084348
215	0x40183ee2	2.378838
216	0x3f9dc7c0	1.2326584
217	0x3ef723a9	0.48269394
218	0x3e14414c	0.14478034
219	0xc0935e5e	-4.6052694
220	0xbf8966b9	-1.0734473
221	0xbeb2c9fa	-0.3491972
222	0xbec0ac85	-0.37631622
223	0x3eadf7ec	0.33978212
224	0xc0222001	-2.5332034
225	0x3fedcd0d	1.8578202
226	0x3f94c580	1.1622772
227	0x3e0542f3	0.1301382
228	0xbfe4200a	-1.7822278
229	0xbed7ca72	-0.4214664
230	0x3f394fe4	0.7238753
231	0xbf147e14	-0.5800488
232	0x3feab6b8	1.8337011
233	0x3f689151	0.90846735
234	0xbe1f58fc	-0.15561289
235	0xbe3ede8d	-0.18639584
236	0x3e10132e	0.14069816
237	0xbf06abab	-0.52605695
238	0xc02d24c7	-2.7053697
239	0xbf7c068c	-0.9844749
240	0x3f11fa64	0.5702269
241	0xbea83a0a	-0.3285678
242	0xbfddab82	-1.7317965
243	0xc04304d5	-3.04717
244	0xbf5cdf9c	-0.862787
245	0x3f8911c3	1.0708545
246	0xbfb7874f	-1.4338168
247	0x3fe4f937	1.7888554
248	0x3e9e94b1	0.30972818
249	0xbe931726	-0.28728598
250	0xbf8247c9	-1.0178157
251	0x3f922ada	1.1419327
252	0x3c02d532	0.0079854
253	0xbef421d1	-0.4768205
254	0xbde2e341	-0.110785015
255	0xbd8568b5	-0.06514112

0.bias f4 [24]
0	0xbfadd363	-1.3580135
1	0x3e8a2048	0.26977754
2	0xbfcddc63	-1.6082882
3	0xc054f9d3	-3.327748
4	0x406d44d7	3.7073267
5	0xc0a0f2cc	-5.0296383
6	0xc03938d1	-2.8940928
7	0xc0024a34	-2.035779
8	0xc0c09ab4	-6.0188847
9	0xbf2482ae	-0.642619
10	0xbf2bc9be	-0.6710471
11	0x4024f42f	2.5774038
12	0x3f90177c	1.1257167
13	0xc0ceb444	-6.459505
14	0x40855c50	4.1675186
15	0xc0b0e194	-5.5275364
16	0x3f647c66	0.89252317
17	0x402a7212	2.6632123
18	0xbe1917f9	-0.14950551
19	0x401f0899	2.4848998
20	0x3e3e9133	0.18610077
21	0x3f7d6bcf	0.9899263
22	0xc0214de2	-2.5203786
23	0xc0a6227c	-5.1917095

2.weight f4 [24, 24]
0	0x402260ac	2.5371504
1	0xc001a063	-2.0254142
2	0xbf63f775	-0.89049464
3	0x40308b99	2.7585204
4	0xbfae8271	-1.3633558
5	0x406a023d	3.6563866
6	0xc0bf6724	-5.9813404
7	0xc00b31a9	-2.174906
8	0x40694554	3.6448565
9	0x3d1b8a38	0.037973613
10	0xbd2ca74b	-0.04215173
11	0xc0258e3d	-2.5868065
12	0xc03140fd	-2.7695916
13	0x3fe3164d	1.7741181
14	0xc02fdc6d	-2.7478287
15	0x407d3683	3.9564521
16	0x3f71f988	0.9452138
17	0xbfe5d1da	-1.7954667
18	0xbee12448	-0.43972993
19	0xc045ec8b	-3.0925624
20	0xc0a17177	-5.0451007
21	0x3e592ef5	0.21209319
22	0x40ca8596	6.328807
23	0x40cb124e	6.3459845
24	0xbfb438cf	-1.4079837
25	0xbff6e55a	-1.9288743
26	0x3f9580a6	1.1679885
27	0x3f298025	0.6621116
28	0xc09a753c	-4.826811
29	0x3f8915b0	1.0709743
30	0x4006a2c2	2.103684
31	0x3f1c66cc	0.61094356
32	0xbdf9832c	-0.12183222
33	0x3d754532	0.059880443
34	0x3d7aef5e	0.061263435
35	0xc015ce25	-2.340707
36	0xbfa05af4	-1.2527757
37	0x3f9f61a8	1.2451677
38	0xc029c0ee	-2.6524005
39	0x3fdd46a8	1.7287188
40	0xc0619eb8	-3.5253124
41	0xc02b31ce	-2.6749148
42	0xbe96204f	-0.29321525
43	0xc057e959	-3.3736174
44	0x3fc028df	1.5012473
45	0xc0786821	-3.8813555
46	0xbfba688e	-1.4563158
47	0x3f597700	0.84947205
48	0xc0028125	-2.0391324
49	0xc0870efd	-4.2205796
50	0x3fe4a602	1.7863162
51	0x3fb70de2	1.4301112
52	0xc09eb2b5	-4.959315
53	0x3f7cc2b6	0.98734605
54	0x3f698fbc	0.91234946
55	0xbd9275d5	-0.07151381
56	0x3f30750b	0.68928593
57	0xbd2b288c	-0.041786715
58	0xbdc149b1	-0.09437884
59	0xbf5b3a21	-0.8563557
60	0xc0009050	-2.0088081
61	0x3f75a6c2	0.9595758
62	0xbfb8737e	-1.4410245
63	0x3f14e72b	0.58165234
64	0xc08e2478	-4.4419518
65	0xc0174466	-2.3635497
66	0xbeeef232	-0.46669155
67	0xc0ab4aaa	-5.3528643
68	0x3eb41def	0.35179088
69	0xc072f899	-3.7964232
70	0xbfb3be11	-1.4042379
71	0x3f922803	1.1418461
72	0x3ce669f9	0.028126704
73	0x3f077de3	0.5292646
74	0xbe98f2a1	-0.2987261
75	0x3f7fadd4	0.99874616
76	0xc03de922	-2.9673543
77	0xbf4760d4	-0.77882123
78	0x3f80424c	1.0020232
79	0x40379ec5	2.8690655
80	0xbfe2ab9f	-1.7708625
81	0x3dbff8ea	0.093736485
82	0x3da31cd0	0.0796448
83	0xc04ef267	-3.233545
84	0xbfc2e0e7	-1.5224885
85	0xbf7ac9ed	-0.97964364
86	0x3e75e119	0.24011649
87	0x3f4aead3	0.79264563
88	0xbee2b0c4	-0.44275486
89	0xbf4250c3	-0.7590448
90	0xbfb3b4b4	-1.4039521
91	0xc06c71e3	-3.694451
92	0x3f7b4cf6	0.9816431
93	0xc10c53b5	-8.770436
94	0xbfca0ee5	-1.5785795
95	0x403d68bd	2.9595177
96	0xc017531e	-2.364448
97	0x3ff28c68	1.8949099
98	0x3f81a69f	1.0128974
99	0x401b6698	2.4281368
100	0xc0f76131	-7.730614
101	0x400e8ed8	2.2274685
102	0x4005b13b	2.0889423
103	0xbe2bbcc0	-0.16771221
104	0xbf5bedda	-0.8590981
105	0x3e0b64ff	0.13612746
106	0xbe083d69	-0.13304676
107	0x3f577104	0.84156823
108	0x3f8cebf8	1.1009512
109	0x4011b3ef	2.2766073
110	0xc0c387ba	-6.110318
111	0x40365145	2.8487103
112	0xbfd11299	-1.63338
113	0x3e8f690c	0.28009832
114	0x3f6b78e4	0.9198134
115	0xbe46609c	-0.19372791
116	0x3f963626	1.1735275
117	0xc0248479	-2.5705855
118	0xc0060a29	-2.0943701
119	0x3fbb88e6	1.4651153
120	0xbe345b76	-0.17613015
121	0xbb1068af	-0.0022035053
122	0xbe9c23d5	-0.30496088
123	0xbe616f11	-0.22015025
124	0x3d249e4b	0.040190022
125	0xbe64af53	-0.22332506
126	0x3d370625	0.044683594
127	0x3c2388fb	0.009981389
128	0xbc80b351	-0.015710505
129	0x3e06de0a	0.13170639
130	0x3dd6d0ab	0.10489019
131	0xbe1720ef	-0.14758657
132	0xbe745746	-0.23861417
133	0x3da7c193	0.08191218
134	0xbe5ed7e1	-0.21762039
135	0xbe5d9748	-0.2163974
136	0xbeb7f535	-0.35929266
137	0xbec4301a	-0.3831795
138	0xbd739e67	-0.059477236
139	0xbee96e5c	-0.4559201
140	0xbe2c043f	-0.16798495
141	0xbcf854a1	-0.030313792
142	0x3db2d8f8	0.0873279
143	0xbe3cf733	-0.18453674
144	0xbe4261ea	-0.18982664
145	0xbe4925e4	-0.1964336
146	0xbdc7b5e4	-0.0975149
147	0xbe0910d3	-0.13385324
148	0xbe34b47c	-0.17646974
149	0xbe9aea3b	-0.3025683
150	0x3d111adc	0.035426006
151	0xbd3ef00d	-0.04661565
152	0xbd864a0a	-0.065570906
153	0xbbd34a00	-0.0064480305
154	0x3de198ec	0.11015496
155	0xbe09b847	-0.13449202
156	0xbe00ec96	-0.1259025
157	0xbe1d64f4	-0.15370542
158	0xbe957e9b	-0.29198155
159	0x3d3698b7	0.044579234
160	0x3cb9bdb9	0.022673475
161	0xbe6ae855	-0.2294019
162	0xbe86597e	-0.26240152
163	0x3d949d29	0.072565384
164	0xbe1bb8d1	-0.1520722
165	0xbdd741ef	-0.10510623
166	0x3d8db4c1	0.06919242
167	0xbdc8672c	-0.097853035
168	0xbe92e139	-0.28687456
169	0xbedabf2e	-0.42723984
170	0xbd45eea0	-0.048323274
171	0xbeceb4ce	-0.40372318
172	0xbdb4031f	-0.08789658
173	0xbd2908cc	-0.041268155
174	0xbe3beb06	-0.18351373
175	0xbc648030	-0.013946578
176	0xbbd751a0	-0.0065710098
177	0x3d20217c	0.039094433
178	0xbcb5b530	-0.022181123
179	0xbd14127a	-0.036150433
180	0xbeb9b7a5	-0.36272922
181	0xbd6cf358	-0.05784926
182	0xbe994e79	-0.29942682
183	0xbd2666d8	-0.040625423
184	0xbeca9079	-0.3956335
185	0xbe8a42ad	-0.27003995
186	0xbdd675d2	-0.10471691
187	0x3bbac1c0	0.0056993663
188	0x3c86feb0	0.016478866
189	0xbeac3dad	-0.33640805
190	0xbde33589	-0.110941954
191	0x3ce22460	0.027605236
192	0xbe9b1060	-0.3028593
193	0xbf986f80	-1.1909027
194	0x3fe33d3e	1.7753065
195	0x3fad394c	1.3533111
196	0xc09d4c32	-4.915551
197	0x3faa363a	1.3297799
198	0x40288fb5	2.6337712
199	0x3f8caf2c	1.0990958
200	0x3f48e011	0.784669
201	0x3db6fd00	0.08934975
202	0xbc1b8648	-0.009492464
203	0xc01bcbff	-2.434326
204	0xbf89da88	-1.0769815
205	0x3fbdf0c8	1.4839106
206	0xbfefbf7a	-1.8730309
207	0x401ea0de	2.4785686
208	0xc052d8ee	-3.2944903
209	0xbfcfe57c	-1.6241908
210	0x3ed90f3c	0.42394435
211	0xc069e8f1	-3.6548426
212	0x400b82cb	2.179858
213	0xc05825b4	-3.3773012
214	0xbfd6d219	-1.6782867
215	0x3fa9ce2a	1.3266041
216	0xbfd4a712	-1.6613486
217	0xbff0b164	-1.8804135
218	0x3fbba3a4	1.4659314
219	0x3f837f43	1.0273212
220	0xc095fb65	-4.686938
221	0x3f4bea2a	0.7965418
222	0x3fe26476	1.7686908
223	0x3ef9a0c0	0.48755455
224	0x3d97756e	0.07395445
225	0xbdd296af	-0.10282647
226	0xbc0d8558	-0.008637749
227	0xbf914861	-1.1350213
228	0xbfb69f0c	-1.4267287
229	0x3f84bfaa	1.0370991
230	0xbf8e3190	-1.1108875
231	0x3f946a44	1.159493
232	0xc0911e82	-4.534974
233	0xbfd44d55	-1.65861
234	0x3ece2ab8	0.40266967
235	0xc089ef23	-4.3104415
236	0x3fab1741	1.3366472
237	0xc03688ce	-2.8521
238	0xbf0ce93f	-0.55043405
239	0x3f45f81a	0.773317
240	0x3fa44f15	1.2836634
241	0x3f70efee	0.94116104
242	0xbf737e8b	-0.95114964
243	0x3f38682e	0.72033966
244	0x3f43c553	0.7647297
245	0x3f95b24f	1.169504
246	0xc0a12a51	-5.0364156
247	0xbf00b7b6	-0.5028032
248	0xbe93a679	-0.28837946
249	0x3d84b2cb	0.064794146
250	0x3e563be2	0.20921281
251	0x3fa0fc8f	1.2577075
252	0xbeabd4ec	-0.33560884
253	0x404a74b4	3.163373
254	0x3bf003c0	0.007324666
255	0x40961dfb	4.6911597

2.bias f4 [24]
0	0xc0329a02	-2.79065
1	0xbfcba04e	-1.5908296
2	0xbfd4d360	-1.6627007
3	0xbfb23739	-1.3923103
4	0x3f3d021e	0.73831356
5	0xbe4afcb6	-0.19822964
6	0xbe66b00c	-0.22528094
7	0xbe8a2a0a	-0.26985198
8	0xbf85898f	-1.0432605
9	0xbfbe5d34	-1.4872193
10	0x3f245a64	0.64200425
11	0xbfff7a81	-1.995926
12	0x3d91a3e3	0.07111337
13	0xbfc9a59e	-1.5753667
14	0xbd0eda78	-0.034876317
15	0x3fa3d391	1.279894
16	0x3f8d51d0	1.1040592
17	0x3fae9250	1.3638401
18	0x3f85bb7f	1.0447844
19	0xbf44ec96	-0.769235
20	0x3fb9ccef	1.4515666
21	0x3f8a8cf7	1.0824269
22	0x403e8119	2.9766295
23	0xbfdc3197	-1.7202634

4.weight f4 [4, 24]
0	0x40730579	3.797209
1	0x3fae5643	1.3620075
2	0xbfbc58f7	-1.471465
3	0x3ff8020c	1.9375625
4	0x401052e9	2.2550604
5	0x3db4b759	0.08824033
6	0xbd5ce04c	-0.053924844
7	0xbe229a66	-0.15879211
8	0x40228ee9	2.5399725
9	0x3f048607	0.5176701
10	0x3fa7d76c	1.3112617
11	0xc01495dd	-2.321647
12	0xbec0c00c	-0.3764652
13	0xbf2525d7	-0.64510864
14	0xbcdf6ea8	-0.027274445
15	0xbf80df37	-1.006812
16	0x3f7deb03	0.99186724
17	0xbf48ccc5	-0.78437454
18	0x401bc546	2.4339156
19	0xc0797026	-3.89747
20	0xbfa5fa5a	-1.2967026
21	0x3f11e2c6	0.56986654
22	0xbe8ac254	-0.27101386
23	0xbff2da9f	-1.8972968
24	0x40435775	3.052213
25	0x3fd8c05f	1.6933707
26	0x3dde593d	0.108568646
27	0x401c4690	2.4418068
28	0x402d8c9a	2.7117066
29	0x3db67997	0.0890991
30	0xbc0b9b31	-0.008520887
31	0x3d41d3c0	0.04732108
32	0x3fe5bf96	1.7949092
33	0x3f2b91d6	0.67019403
34	0x40036754	2.0531816
35	0xc081a9be	-4.0519705
36	0xc0650b0b	-3.578799
37	0x3fbdb2ed	1.4820229
38	0x3af2514b	0.0018487362
39	0x404f92e1	3.2433398
40	0x40252991	2.580662
41	0xbed2450c	-0.41068304
42	0xbe02aff1	-0.12762429
43	0xbfc8a920	-1.5676613
44	0xbe96ca2e	-0.29451126
45	0xc022c43f	-2.543228
46	0xbfe9232f	-1.8213862
47	0x403a0e85	2.9071362
48	0x405cf01b	3.4521549
49	0x3e39d511	0.18147685
50	0x400abde7	2.1678407
51	0x3f9b816f	1.2148875
52	0xbdb583cd	-0.0886303
53	0x3a64cc56	0.0008727958
54	0xbe01eec5	-0.1268874
55	0xbe1f98e7	-0.15585671
56	0x3edb61da	0.42848092
57	0x406027d2	3.5024304
58	0x3fb07c72	1.3787978
59	0xbfe9bc01	-1.8260499
60	0xbf66387b	-0.8992993
61	0x3fafa4c2	1.3722155
62	0x3d6ddfdd	0.05807482
63	0xbe897829	-0.26849487
64	0xbdb68a58	-0.08913106
65	0x3f8d9147	1.105996
66	0x3f5208e6	0.8204483
67	0xbfca9d8b	-1.5829328
68	0xbf20f202	-0.62869275
69	0x3e9ff5d8	0.3124225
70	0xbd1bf432	-0.03807468
71	0x3f4882c9	0.7832456
72	0x409c16dc	4.8777905
73	0x3f353441	0.7078286
74	0x402e84e3	2.7268608
75	0x3fe701e2	1.804745
76	0x40417aa4	3.0231104
77	0xbe541de0	-0.20714521
78	0xbe4b8b3a	-0.1987733
79	0x3e1e4501	0.1545601
80	0x3fc52636	1.5402286
81	0x3f7326b3	0.94980925
82	0x3fe0066a	1.7501957
83	0xc02dcfba	-2.7158036
84	0xbf72e0ac	-0.9487407
85	0x3fee6a3d	1.8626171
86	0xbd84cb52	-0.06484093
87	0x3dccb0c8	0.09994656
88	0xbe6ba7bb	-0.23013203
89	0x3fbbe369	1.4678775
90	0x3fd910fa	1.6958306
91	0x3ef53ca2	0.47897822
92	0xc049fdf2	-3.1561246
93	0xc0421ba9	-3.0329382
94	0x4069d670	3.6537132
95	0xc00e5bcf	-2.2243536

4.bias f4 [4]
0	0xc0a4d794	-5.1513157
1	0x400c7d34	2.1951418
2	0xc0f050a3	-7.5098433
3	0x3f6465cd	0.89217836
