logs_800/logs/target_params_A_350.pt (torch, 6263 bytes, 6 tensors)

0.weight f4 [24, 12]
0	0x4048f414	3.1398973
1	0x3fbbe50c	1.4679275
2	0xbea2e4ce	-0.3181519
3	0xbe918c4b	-0.28427348
4	0xbedca33d	-0.4309329
5	0xbeb4dab0	-0.35323095
6	0xbed3dab3	-0.41377792
7	0x3dbbab68	0.091635525
8	0x40a69f0c	5.206915
9	0xbd08145c	-0.03322254
10	0x3ea333e8	0.3187554
11	0xbf1068b3	-0.5640976
12	0xc03f0332	-2.98457
13	0x3fd55393	1.666613
14	0xbf0f6a8c	-0.5602195
15	0x3e08952b	0.13338153
16	0x4041c11c	3.0274115
17	0x3ebdda0d	0.37080422
18	0xbdc0533e	-0.09390877
19	0x3feb7c8f	1.8397387
20	0xc04d3d89	-3.2068808
21	0x3e953686	0.2914316
22	0x3fef3e05	1.8690802
23	0xc05090db	-3.2588413
24	0x3f64dfeb	0.8940417
25	0xbdebe3d5	-0.11518065
26	0x3ef6dbb3	0.48214492
27	0xbf00413b	-0.50099534
28	0xbf47c3a6	-0.7803291
29	0x3f40f0ac	0.75367236
30	0xbfe20917	-1.7659024
31	0x3f9f2c74	1.2435441
32	0xc06e87ed	-3.7270463
33	0x3f75bcd2	0.9599124
34	0x40c137f9	6.0380826
35	0x40dd2831	6.911156
36	0xbfcd17d2	-1.6022894
37	0x40163847	2.347185
38	0x3cca53ee	0.024698224
39	0x3f365ad1	0.71232325
40	0xbfd0c152	-1.6308997
41	0xc06fc213	-3.7462204
42	0x3e2c8d3b	0.1685075
43	0x401e63ed	2.474849
44	0xbfc1f790	-1.5153675
45	0xbf8df156	-1.1089275
46	0xc084cbe2	-4.149888
47	0xc0b45bdc	-5.6362133
48	0x3fe12802	1.7590334
49	0xbfaab97d	-1.3337857
50	0x3e8f113b	0.27942833
51	0x3f44b9c5	0.7684596
52	0x3ddd65b6	0.108104154
53	0x3f1ff9ee	0.6249074
54	0xbfc0d237	-1.5064152
55	0x3fe23e17	1.7675198
56	0xc0cab06b	-6.3340354
57	0x3f843a97	1.033038
58	0xbdff9159	-0.12478895
59	0xc02ea2b5	-2.7286808
60	0xbf8b0812	-1.0861838
61	0xbf60a987	-0.8775868
62	0x3eba15b1	0.36344674
63	0x3e6397e1	0.22225906
64	0x3f886d8e	1.0658433
65	0xbe8f0fbe	-0.27941698
66	0xc01a044e	-2.4065127
67	0xc06e82c6	-3.7267318
68	0x4094bfee	4.648429
69	0xc088c357	-4.273845
70	0x401982ae	2.398601
71	0xc11895d9	-9.536584
72	0xc003ec78	-2.061308
73	0xbd528a6c	-0.05140154
74	0x3f80bfab	1.0058492
75	0xbfc72683	-1.5558628
76	0xc00f0b4f	-2.2350652
77	0xc02e81a1	-2.726662
78	0xbf7b09f4	-0.9806206
79	0x405e244f	3.470966
80	0xbd9563fb	-0.072944604
81	0x3f2938b0	0.66102123
82	0xc0927790	-4.577095
83	0xc10c14d7	-8.755088
84	0x40039dda	2.0565095
85	0x404fe8f3	3.248593
86	0xbf8664ff	-1.0499572
87	0xbec34d61	-0.38144973
88	0xc00e93aa	-2.2277627
89	0xc0309634	-2.7591677
90	0xc022b4e6	-2.5422912
91	0xbefeeebc	-0.49791515
92	0x3c3785f2	0.011201369
93	0xc0058d77	-2.0867593
94	0xbeb5b7a9	-0.35491684
95	0xc034e5f7	-2.826536
96	0x3fcd685c	1.6047473
97	0xc0a563e8	-5.1684456
98	0xbe292fcd	-0.16522141
99	0x3d98fee2	0.0747049
100	0xbded72e4	-0.11594179
101	0x40465ca2	3.0994039
102	0xbec765e3	-0.3894492
103	0x3f9f2799	1.2433959
104	0x3f7b9ad3	0.9828312
105	0x401da41b	2.4631412
106	0xbe3b56a2	-0.18294767
107	0x3fd33ca8	1.6502886
108	0x405f77ba	3.4916825
109	0x3e39be3a	0.18138972
110	0xbf2dfe60	-0.6796627
111	0x3c28008e	0.0102540385
112	0x3fa893c8	1.3170099
113	0xc03f951b	-2.9934757
114	0xbd8bfb16	-0.06835
115	0xbf7f73c8	-0.99786043
116	0xbfc3183b	-1.524177
117	0xc019a12a	-2.4004617
118	0x3e754f81	0.2395611
119	0x4008511f	2.1299512
120	0x3fd8cc06	1.6937263
121	0x3d9c1014	0.07620254
122	0x3ee350f5	0.44397703
123	0xbfc0b883	-1.5056309
124	0x3f3b67d3	0.732053
125	0x400cdc49	2.2009451
126	0xc0afd8ef	-5.495231
127	0xc043ec15	-3.0612843
128	0x40345931	2.8179438
129	0x3ff8d061	1.9438592
130	0x401f3073	2.487332
131	0xc19b7826	-19.433666
132	0xbfd05452	-1.6275733
133	0xbfd7fc46	-1.6873863
134	0x3fc4417a	1.5332482
135	0xbd8dafdb	-0.069183074
136	0xbf8512de	-1.0396383
137	0xbef8dd45	-0.48606315
138	0xbec76d00	-0.38950348
139	0xbec18e19	-0.37803724
140	0x401b904e	2.4306827
141	0xc0aedc98	-5.464428
142	0xc13acfe4	-11.675755
143	0xbfb25a9f	-1.3933905
144	0x3f10f61a	0.5662552
145	0x405f8b4a	3.4928765
146	0xbe4e6b6f	-0.2015817
147	0xbe307fcd	-0.17236252
148	0x3e06ded7	0.13170944
149	0x3e1f4181	0.15552332
150	0xc0046ab5	-2.0690129
151	0xc06f0257	-3.7345178
152	0x3f9b62fc	1.2139583
153	0x3eba5262	0.36390978
154	0x40098dd2	2.149281
155	0x3fbce105	1.475617
156	0x3de9b178	0.114108026
157	0xbed0206e	-0.40649742
158	0xbf868ed9	-1.0512344
159	0xbf3bf22a	-0.7341639
160	0x3f897397	1.07384
161	0x40062063	2.0957267
162	0x3f36bb1d	0.7137926
163	0xbe973bf7	-0.29537937
164	0xbf794adb	-0.97379845
165	0xc09a8784	-4.8290424
166	0xc05592da	-3.337088
167	0xc0c4ad1b	-6.146131
168	0xc00a4d9f	-2.1609876
169	0x3db12bdd	0.086509444
170	0x3d882e69	0.06649477
171	0x3e21183d	0.15731902
172	0x3d909dee	0.07061373
173	0xbdc314f7	-0.09525483
174	0x3e3c9227	0.18415128
175	0xbd84f3fa	-0.06491847
176	0xc0ee3fbd	-7.4452806
177	0x3ed72cf0	0.42026472
178	0xbf139714	-0.576524
179	0xbeb2b0be	-0.3490047
180	0x40059884	2.0874338
181	0x3fe77461	1.8082391
182	0xbeb362e1	-0.35036376
183	0xbf5d808e	-0.86524284
184	0x3f7a701b	0.9782731
185	0x3f5a6016	0.85302866
186	0xbec44970	-0.38337278
187	0x3f0faf39	0.56126744
188	0x40e4495b	7.1339545
189	0x3e9f11b1	0.31068185
190	0x3bdac820	0.006676689
191	0xbf9ac389	-1.2090923
192	0x3e9265d9	0.2859333
193	0x3e73cb22	0.23807958
194	0xbd24e7e9	-0.04026023
195	0x3f3fa235	0.74856883
196	0x3fa104a7	1.2579545
197	0x3ebf5c70	0.37375212
198	0x3f0d5b80	0.5521774
199	0x3f022870	0.5084295
200	0x41098d47	8.596992
201	0x3e8a2ece	0.26988834
202	0x3f9013de	1.1256063
203	0x3fa0ad04	1.25528
204	0xbf79e089	-0.9760824
205	0x406f5b6d	3.7399552
206	0x3ed8e922	0.42365366
207	0xc004d987	-2.0757768
208	0xc04b7661	-3.1791003
209	0x3f9185b5	1.1368929
210	0xbe75b6cd	-0.23995514
211	0x3fcf88ef	1.6213664
212	0xbfe704fb	-1.8048395
213	0x3f7cb6c8	0.987164
214	0x40ca4078	6.3203697
215	0x40b2d754	5.588785
216	0x3f4eaf98	0.80736685
217	0x40300d63	2.750817
218	0x3f449ae8	0.7679887
219	0x3f85a867	1.0442017
220	0xbe824db6	-0.25449914
221	0x3d428ec2	0.047499426
222	0xc07eda4a	-3.9820733
223	0x3e1fe93a	0.15616313
224	0x3fb125a3	1.3839611
225	0x3fc85242	1.5650103
226	0xbf4869fa	-0.7828671
227	0xc099d554	-4.807291
228	0xbf368108	-0.71290636
229	0x4066d540	3.6067657
230	0x3f744fe7	0.9543442
231	0x3ee8f7e6	0.45501631
232	0xbfe0387c	-1.7517238
233	0x3fbbcad2	1.4671271
234	0x3fb2414d	1.3926178
235	0xc01223b1	-2.2834284
236	0xc0685a82	-3.6305242
237	0x40202d34	2.502759
238	0x3f168f65	0.5881255
239	0x40fe6e1d	7.9509416
240	0xbe865abf	-0.2624111
241	0xc07ca08a	-3.9472985
242	0x3ebe90bd	0.37219802
243	0x3f1dfca1	0.61713606
244	0x3f315a39	0.69278294
245	0xbf2eafd7	-0.6823706
246	0xc0819907	-4.04993
247	0x3fb50d87	1.4144753
248	0xbf872565	-1.0558287
249	0x406feaf0	3.7487144
250	0xbedf65f2	-0.43632466
251	0xc11d1a2a	-9.818888
252	0xbf2d290a	-0.67640746
253	0xbfbd0e60	-1.4770012
254	0x3d722a4f	0.05912238
255	0x3d282c47	0.04105785

0.bias f4 [24]
0	0xbfc370e5	-1.5268828
1	0x3f13c2f3	0.57719344
2	0x3f5b00ab	0.85547894
3	0x3fc43c3b	1.5330881
4	0x40389483	2.8840644
5	0xbf460f9d	-0.77367574
6	0x3f326dc8	0.6969876
7	0x401dc026	2.4648528
8	0xbe98cf1b	-0.2984551
9	0x3ffba729	1.9660388
10	0x4089b6df	4.303573
11	0x409dd245	4.9319177
12	0x3fd183da	1.6368363
13	0x4066a872	3.604031
14	0x40ea5dce	7.323951
15	0xbff52b13	-1.915377
16	0xbfddf7ea	-1.7341282
17	0x4029fb49	2.6559622
18	0xbfb68dcd	-1.4262024
19	0x40439176	3.0557532
20	0x3fa3b86a	1.2790654
21	0x40ff1461	7.9712377
22	0x3e963aac	0.29341638
23	0x3f60a01d	0.87744313

2.weight f4 [24, 24]
0	0xbddd8113	-0.108156346
1	0xc14be8d2	-12.744341
2	0xc14978a9	-12.591958
3	0xc0dca9be	-6.8957205
4	0xc0171f5b	-2.3612888
5	0x408da47c	4.4263287
6	0xc08ffc9b	-4.4995856
7	0xc005524a	-2.0831475
8	0xbed7dc6c	-0.42160356
9	0xbfaeb7d0	-1.3649845
10	0x3e75252b	0.2393996
11	0x40c57d30	6.1715317
12	0x4022d54c	2.5442686
13	0xbf485848	-0.78259706
14	0x3d7dbd5a	0.061948158
15	0xbf96bd4d	-1.177652
16	0x3dd2e852	0.10298218
17	0xc0e642cb	-7.1956534
18	0x3f4022a4	0.7505286
19	0xc0822bb8	-4.0678368
20	0xc1116f56	-9.089682
21	0xc0922884	-4.5674458
22	0x4088f82e	4.2802954
23	0xbf1d63a1	-0.61480147
24	0xbdc78a44	-0.09743169
25	0xc09c9b9b	-4.893995
26	0xc117facf	-9.498733
27	0xbfd1357c	-1.6344447
28	0xc01e78d4	-2.4761248
29	0xbeb051a5	-0.3443729
30	0xc0b31fcc	-5.5976315
31	0x3f2f913e	0.68580997
32	0x3f322b94	0.69597745
33	0xc0c0413e	-6.007964
34	0xc01ffb35	-2.4997075
35	0xc08b53f6	-4.353999
36	0x4068285c	3.6274633
37	0xc1059d62	-8.350924
38	0x3f9da363	1.2315487
39	0xbe5aa439	-0.21351708
40	0x3f4e8fc3	0.8068811
41	0xc088ce4d	-4.275183
42	0x40839981	4.1124883
43	0xc12aef29	-10.683389
44	0xc120c19a	-10.047266
45	0xc0858c39	-4.173367
46	0x40270cb2	2.6101499
47	0x408bafa0	4.3651886
48	0x404d3890	3.2065773
49	0xc075dda1	-3.8416522
50	0x3f7f7b62	0.9979764
51	0x3eb1a0b5	0.34692922
52	0xc0ce745f	-6.4517055
53	0xbe8f2c18	-0.27963328
54	0x3e99df12	0.30053002
55	0xc0f5dea6	-7.683429
56	0xc00fda99	-2.2477171
57	0xc05b629a	-3.4278932
58	0x40ad8575	5.422541
59	0x40ab7738	5.358303
60	0xbf70ed0e	-0.94111717
61	0xc0afaf70	-5.4901657
62	0x4095c059	4.67973
63	0xbf0a407a	-0.54004633
64	0xbfe3ba37	-1.7791203
65	0xbfe481f4	-1.7852159
66	0x3ff52977	1.9153279
67	0xbef998cc	-0.48749387
68	0xbfee44e9	-1.861478
69	0xc069d136	-3.6533942
70	0x4001bd60	2.0271835
71	0xbfe021d0	-1.7510319
72	0xc024a8f7	-2.5728128
73	0xc04ac1bd	-3.1680748
74	0xc0ba7666	-5.826953
75	0xc0f43c3d	-7.6323533
76	0xc0cb0dd6	-6.345439
77	0x4082ad06	4.083621
78	0xc0d07872	-6.514703
79	0xc046ab67	-3.1042116
80	0xbff969ec	-1.948545
81	0xc12a89ee	-10.658674
82	0x40021a82	2.032868
83	0x40a677fb	5.202146
84	0xbf120dfa	-0.57052577
85	0xbf42fa4f	-0.7616319
86	0xbff55a0c	-1.9168105
87	0x3e52f80f	0.2060244
88	0xbf0e5584	-0.55599236
89	0xc0998a4c	-4.798132
90	0x3c6f8970	0.01462017
91	0xc0b26b28	-5.5755806
92	0xc0ff2e48	-7.9743996
93	0xc029fdf6	-2.6561255
94	0x3fd07204	1.6284795
95	0xbf0dbaa4	-0.55362916
96	0x4019926b	2.3995616
97	0xbf7962ad	-0.9741619
98	0xbed6f92d	-0.4198698
99	0x3ec168f2	0.3777538
100	0xc004b313	-2.0734298
101	0x3e200ff1	0.15631081
102	0x3efd7987	0.4950678
103	0x3fc5b9ab	1.5447286
104	0xbf412825	-0.7545188
105	0x3ffffcb8	1.9998999
106	0x4036a1b5	2.8536198
107	0x407e145f	3.9699934
108	0xbf389990	-0.7210932
109	0x3f741e90	0.95359135
110	0x3e98a5e1	0.29814056
111	0x406ef497	3.7336786
112	0x40724f58	3.7860928
113	0x3fa1459e	1.259937
114	0x40129c22	2.2907796
115	0xbe4373ef	-0.19087194
116	0xbe99db47	-0.30050108
117	0x40d19fe7	6.5507693
118	0x40ab3cdd	5.3511796
119	0xbf8a7b4d	-1.0818878
120	0xbea09470	-0.3136325
121	0xbc20f1dc	-0.009823289
122	0xbf11c998	-0.5694823
123	0xbe9bf5f3	-0.30461082
124	0xbe626b43	-0.2211123
125	0xbce7f659	-0.02831571
126	0xbe927c04	-0.2861024
127	0xbec750cd	-0.38928834
128	0xbeb5bfc5	-0.3549787
129	0x3e25c461	0.16188194
130	0x3d1cde89	0.038298164
131	0x3e2bee03	0.16790013
132	0xbe8aeb15	-0.27132478
133	0xbd583be6	-0.0527915
134	0xbe95f3fa	-0.29287702
135	0xbeda3117	-0.42615578
136	0xbe3ca4e2	-0.18422273
137	0xbf133874	-0.57508016
138	0xbe17d0e0	-0.14825773
139	0xbec9f60f	-0.3944554
140	0xbe8c781b	-0.27435383
141	0xbf0c2ed4	-0.54758954
142	0x3f007a00	0.5018616
143	0xbe3d364a	-0.18477741
144	0x3d87b38c	0.06626043
145	0x3f902543	1.1261371
146	0xbd06bafb	-0.032893162
147	0x3fbdf396	1.4839962
148	0x3f91a232	1.1377623
149	0xbf82a97b	-1.0207971
150	0x40881406	4.2524443
151	0x3f7e21c6	0.99270284
152	0xbffb2f58	-1.9623823
153	0x3e48fa66	0.1962677
154	0x3fd54e33	1.666449
155	0xbe809097	-0.25110313
156	0xbf2a80ed	-0.66602975
157	0x3f995e84	1.1981969
158	0x40a72519	5.2232785
159	0x3fa3f219	1.2808257
160	0xbef5ecea	-0.48032314
161	0x3dca066c	0.09864506
162	0xbe118732	-0.14211729
163	0x3f845836	1.033942
164	0xbe7d9106	-0.24762353
165	0xc0f6be10	-7.710701
166	0xbfc62502	-1.5480044
167	0xc02e3275	-2.7218297
168	0x40478614	3.1175585
169	0xc09c2002	-4.878907
170	0xc090cc82	-4.5249643
171	0x3bdb7327	0.006697077
172	0x4024e68f	2.5765722
173	0xc09c6d29	-4.888325
174	0xc00b4544	-2.1761026
175	0xc01db682	-2.4642644
176	0x3d7df27a	0.06199882
177	0xbfb289e4	-1.3948331
178	0x400e2ae9	2.221369
179	0xbf30fdec	-0.69137454
180	0x401273b4	2.288312
181	0xbec05884	-0.37567532
182	0x3f6612cf	0.8987245
183	0x3f890fda	1.0707963
184	0xbf7c266c	-0.9849613
185	0xbf8601d4	-1.0469308
186	0x3c76a3c9	0.015053698
187	0xc08c1114	-4.3770847
188	0xc00c5f42	-2.193314
189	0xc099016a	-4.7814226
190	0xbe14edf1	-0.14543892
191	0x3e6c9468	0.23103487
192	0x4047f429	3.1242774
193	0xc0841042	-4.1269846
194	0xc11c35bd	-9.76312
195	0xc015a4d2	-2.3381848
196	0xc05f6ce2	-3.4910207
197	0x409772c8	4.7327614
198	0x3e3c731c	0.18403286
199	0x3e43bf4b	0.19115941
200	0x3d8064ae	0.06269203
201	0xbf26d3f2	-0.6516715
202	0x401df7b8	2.4682446
203	0x4015c223	2.3399742
204	0xc1556452	-13.336992
205	0xbf8f2414	-1.1182885
206	0xc0b9d9c7	-5.807834
207	0x3e82d252	0.25551087
208	0xbe8be4d1	-0.2732301
209	0xbf6c4c2b	-0.92303723
210	0x3fb58313	1.4180626
211	0x3dc8d25f	0.0980575
212	0xc0c5c476	-6.180232
213	0xc012cd2d	-2.293773
214	0xc00305a7	-2.04722
215	0x3fc57061	1.542492
216	0x3f5cb108	0.8620763
217	0xc00cb10b	-2.1983058
218	0xbfa45585	-1.2838598
219	0xc08435fc	-4.13159
220	0xc08423aa	-4.1293535
221	0x408f6bb9	4.4818997
222	0x40c3adfc	6.1149883
223	0xc1134d84	-9.206425
224	0xc01dd7a8	-2.4662876
225	0xc0608689	-3.5082114
226	0xbfd0d07c	-1.6313624
227	0x3fb849c6	1.4397514
228	0xc0a5807f	-5.1719356
229	0x3e22d881	0.15902902
230	0x409c49ec	4.8840237
231	0x401c5007	2.4423845
232	0x403e46b1	2.9730647
233	0xbfa766ba	-1.3078225
234	0x4010e3e7	2.26391
235	0xbfd905f5	-1.6954943
236	0xc0ce9d3f	-6.456695
237	0xc12df25c	-10.87167
238	0xc01bfc9b	-2.4372928
239	0x406f6b52	3.7409253
240	0x3f57d3f7	0.8430781
241	0x3e88767e	0.26652902
242	0x3fd8079c	1.6877322
243	0x3fd2965d	1.6452137
244	0x3fd42c8a	1.6576092
245	0xc043f643	-3.0619056
246	0x3ef4c20c	0.47804296
247	0xbff0ead2	-1.8821661
248	0xbf4dec65	-0.80438834
249	0x4031ceff	2.778259
250	0x40480a09	3.1256125
251	0xbf2cdc80	-0.67523956
252	0xbe8428e2	-0.2581244
253	0x402b5507	2.6770647
254	0xc141deed	-12.116925
255	0xbf477d16	-0.7792524

2.bias f4 [24]
0	0x3f7c2342	0.984913
1	0x3df71f55	0.12066523
2	0x3f8fbd82	1.1229708
3	0xbd06adfc	-0.03288077
4	0x40a38d41	5.110993
5	0xbed07660	-0.40715313
6	0xbfd2f879	-1.6482078
7	0xc06a90cd	-3.665088
8	0xbfcedcb8	-1.6161108
9	0xbded8bd1	-0.115989335
10	0x3d0da919	0.034585092
11	0x406791ff	3.618286
12	0x400fe7e4	2.2485285
13	0xc03038aa	-2.7534585
14	0xbea79632	-0.32731777
15	0x3fd0cf9a	1.6313355
16	0x40006ef8	2.006773
17	0x4003e111	2.060612
18	0x3e4b0eb8	0.19829834
19	0xbf5fc1bb	-0.87404984
20	0xbf13795c	-0.57607055
21	0xbe535627	-0.20638333
22	0x3f884988	1.064744
23	0x402e4473	2.7229278

4.weight f4 [4, 24]
0	0x408f0b0e	4.4700994
1	0x3fd14c9f	1.6351508
2	0x4141be8d	12.109021
3	0xc12ba169	-10.726907
4	0x400d03e5	2.2033627
5	0xbe898093	-0.26855907
6	0xc07c3931	-3.9409907
7	0xbeec32d3	-0.46132526
8	0xc07d3d24	-3.9568567
9	0x400a932a	2.1652322
10	0xbf8cc777	-1.0998372
11	0x3f8101b7	1.0078648
12	0x40a18b96	5.0482893
13	0x40a42450	5.1294327
14	0x40e53fa8	7.1640205
15	0x4095e88c	4.684637
16	0xbee1ab3e	-0.4407596
17	0x40f867fa	7.7626925
18	0xc0253770	-2.5815086
19	0xbff5edec	-1.9213233
20	0xc03a2192	-2.908299
21	0x3d1e7713	0.038687777
22	0xc1062047	-8.38288
23	0x4046dfc7	3.1074083
24	0x41181825	9.505895
25	0x407febe8	3.9987736
26	0x40a59e6b	5.175588
27	0x409bafa3	4.86519
28	0x404f9d4f	3.2439764
29	0xbf3a4c51	-0.727727
30	0x3eb1014b	0.345713
31	0x3fc3541b	1.5260042
32	0xbffe7498	-1.9879332
33	0x408df4b1	4.4361196
34	0xc08ef55e	-4.467452
35	0x3f65ec1e	0.8981341
36	0x40b58139	5.6720243
37	0xc024caf4	-2.5748873
38	0x408ec6e9	4.461781
39	0x40610574	3.5159578
40	0xc0685bcf	-3.6306036
41	0x412458cd	10.27168
42	0x404cb3ee	3.198482
43	0xc0b93e94	-5.788889
44	0x3f52aa77	0.8229136
45	0x3d3cbdd4	0.04607947
46	0x411704b8	9.438652
47	0xbf542cdc	-0.8288095
48	0x3f8f3dfb	1.119079
49	0x3d31d76b	0.04341833
50	0x3f4e348b	0.80548924
51	0xc029ae84	-2.6512766
52	0x400682d6	2.1017356
53	0x3e85a4ea	0.26102382
54	0xc05ab5df	-3.4173505
55	0x40241612	2.563847
56	0x408efad1	4.468117
57	0x3fbe85cf	1.4884585
58	0xbfc854f5	-1.5650927
59	0xbf5cf7aa	-0.86315405
60	0x40738c76	3.805448
61	0x412d127b	10.817012
62	0xbfb42333	-1.4073242
63	0x4011cd35	2.2781498
64	0x3fc8e18b	1.569383
65	0x40c5a086	6.175845
66	0xc07f4df0	-3.989132
67	0xbff44937	-1.9084843
68	0x40c7966f	6.2371135
69	0x3dc2011a	0.09472866
70	0xbf995423	-1.1978801
71	0x4030cce7	2.7625062
72	0x40e198b3	7.04989
73	0x412bc1df	10.734832
74	0xc045d605	-3.0911877
75	0x412d0ffc	10.816402
76	0x4051f821	3.2807696
77	0xbde7fbc0	-0.113273144
78	0xbf1cf815	-0.61316043
79	0xc0b0f3e7	-5.529773
80	0x40d0944d	6.518103
81	0x407ee097	3.9824579
82	0xc02e5efc	-2.7245474
83	0xc053b28a	-3.3077722
84	0x4086b6de	4.2098227
85	0xc09a5d54	-4.8238926
86	0x4128ab37	10.5418005
87	0x408f5c91	4.4800496
88	0xbe523f45	-0.20531948
89	0x410a374c	8.6385
90	0x40774469	3.8635504
91	0xbfd742a7	-1.6817216
92	0x3f52b287	0.8230366
93	0xbda3e0e3	-0.08001878
94	0x40d832a0	6.75618
95	0x3f6f99b2	0.93593895

4.bias f4 [4]
0	0x4063512a	3.5518289
1	0x40876658	4.231243
2	0x4023fee8	2.5624332
3	0x3f3fd025	0.7492698
