logs_800/logs/target_params_B_725.pt (torch, 6263 bytes, 6 tensors)

0.weight f4 [24, 12]
1.0089967 0.56737185 0.30983487 0.53280264 1.7900395 0.5659505 0.49337745 -0.9058047
-1.9407566 0.09906822 6.0037236 2.6012604 0.3669802 1.9187515 0.22006837 -1.1016781
1.0343342 0.85754275 -0.19193602 -0.6711221 -1.9813061 -6.6563888 -2.5963418 -0.2841483
-0.8261069 0.9703106 -2.3756437 -0.33595073 -0.91376454 0.34769753 -0.08545113 0.79099953
2.1699061 -0.33281985 -1.695988 4.726435 1.1196059 0.48839036 -0.44678035 -0.17003354
-0.123722725 -0.7133699 0.38063997 0.75319093 6.1874313 0.8653946 -4.9791546 2.859444
-0.33238232 0.43789086 0.39124477 -0.8082505 0.3763296 -0.29209286 0.6371489 0.48484552
-7.4004316 -3.8631427 -5.143833 -5.5209107 -0.23341289 0.5430286 -0.91451925 -0.28031012
0.12759365 1.475318 0.68183357 0.8918751 -4.820739 -1.0478994 5.2305336 0.38040954
1.0749848 -0.29581335 -0.8381644 -2.8540428 -2.2096097 -0.033417977 -0.52799994 -1.3182327
1.7083349 -1.1358231 -3.0257246 -1.1208332 0.74429244 2.542501 -1.1689928 -0.6697897
-0.44785938 1.2380729 -0.95709527 -1.6688526 -6.144141 -2.4182684 -1.4376272 -7.1899505
-1.1652923 1.4288231 0.07998906 -0.058175847 0.8307501 -0.54880804 0.60702544 0.36944023
3.92568 0.52829003 0.46555904 2.0398257 -0.2889991 -0.5368244 -0.24913466 -0.20032534
-0.1047958 -0.35121724 -0.25090683 -0.15200211 0.13749449 -0.38547802 0.04214167 -0.033107076
-0.10727691 -0.401454 -0.3144527 0.08210003 -0.2063369 -0.36087865 -0.29465178 0.009519788
0.101241976 -0.2990811 -0.05221104 -0.024516994 2.3194835 -1.7320675 -0.21952598 -0.10992713
-0.2619931 -0.42773196 0.07007947 0.22685464 -3.6067166 -0.21290725 -1.1181718 -0.6626297
-1.4486545 -0.33078787 0.19165261 0.08463076 0.86752623 0.1817888 0.12038598 -0.4957754
6.073452 0.29884595 -0.119746275 4.859231 0.81300604 -0.06466882 0.019336773 -0.07695671
-0.056647364 -0.54276997 0.6533599 0.66845286 0.86590725 -0.3811596 -0.8630359 4.416949
-0.21717694 2.8490453 0.0715959 -0.04160777 -0.45200384 -1.8544008 0.1560099 -0.6410899
1.5112786 0.5079577 -2.4889874 0.5102753 0.26686522 0.48292375 0.13063973 -0.17614889
-0.17631166 1.0230969 -0.5026475 0.27285445 6.407987 -1.1562234 -0.42679778 -0.5838206
-0.27609766 -0.6924297 -0.08176887 0.5262603 -0.22564155 0.876839 0.96982956 1.8204652
-7.7057257 2.210634 -2.76971 -4.9476075 -1.9507117 -0.7063094 0.2590046 1.6676736
-1.7284144 1.444591 0.99473494 0.81959224 -4.455239 -5.6991453 -0.6266735 -0.17493954
0.25827834 0.6121112 -0.7777087 -1.3144567 -0.38238925 0.56511354 -0.037102625 0.7807324
-9.957496 3.6927867 4.80078 1.0705456 -2.620748 -0.944691 0.67310995 0.3635201
1.9502077 0.9469956 0.1034305 -0.002468591 -5.3425446 -0.329 -2.235511 -3.4423149
-0.6125167 -0.32425085 -1.4339677 -3.565065 -1.2630756 -0.05315332 1.4811287 2.3214567
-4.8800244 -1.9803619 -1.8253407 2.1433609 -0.9911161 -1.0973675 0.19718501 0.5067886
00000000: ce26 813f 483f 113f ada2 9e3e c165 083f
00000010: 0420 e53f 22e2 103f f89b fc3e d1e2 67bf
00000020: b66a f8bf 47e4 ca3d 811e c040 0d7b 2640
00000030: d4e4 bb3e a699 f53f 9a59 613e ca03 8dbf
00000040: 1065 843f ec87 5b3f e08a 44be a8ce 2bbf
00000050: 709b fdbf 2301 d5c0 772a 26c0 e37b 91be
00000060: be7b 53bf 4766 783f 8c0a 18c0 bc01 acbe
00000070: 79ec 69bf 6905 b23e 0101 afbd f27e 4a3f
00000080: bedf 0a40 5d67 aabe 2316 d9bf f53e 9740
00000090: 3f4f 8f3f 4d0e fa3e 65c0 e4be 461d 2ebe
000000a0: 5762 fdbd 699f 36bf 3ee3 c23e 1fd1 403f
000000b0: 70ff c540 808a 5d3f 3c55 9fc0 2101 3740
000000c0: 042e aabe 3b33 e03e 3c51 c83e 81e9 4ebf
000000d0: 46ae c03e 328d 95be 311c 233f ac3d f83e
000000e0: 56d0 ecc0 bb3d 77c0 489a a4c0 4dab b0c0
000000f0: ca03 6fbe ec03 0b3f ef1d 6abf cf84 8fbe
00000100: e9a7 023e 38d7 bc3f a58c 2e3f ed51 643f
00000110: 7e43 9ac0 9121 86bf 8860 a740 0ac5 c23e
00000120: 1a99 893f d974 97be f191 56bf a3a8 36c0
00000130: 3f6a 0dc0 4ae1 08bd 012b 07bf d9bb a8bf
00000140: b8aa da3f a762 91bf 79a5 41c0 7677 8fbf
00000150: f389 3e3f 56b8 2240 8ea1 95bf 5677 2bbf
00000160: d34d e5be 2c79 9e3f 3204 75bf f69c d5bf
00000170: ce9c c4c0 e9c4 1ac0 2b04 b8bf 1314 e6c0
00000180: 4c28 95bf ade3 b63f 4ed1 a33d cc49 6ebd
00000190: 0aac 543f af7e 0cbf 0566 1b3f 4527 bd3e
000001a0: 573e 7b40 043e 073f c15d ee3e 818c 0240
000001b0: b1f7 93be 536d 09bf 281d 7fbe 1622 4dbe
000001c0: 2e9f d6bd bfd2 b3be dc76 80be 71a6 1bbe
000001d0: 5bcb 0c3e 605d c5be be9c 2c3d 499b 07bd
000001e0: ffb3 dbbd 618b cdbe f2ff a0be 0f24 a83d
000001f0: fb49 53be 16c5 b8be 99dc 96be e3f8 1b3c
00000200: f457 cf3d 2821 99be 3edb 55bd ddd7 c8bc
00000210: 6b72 1440 63b4 ddbf 6bcb 60be 7a21 e1bd
00000220: f623 86be afff dabe d385 8f3d 954c 683e
00000230: 72d4 66c0 5c04 5abe 4120 8fbf 1aa2 29bf
00000240: 836d b9bf 075d a9be 9540 443e e452 ad3d
00000250: 3316 5e3f d826 3a3e ed8c f63d 46d6 fdbe
00000260: b859 c240 5602 993e 893d f5bd d27e 9b40
00000270: 2a21 503f 1671 84bd 2768 9e3c 7b9b 9dbd
00000280: 1107 68bd f9f2 0abf 9842 273f ba1f 2b3f
00000290: 19ac 5d3f 5a27 c3be ecef 5cbf a557 8d40
000002a0: a263 5ebe c256 3640 dfa0 923d e96c 2abd
000002b0: 0c6d e7be 015d edbf 0fc1 1f3e 781e 24bf
000002c0: 9471 c13f 8409 023f 924b 1fc0 67a1 023f
000002d0: 8fa2 883e c841 f73e 6cc6 053e 6060 34be
000002e0: 0b8b 34be d7f4 823f 82ad 00bf 94b3 8b3e
000002f0: 3b0e cd40 21ff 93bf 3d85 dabe 4475 15bf
00000300: ac5c 8dbe 1343 31bf 7076 a7bd ffb8 063f
00000310: 940e 67be 8578 603f c046 783f 0105 e93f
00000320: 4e95 f6c0 077b 0d40 ee42 31c0 cd52 9ec0
00000330: ecb0 f9bf b1d0 34bf 409c 843e 5476 d53f
00000340: af3c ddbf 5ce8 b83f f3a6 7e3f ccd0 513f
00000350: 5191 8ec0 665f b6c0 ad6d 20bf 5a23 33be
00000360: 0f3d 843e 52b3 1c3f eb17 47bf 1e40 a8bf
00000370: 86c8 c3be 48ab 103f ecf8 17bd 14de 473f
00000380: e751 1fc1 9e56 6c40 fd9f 9940 a307 893f
00000390: 56ba 27c0 45d7 71bf ef50 2c3f 4e1f ba3e
000003a0: 68a0 f93f 4e6e 723f 5fd3 d33d 16c8 21bb
000003b0: 20f6 aac0 b072 a8be 9d12 0fc0 e34e 5cc0
000003c0: e5cd 1cbf 3504 a6be 418c b7bf 062a 64c0
000003d0: 76ac a1bf 4cb7 59bd a095 bd3f bf92 1440
000003e0: 2929 9cc0 807c fdbf c4a4 e9bf d32c 0940
000003f0: c9b9 7dbf 8a76 8cbf deea 493e e6bc 013f

0.bias f4 [24]
-1.26471 -2.0461123 -3.6660962 -3.9338598 3.8357284 -6.7608624 -3.2881217 -2.3389368
-6.3186803 -0.642619 -0.6710471 3.0066102 1.8915266 -7.1219964 5.4625354 -6.184433
-2.669508 3.2957287 -0.6652931 2.9905875 0.39648885 -0.12760763 -3.643622 -5.827967
00000000: 04e2 a1bf 81f3 02c0 52a1 6ac0 5cc4 7bc0
00000010: 937c 7540 fc58 d8c0 9670 52c0 24b1 15c0
00000020: a132 cac0 ae82 24bf bec9 2bbf 4d6c 4040
00000030: 8b1d f23f 65e7 e3c0 17cd ae40 e0e6 c5c0
00000040: 38d9 2ac0 38ed 5240 a650 2abf c965 3f40
00000050: 9600 cb3e 93ab 02be 1a31 69c0 b57e bac0

2.weight f4 [24, 24]
2.930977 -1.7325407 2.2717335 2.8216834 -3.244093 2.679275 -4.853627 -0.02409103
3.7349591 0.037973613 -0.04215173 -2.0074775 -2.058352 0.70219696 -2.4425826 3.7680473
-1.1962587 0.1736511 0.9321953 -1.2413679 -3.0072904 1.3524317 5.8241644 6.5127926
-1.4079837 -1.9288743 1.1679885 0.6621116 -4.826811 1.0709743 2.103684 0.61094356
-0.12183222 0.059880443 0.061263435 -2.340707 -1.2527757 1.2451677 -2.6524005 1.7287188
-3.5253124 -2.6749148 -0.29321525 -3.3736174 1.5012473 -3.8813555 -1.4563158 0.84947205
-2.0391324 -4.2205796 1.7863162 1.4301112 -4.959315 0.98734605 0.91234946 -0.07151381
0.68928593 -0.041786715 -0.09437884 -0.8563557 -2.0088081 0.9595758 -1.4410245 0.58165234
-4.4419518 -2.3635497 -0.46669155 -5.3528643 0.35179088 -3.7964232 -1.4042379 1.1418461
1.3472304 -0.17018205 -0.79981077 2.5305462 -0.33325803 1.7384177 0.25845957 0.1430345
0.31028956 0.093736485 0.0796448 -4.601929 -2.317442 0.67843956 -1.0643651 0.82121396
1.3630724 -0.26839137 -0.47937444 -2.5662704 -1.8522977 -9.70283 -1.1781482 3.7180498
-3.178278 1.4021268 1.0175698 1.342268 -9.34544 1.5946188 3.1698961 0.8153994
-2.0996282 0.13612746 -0.13304676 -0.28407305 0.78139204 1.4556392 -8.895976 1.477967
-1.7595744 -0.9279755 -0.34452417 0.1218377 0.64769363 -2.71658 -4.3170514 1.0821774
-0.17613015 -0.0022035053 -0.30496088 -0.22015025 0.040190022 -0.22332506 0.044683594 0.009981389
-0.015710505 0.13170639 0.10489019 -0.14758657 -0.23861417 0.08191218 -0.21762039 -0.2163974
-0.35929266 -0.3831795 -0.059477236 -0.4559201 -0.16798495 -0.030313792 0.0873279 -0.18453674
-0.18982664 -0.1964336 -0.0975149 -0.13385324 -0.17646974 -0.3025683 0.035426006 -0.04661565
-0.065570906 -0.0064480305 0.11015496 -0.13449202 -0.1259025 -0.15370542 -0.29198155 0.044579234
0.022673475 -0.2294019 -0.26240152 0.072565384 -0.1520722 -0.10510623 0.06919242 -0.097853035
-0.28687456 -0.42723984 -0.048323274 -0.40372318 -0.08789658 -0.041268155 -0.18351373 -0.013946578
-0.0065710098 0.039094433 -0.022181123 -0.036150433 -0.36272922 -0.05784926 -0.29942682 -0.040625423
-0.3956335 -0.27003995 -0.10471691 0.0056993663 0.016478866 -0.33640805 -0.110941954 0.027605236
1.8789964 -0.86545867 2.203115 -1.3262556 -4.79174 3.28861 3.7034433 3.3853133
-5.0264215 0.08934975 -0.009492464 -2.2855515 -0.9762019 -6.037726 -2.1419609 -0.90761596
-2.1794934 -8.090822 -0.0146324355 -4.188469 -0.8827389 -1.4467393 -0.17081445 -8.692497
-1.9751343 -2.1950686 1.148369 0.90868026 -4.686938 0.48319796 1.7686908 0.17389672
0.07395445 -0.10282647 -0.008637749 -1.4517361 -1.4267287 1.0370991 -1.4282513 1.159493
-4.534974 -1.65861 0.0883906 -4.3104415 1.0212073 -3.1652255 -0.55043405 0.773317
0.62626404 0.4143196 0.4843757 0.62447506 -0.34044686 -0.22485602 -4.9275136 -1.8476944
-1.562756 0.064794146 0.20921281 0.6855305 -1.396332 1.3466853 -0.022406653 2.9053702
00000000: 2195 3b40 e5c3 ddbf 1564 1140 7696 3440
00000010: 389f 4fc0 3e79 2b40 ea50 9bc0 8d5a c5bc
00000020: 9209 6f40 388a 1b3d 4ba7 2cbd 837a 00c0
00000030: 0abc 03c0 2ec3 333f 4653 1cc0 b027 7140
00000040: 011f 99bf 98d1 313e 5aa4 6e3f 25e5 9ebf
00000050: 7277 40c0 7b1c ad3f 8e5f ba40 cc68 d040
00000060: cf38 b4bf 5ae5 f6bf a680 953f 2580 293f
00000070: 3c75 9ac0 b015 893f c2a2 0640 cc66 1c3f
00000080: 2c83 f9bd 3245 753d 5eef 7a3d 25ce 15c0
00000090: f45a a0bf a861 9f3f eec0 29c0 a846 dd3f
000000a0: b89e 61c0 ce31 2bc0 4f20 96be 59e9 57c0
000000b0: df28 c03f 2168 78c0 8e68 babf 0077 593f
000000c0: 2581 02c0 fd0e 87c0 02a6 e43f e20d b73f
000000d0: b5b2 9ec0 b6c2 7c3f bc8f 693f d575 92bd
000000e0: 0b75 303f 8c28 2bbd b149 c1bd 213a 5bbf
000000f0: 5090 00c0 c2a6 753f 7e73 b8bf 2be7 143f
00000100: 7824 8ec0 6644 17c0 32f2 eebe aa4a abc0
00000110: ef1d b43e 99f8 72c0 11be b3bf 0328 923f
00000120: 0c72 ac3f 3444 2ebe 66c0 4cbf 78f4 2140
00000130: cca0 aabe 7984 de3f d054 843e a377 123e
00000140: 46de 9e3e eaf8 bf3d d01c a33d 0143 93c0
00000150: f850 14c0 37ae 2d3f 1e3d 88bf 143b 523f
00000160: 2879 ae3f 986a 89be 9170 f5be c63d 24c0
00000170: 1718 edbf cb3e 1bc1 8fcd 96bf 87f4 6d40
00000180: e868 4bc0 e478 b33f ba3f 823f 70cf ab3f
00000190: ec86 15c1 781c cc3f 94df 4a40 04be 503f
000001a0: 4f60 06c0 ff64 0b3e 693d 08be 0672 91be
000001b0: 4f09 483f 6352 ba3f eb55 0ec1 062e bd3f
000001c0: bc39 e1bf cd8f 6dbf 7965 b0be 0b86 f93d
000001d0: 40cf 253f 72dc 2dc0 4925 8ac0 ca84 8a3f
000001e0: 765b 34be af68 10bb d523 9cbe 116f 61be
000001f0: 4b9e 243d 53af 64be 2506 373d fb88 233c
00000200: 51b3 80bc 0ade 063e abd0 d63d ef20 17be
00000210: 4657 74be 93c1 a73d e1d7 5ebe 4897 5dbe
00000220: 35f5 b7be 1a30 c4be 679e 73bd 5c6e e9be
00000230: 3f04 2cbe a154 f8bc f8d8 b23d 33f7 3cbe
00000240: ea61 42be e425 49be e4b5 c7bd d310 09be
00000250: 7cb4 34be 3bea 9abe dc1a 113d 0df0 3ebd
00000260: 0a4a 86bd 004a d3bb ec98 e13d 47b8 09be
00000270: 96ec 00be f464 1dbe 9b7e 95be b798 363d
00000280: b9bd b93c 55e8 6abe 7e59 86be 299d 943d
00000290: d1b8 1bbe ef41 d7bd c1b4 8d3d 2c67 c8bd
000002a0: 39e1 92be 2ebf dabe a0ee 45bd ceb4 cebe
000002b0: 1f03 b4bd cc08 29bd 06eb 3bbe 3080 64bc
000002c0: a051 d7bb 7c21 203d 30b5 b5bc 7a12 14bd
000002d0: a5b7 b9be 58f3 6cbd 794e 99be d866 26bd
000002e0: 7990 cabe ad42 8abe d275 d6bd c0c1 ba3b
000002f0: b0fe 863c ad3d acbe 8935 e3bd 6024 e23c
00000300: f482 f03f b38e 5dbf d6ff 0c40 bec2 a9bf
00000310: ef55 99c0 9678 5240 3705 6d40 f9a8 5840
00000320: 72d8 a0c0 00fd b63d 4886 1bbc 7a46 12c0
00000330: 5ee8 79bf 0d35 c1c0 e315 09c0 8559 68bf
00000340: d27c 0bc0 0274 01c1 e2bc 6fbc f007 86c0
00000350: 2dfb 61bf c12e b9bf fce9 2ebe 7814 0bc1
00000360: 33d1 fcbf 017c 0cc0 c1fd 923f 459f 683f
00000370: 65fb 95c0 b965 f73e 7664 e23f fb11 323e
00000380: 6e75 973d af96 d2bd 5885 0dbc 7dd2 b9bf
00000390: 0c9f b6bf aabf 843f f0d0 b6bf 446a 943f
000003a0: 821e 91c0 554d d4bf 2206 b53d 23ef 89c0
000003b0: ecb6 823f 0e93 4ac0 3fe9 0cbf 1af8 453f
000003c0: d752 203f b321 d43e 1700 f83e 99dd 1f3f
000003d0: 0d4f aebe a840 66be 31ae 9dc0 4081 ecbf
000003e0: 6308 c8bf cbb2 843d e23b 563e ed7e 2f3f
000003f0: 02bb b2bf 2f60 ac3f 288e b7bc 96f1 3940

2.bias f4 [24]
-1.1965655 -1.5908296 -1.6627007 -4.5453153 -0.43602866 -0.19822964 -0.22528094 -0.26985198
-0.87014544 -1.7987872 2.652268 -2.5191703 -0.8246463 -1.5753667 -0.034876317 1.7928164
1.5554541 1.1215651 4.3660517 -2.432694 -1.8803114 0.56748515 5.8118587 -3.1507092
00000000: 0f29 99bf 4ea0 cbbf 60d3 d4bf 3973 91c0
00000010: 263f dfbe b6fc 4abe 0cb0 66be 0a2a 8abe
00000020: dac1 5ebf a93e e6bf c2be 2940 163a 21c0
00000030: 051c 53bf 9ea5 c9bf 78da 0ebd 027b e53f
00000040: 1f19 c73f 728f 8f3f b2b6 8b40 42b1 1bc0
00000050: 0bae f0bf b546 113f bffa b940 38a5 49c0

4.weight f4 [4, 24]
3.8987086 1.3620075 -1.471465 3.1801593 2.5693445 0.08824033 -0.053924844 -0.15879211
4.1021724 0.5176701 0.9684169 -3.0498521 0.0062810946 -0.64510864 -0.027274445 -0.4403694
0.98399377 -1.5735561 1.9486258 -2.5804932 0.07712303 2.2182798 -0.1088013 -7.7556605
3.3834116 1.6933707 0.108568646 3.778092 3.6756632 0.0890991 -0.008520887 0.04732108
3.5153039 0.67019403 1.7354567 -5.9252353 -3.2258468 1.4820229 0.0018487362 3.5709333
2.2068303 -0.4612043 -0.54973686 -1.6840662 -0.2583591 -0.68047214 -0.66910315 2.8836205
3.2369936 0.18147685 2.1678407 2.256096 -0.67683226 0.0008727958 -0.1268874 -0.15585671
2.0519285 3.5024304 1.0594498 -1.4125363 -0.45206538 1.3722155 0.05807482 0.038996138
0.35105568 -0.086071275 1.1441232 -1.2183951 -0.5215665 -0.057636127 0.91777676 -2.5710726
3.7293866 0.7078286 2.7268608 4.2561326 1.0623413 -0.20714521 -0.1987733 0.1545601
4.0292807 0.75886863 2.0679018 -3.7373621 -1.3109338 1.8626171 -0.06484093 0.65857
-0.748613 0.79883325 0.89404494 -0.36360553 -2.4020374 -2.1775181 3.3859386 -2.5686193
00000000: 7184 7940 4356 ae3f f758 bcbf bb87 4b40
00000010: 2470 2440 59b7 b43d 4ce0 5cbd 669a 22be
00000020: ff44 8340 0786 043f 2cea 773f c730 43c0
00000030: a4d1 cd3b d725 25bf a86e dfbc 1978 e1be
00000040: 04e7 7b3f 496a c9bf 926c f93f cd26 25c0
00000050: aef2 9d3d 4cf8 0d40 37d3 debd 5f2e f8c0
00000060: d189 5840 5fc0 d83f 3d59 de3d 42cc 7140
00000070: 113e 6b40 9779 b63d 319b 0bbc c0d3 413d
00000080: bdfa 6040 d691 2b3f 7223 de3f 879b bdc0
00000090: 4674 4ec0 edb2 bd3f 4b51 f23a 2c8a 6440
000000a0: b53c 0d40 f822 ecbe 8ebb 0cbf 7b8f d7bf
000000b0: a547 84be 6c33 2ebf 584a 2bbf 3d8d 3840
000000c0: e72a 4f40 11d5 393e e7bd 0a40 e063 1040
000000d0: e144 2dbf 56cc 643a c5ee 01be e798 1fbe
000000e0: cc52 0340 d227 6040 0d9c 873f fdcd b4bf
000000f0: 1d75 e7be c2a4 af3f dddf 6d3d 6aba 1f3d
00000100: 92bd b33e 2346 b0bd a172 923f 5ff4 9bbf
00000110: 6285 05bf dc13 6cbd 6bf3 6a3f 748c 24c0
00000120: 45ae 6e40 4134 353f e384 2e40 3d32 8840
00000130: cdfa 873f e01d 54be 3a8b 4bbe 0145 1e3e
00000140: deef 8040 3745 423f 8158 0440 f130 6fc0
00000150: aecc a7bf 3d6a ee3f 52cb 84bd 0b98 283f
00000160: 1aa5 3fbf 5680 4c3f 21e0 643f 812a babe
00000170: fbba 19c0 755c 0bc0 38b3 5840 4264 24c0

4.bias f4 [4]
-1.9497212 2.0831673 -0.39233735 2.9208724
00000000: 7790 f9bf 9d52 0540 71e0 c8be 93ef 3a40
