logs_800/logs/target_params_B_200.pt (torch, 6263 bytes, 6 tensors)

0.weight f4 [24, 12]
00000000: 7cf9 963f e686 6d3f 3bbb 463e c138 e73e
00000010: 03ef 1640 085d 83be 4714 863f bba0 d0bf
00000020: 65b4 cfbf 95e6 a13f c9f6 7140 e710 5140
00000030: 3a94 be3f 1fb8 da3f 8645 163d 47f1 bfbf
00000040: 5cba ab3e 49fc 90bf 7e5e b6be 5c2f a8bf
00000050: 71a1 fbbf 2bc0 78be 0973 37c0 8297 4d3f
00000060: 47b3 8dbe 6d2b 723f 31af babf 5e00 473c
00000070: 23ab d2bf a99e 2fbe 29f7 08be 3f18 b43f
00000080: 9bcb ff3f e1da 15c0 e8d3 5bc0 467d 3940
00000090: 0ca6 573f 02bb 6c3f df9d 1f3e 9191 21be
000000a0: 0544 97bf 621c e8be 3223 653e ae6f f93e
000000b0: bff9 a340 94b1 12bd 35a6 7ec0 5af3 5a40
000000c0: f48c 3bbf b255 703f 7aee 8dbe fdcb 993e
000000d0: 8e66 983e f773 463d b2d9 063f 666c dcbe
000000e0: 6fdf 23c0 7298 68be 7a72 58c0 42f1 65c0
000000f0: 7816 2bbc 7b95 303f 757e 3cbf f5e5 9fbe
00000100: 824e 6a3e 506f a43f 16b1 8bbe 1a19 a63e
00000110: 696f 183f 455b 49bf 2a8f a440 6273 c1bf
00000120: 0dfd d53f 4a92 5bbe 8f2b 3fbf 822a 4ac0
00000130: e9e8 f2bf 3690 fd3e ec9e b3be f332 bebf
00000140: 7116 1640 4d95 a0bf bcf9 19c0 76b7 57bf
00000150: e061 9e3f 7883 3740 d132 7cbf 2edb 25bf
00000160: cac1 82bf b05c a03e cbb7 69bf 37b2 eebe
00000170: 6486 40c0 9e67 6ac0 c007 fdbf 02ab 92be
00000180: db55 31bf cca5 d73f 6246 81bb a62d 75be
00000190: 2595 cfbd 42e1 73be 73d2 ec3e f3d3 f73e
000001a0: c319 4040 ad8a 1e3f 672c bcbf 2942 1d40
000001b0: b1f7 93be 536d 09bf 281d 7fbe 1622 4dbe
000001c0: 2e9f d6bd bfd2 b3be dc76 80be 71a6 1bbe
000001d0: 5bcb 0c3e 605d c5be be9c 2c3d 499b 07bd
000001e0: ffb3 dbbd 618b cdbe f2ff a0be 0f24 a83d
000001f0: fb49 53be 16c5 b8be 99dc 96be e3f8 1b3c
00000200: f457 cf3d 2821 99be 3edb 55bd ddd7 c8bc
00000210: 390e ff3f 2db1 c3bf 1ab2 ac3e 419b 903e
00000220: 840b fabe fcdc 3abe 5ba0 893d db06 613e
00000230: 22da 6fc0 7806 b63d 6a51 3ec0 826c 37be
00000240: d56a 9fbf 23a6 83bf b70f 9dbc b504 5d3e
00000250: 31fc 393f 4fd9 71be 9f73 7d3f ff8c 56bf
00000260: 70b5 9b40 a88c bc3f b25a 57bf b867 9340
00000270: a34d 443f b701 de3c 8236 db3d c99a e1bd
00000280: f897 21be 5eed babd 2ec8 f23e 2b12 c63e
00000290: 268e 413f 6ef1 e53e 4630 c6bf 8791 7340
000002a0: 348d 48bf 50af 2c40 34fe 2e3f 15d9 b23d
000002b0: 2704 243b 11a2 dfbf bec9 713e f3de 66bf
000002c0: 2afa 753f d93a 8f3e 28ed ebbf f63c 06bf
000002d0: cccb bc3e 45be 4a3f 4682 9cbd 6087 6cbe
000002e0: 9f9f 043f b885 613e 1ae1 bcbd f55b 60be
000002f0: 22f1 9040 c878 f0be cf56 47c0 e11b 06c0
00000300: 5811 163f 66d4 9ebe b7e7 5abf c664 933f
00000310: 9830 ccbe 98d8 083f 9a13 353f b2da 4b3f
00000320: bb7e 35c0 81f6 a13e 3ea0 a9bf dda0 0cc0
00000330: 2f04 c6bf bacf c4be 3581 593e 40ba 9e3f
00000340: 40c6 c3bf 14c4 a93f aebc 19bf 325b c23e
00000350: 1294 33be c75d c1be c34d 583f 3f7e f83f
00000360: 6c72 bd3f bad3 4c3e 050c d13d c27f 7dc0
00000370: 5218 a1bf a7d1 1fbf 858f 6ebd ed9a bf3e
00000380: a07d 5ec0 c162 0b3f 8c09 2f40 fdbd 9f3e
00000390: a3dd 02c0 8495 13bf 9101 593f 8614 56be
000003a0: 7c36 de3f d8ca 893f 43da 0e3e fe7d 74be
000003b0: 62e9 0bbf 07d2 9cbf bd35 48c0 5d03 8cbf
000003c0: 9c35 363f 2d5e fbbe 2271 e3bf c576 6dc0
000003d0: f329 0cbf d219 7a3f 356e 46bf dd03 de3f
000003e0: 4951 80bf d829 01be 5eab 48bf e339 2640
000003f0: 127b bd3c ead1 59bf 0816 2d3d 96e3 81bd
1.1794887 0.92783964 0.1940736 0.45160487 2.358338 -0.25656915 1.0474938 -1.6299051
-1.6226927 1.2648493 3.7806876 3.2666566 1.4888985 1.7087439 0.036687396 -1.4995507
0.33540618 -1.1326991 -0.35618967 -1.3139453 -1.9658643 -0.24292056 -2.8663962 0.8030931
-0.2767584 0.9459751 -1.4584714 0.012146084 -1.6458477 -0.17150368 -0.13375534 1.4069899
1.998401 -2.3414843 -3.4348087 2.898271 0.8423774 0.9247285 0.15587567 -0.15778185
-1.1817633 -0.45334154 0.22376707 0.48718017 5.1242366 -0.035813883 -3.9788945 3.421103
-0.7326195 0.9388076 -0.27721006 0.30038443 0.29765743 0.048450436 0.52675927 -0.4305145
-2.5605123 -0.22714403 -3.381987 -3.5928502 -0.010442369 0.6897809 -0.7363046 -0.3123013
0.22881511 1.284647 -0.27283543 0.32441026 0.59545 -0.7865489 5.142476 -1.5113337
1.671785 -0.21442524 -0.7467584 -3.1588445 -1.8977329 0.49524087 -0.35082185 -1.4859298
2.3451197 -1.2545563 -2.4058676 -0.84264314 1.2373619 2.8673992 -0.9851504 -0.64787567
-1.021539 0.31320715 -0.9129607 -0.46620342 -3.0082026 -3.6625743 -1.976799 -0.28646094
-0.6927163 1.6847472 -0.003945158 -0.23943195 -0.10135869 -0.23816398 0.4625431 0.48403892
3.0015724 0.6193035 -1.470105 2.457163 -0.2889991 -0.5368244 -0.24913466 -0.20032534
-0.1047958 -0.35121724 -0.25090683 -0.15200211 0.13749449 -0.38547802 0.04214167 -0.033107076
-0.10727691 -0.401454 -0.3144527 0.08210003 -0.2063369 -0.36087865 -0.29465178 0.009519788
0.101241976 -0.2990811 -0.05221104 -0.024516994 1.9926215 -1.5288445 0.3372963 0.2824345
-0.4883691 -0.18248361 0.067200385 0.21975271 -3.7476888 0.088879526 -2.9737191 -0.17912486
-1.2454478 -1.0285076 -0.019172532 0.21583827 0.7265044 -0.23618053 0.9900455 -0.8380889
4.865898 1.4730425 -0.84122765 4.606411 0.76680964 0.027100427 0.10703756 -0.11015851
-0.15780628 -0.091273054 0.4741835 0.38685736 0.75607526 0.4491076 -1.5483482 3.8057573
-0.7834046 2.6982002 0.68356633 0.08732811 0.002502689 -1.7471334 0.23612115 -0.90183944
0.96084845 0.27974585 -1.8431749 -0.5243677 0.36874235 0.7919658 -0.07642035 -0.23098516
0.5180606 0.22023666 -0.09222622 -0.21910079 4.529435 -0.4696715 -3.1146734 -2.0954516
0.58620214 -0.31021422 -0.8550982 1.1515129 -0.39880824 0.53455496 0.70733035 0.7963058
-2.83586 0.3163338 -1.3252027 -2.1973183 -1.5470027 -0.38439733 0.21240695 1.2400589
-1.5294876 1.3262963 -0.6005353 0.37960202 -0.17536953 -0.3776686 0.84493655 1.9413527
1.4800544 0.20002642 0.10207371 -3.9609227 -1.2585547 -0.6242928 -0.05824234 0.37422886
-3.4764175 0.5444756 2.7349577 0.31199637 -2.0447776 -0.5765002 0.84768015 -0.20906267
1.7360377 1.0765028 0.13950448 -0.23876187 -0.5465299 -1.2251595 -3.12828 -1.0938526
0.7117555 -0.49095288 -1.77689 -3.710374 -0.5475151 0.9769565 -0.7751191 1.7344929
-1.0024806 -0.12613618 -0.78386486 2.5972831 0.023129974 -0.8508593 0.04225734 -0.06342237

0.bias f4 [24]
00000000: b023 80bf d7a7 abbe 98ed d4bf 34a5 55c0
00000010: 6694 6440 5803 a5c0 36be 2ec0 8055 01c0
00000020: bb15 c1c0 ae82 24bf bec9 2bbf 5369 1640
00000030: 7676 803f 0cad cdc0 8540 8040 c1ea bfc0
00000040: 9cdf fa3e 4307 3540 5d2b 2abe 58bc 1040
00000050: bc3a eb3e 1a69 8d3f 0b8c 20c0 2458 a6c0
-1.0010891 -0.3352649 -1.6635008 -3.3382082 3.5715575 -5.156658 -2.7303596 -2.0208435
-6.0339026 -0.642619 -0.6710471 2.3501785 1.0036151 -6.427374 4.007876 -5.9974065
0.48998725 2.8285682 -0.16618104 2.2614956 0.45943248 1.10477 -2.5085475 -5.1982594

2.weight f4 [24, 24]
00000000: e1d2 2840 a135 0ac0 1352 c3be bdc6 3d40
00000010: 6537 c2bf 5d0c 6f40 ef3a bdc0 1b2f f9bf
00000020: 3675 7340 388a 1b3d 4ba7 2cbd 81d9 0bc0
00000030: 3c22 39c0 f3db 963f b86c 20c0 f386 8f40
00000040: 4eae 1f3f 6ac6 8bbf 2084 983e faf8 80c0
00000050: fe7b 9cc0 831f fb3e 9fda da40 16a9 c040
00000060: cf38 b4bf 5ae5 f6bf a680 953f 2580 293f
00000070: 3c75 9ac0 b015 893f c2a2 0640 cc66 1c3f
00000080: 2c83 f9bd 3245 753d 5eef 7a3d 25ce 15c0
00000090: f45a a0bf a861 9f3f eec0 29c0 a846 dd3f
000000a0: b89e 61c0 ce31 2bc0 4f20 96be 59e9 57c0
000000b0: df28 c03f 2168 78c0 8e68 babf 0077 593f
000000c0: 2581 02c0 fd0e 87c0 02a6 e43f e20d b73f
000000d0: b5b2 9ec0 b6c2 7c3f bc8f 693f d575 92bd
000000e0: 0b75 303f 8c28 2bbd b149 c1bd 213a 5bbf
000000f0: 5090 00c0 c2a6 753f 7e73 b8bf 2be7 143f
00000100: 7824 8ec0 6644 17c0 32f2 eebe aa4a abc0
00000110: ef1d b43e 99f8 72c0 11be b3bf 0328 923f
00000120: de23 f13e 7670 593f fe2a cd3e 48a1 ca3f
00000130: aea6 6bc0 0732 1dbf 3a0a 183d e80b bf3f
00000140: a7f8 0ac0 eaf8 bf3d d01c a33d b39f 6fc0
00000150: babc 03c0 3dfd d43f 3be2 3fbe 5a92 663e
00000160: f14f 223f 3056 c0bf 25dd 49c0 d665 9cbf
00000170: bab7 b73f b5dd 0bc1 99f7 c6bf f164 3940
00000180: 2baa 0ec0 d3c3 e73f bbed 5c3f 386d 2a40
00000190: c09d 21c1 d1b0 de3f 65ac 1040 12e3 5abe
000001a0: 7ddb 06c0 ff64 0b3e 693d 08be 31d9 813f
000001b0: c429 0340 4aca 0840 33d5 ddc0 a817 0c40
000001c0: f0a0 b5bf ec64 8f3e 3dc1 073f e623 143e
000001d0: fb55 ad3f 7539 f2bf e7df 27c0 457a 9b3f
000001e0: 765b 34be af68 10bb d523 9cbe 116f 61be
000001f0: 4b9e 243d 53af 64be 2506 373d fb88 233c
00000200: 51b3 80bc 0ade 063e abd0 d63d ef20 17be
00000210: 4657 74be 93c1 a73d e1d7 5ebe 4897 5dbe
00000220: 35f5 b7be 1a30 c4be 679e 73bd 5c6e e9be
00000230: 3f04 2cbe a154 f8bc f8d8 b23d 33f7 3cbe
00000240: ea61 42be e425 49be e4b5 c7bd d310 09be
00000250: 7cb4 34be 3bea 9abe dc1a 113d 0df0 3ebd
00000260: 0a4a 86bd 004a d3bb ec98 e13d 47b8 09be
00000270: 96ec 00be f464 1dbe 9b7e 95be b798 363d
00000280: b9bd b93c 55e8 6abe 7e59 86be 299d 943d
00000290: d1b8 1bbe ef41 d7bd c1b4 8d3d 2c67 c8bd
000002a0: 39e1 92be 2ebf dabe a0ee 45bd ceb4 cebe
000002b0: 1f03 b4bd cc08 29bd 06eb 3bbe 3080 64bc
000002c0: a051 d7bb 7c21 203d 30b5 b5bc 7a12 14bd
000002d0: a5b7 b9be 58f3 6cbd 794e 99be d866 26bd
000002e0: 7990 cabe ad42 8abe d275 d6bd c0c1 ba3b
000002f0: b0fe 863c ad3d acbe 8935 e3bd 6024 e23c
00000300: 5501 95be da66 ec3e d096 883f 4e28 a73f
00000310: 2c9d a6c0 c799 693f c7b8 0b40 8f6e c83f
00000320: 2464 143f 00fd b63d 4886 1bbc 8f94 76c0
00000330: f338 92be 7c1b 753f b1b0 dfbf 1017 963f
00000340: f9ec 82c0 0325 00c0 d6a2 883f 175b 85c0
00000350: b66c 0440 b710 90c0 19d2 d6bf f395 923f
00000360: 12a7 d4bf 64b1 f0bf a4a3 bb3f 437f 833f
00000370: 65fb 95c0 2aea 4b3f 7664 e23f c0a0 f93e
00000380: 6e75 973d af96 d2bd 5885 0dbc 6148 91bf
00000390: 0c9f b6bf aabf 843f 9031 8ebf 446a 943f
000003a0: 821e 91c0 554d d4bf b82a ce3e 23ef 89c0
000003b0: 4117 ab3f ce88 36c0 3fe9 0cbf 1af8 453f
000003c0: cf21 a13f b8d9 453f b74f cebd 738f 143f
000003d0: 6154 543f b6ef 933f 2bb5 81c0 5f14 8cbf
000003e0: 18e8 18bf cbb2 843d e23b 563e 32c4 af3f
000003f0: fe58 5abe 93f0 3040 e483 9ebd 8374 9640
2.637871 -2.1595232 -0.38148555 2.965255 -1.5173155 3.7351296 -5.913444 -1.94675
3.804029 0.037973613 -0.04215173 -2.1851504 -2.8927145 1.1785873 -2.5066357 4.4852233
0.6237534 -1.0919926 0.29788303 -4.0303926 -4.890136 0.4904748 6.839187 6.0206404
-1.4079837 -1.9288743 1.1679885 0.6621116 -4.826811 1.0709743 2.103684 0.61094356
-0.12183222 0.059880443 0.061263435 -2.340707 -1.2527757 1.2451677 -2.6524005 1.7287188
-3.5253124 -2.6749148 -0.29321525 -3.3736174 1.5012473 -3.8813555 -1.4563158 0.84947205
-2.0391324 -4.2205796 1.7863162 1.4301112 -4.959315 0.98734605 0.91234946 -0.07151381
0.68928593 -0.041786715 -0.09437884 -0.8563557 -2.0088081 0.9595758 -1.4410245 0.58165234
-4.4419518 -2.3635497 -0.46669155 -5.3528643 0.35179088 -3.7964232 -1.4042379 1.1418461
0.47097677 0.84937227 0.40071863 1.5830469 -3.6820483 -0.6140446 0.037119128 1.4925508
-2.1714265 0.093736485 0.0796448 -3.7441223 -2.058394 1.6639782 -0.18738644 0.22516766
0.6340323 -1.5026302 -3.1541226 -1.2218578 1.4352944 -8.741628 -1.5544311 2.896786
-2.2291362 1.8106636 0.8630025 2.6629162 -10.101013 1.739771 2.2605221 -0.21375683
-2.1071465 0.13612746 -0.13304676 1.0144407 2.0494242 2.1373467 -6.9322753 2.1889439
-1.4189739 0.28006685 0.53029233 0.14466819 1.3541864 -1.8923784 -2.623041 1.2146689
-0.17613015 -0.0022035053 -0.30496088 -0.22015025 0.040190022 -0.22332506 0.044683594 0.009981389
-0.015710505 0.13170639 0.10489019 -0.14758657 -0.23861417 0.08191218 -0.21762039 -0.2163974
-0.35929266 -0.3831795 -0.059477236 -0.4559201 -0.16798495 -0.030313792 0.0873279 -0.18453674
-0.18982664 -0.1964336 -0.0975149 -0.13385324 -0.17646974 -0.3025683 0.035426006 -0.04661565
-0.065570906 -0.0064480305 0.11015496 -0.13449202 -0.1259025 -0.15370542 -0.29198155 0.044579234
0.022673475 -0.2294019 -0.26240152 0.072565384 -0.1520722 -0.10510623 0.06919242 -0.097853035
-0.28687456 -0.42723984 -0.048323274 -0.40372318 -0.08789658 -0.041268155 -0.18351373 -0.013946578
-0.0065710098 0.039094433 -0.022181123 -0.036150433 -0.36272922 -0.05784926 -0.29942682 -0.040625423
-0.3956335 -0.27003995 -0.10471691 0.0056993663 0.016478866 -0.33640805 -0.110941954 0.027605236
-0.2910258 0.4617222 1.0671024 1.3059175 -5.206686 0.9125027 2.183153 1.565874
0.579653 0.08934975 -0.009492464 -3.8528173 -0.28559074 0.9574506 -1.7475797 1.1725788
-4.0914273 -2.002259 1.0674694 -4.1673694 2.0691352 -4.5020404 -1.6782867 1.1452011
-1.6613486 -1.8804135 1.4659314 1.0273212 -4.686938 0.7965418 1.7686908 0.48755455
0.07395445 -0.10282647 -0.008637749 -1.1350213 -1.4267287 1.0370991 -1.1108875 1.159493
-4.534974 -1.65861 0.40266967 -4.3104415 1.3366472 -2.8521 -0.55043405 0.773317
1.2588443 0.7728534 -0.10073798 0.58031386 0.8294125 1.1557529 -4.053365 -1.0943717
-0.59729147 0.064794146 0.20921281 1.3731749 -0.2132301 2.7646835 -0.0774 4.7017226

2.bias f4 [24]
00000000: 8a82 12c0 4ea0 cbbf 60d3 d4bf 43e5 0ac0
00000010: 0eda 863f b6fc 4abe 0cb0 66be 0a2a 8abe
00000020: ed21 9fbf 345d bebf a050 793f d81b 10c0
00000030: fa78 9cbd 9ea5 c9bf 78da 0ebd ab9c 843f
00000040: 35fe a33f 9219 983f c5bc e83f 4c15 d4bf
00000050: 78ac 863f 7dcd 923f 9ab6 5040 aed4 03c0
-2.2892175 -1.5908296 -1.6627007 -2.170243 1.0535295 -0.19822964 -0.22528094 -0.26985198
-1.2432228 -1.4872193 0.9738865 -2.2516994 -0.07640262 -1.5753667 -0.034876317 1.0360311
1.2811953 1.1882803 1.8182608 -1.6568999 1.0521383 1.146896 3.261145 -2.059856

4.weight f4 [4, 24]
00000000: fda6 7a40 4356 ae3f f758 bcbf 27fa 0640
00000010: 5342 8040 59b7 b43d 4ce0 5cbd 669a 22be
00000020: 6e17 2140 0786 043f 93b6 a83f 4193 15c0
00000030: c37f e2be d725 25bf a86e dfbc 698b 95bf
00000040: 3784 6f3f fcae 3abf dc29 1340 dd24 54c0
00000050: 92db 93bf 3902 1b3f 3d08 a63d 76b3 59c0
00000060: b227 5840 5fc0 d83f 3d59 de3d 1b21 4b40
00000070: 2e24 5740 9779 b63d 319b 0bbc c0d3 413d
00000080: 84dc 2040 d691 2b3f 4152 f63f 92cd 5ec0
00000090: 8a1a 68c0 edb2 bd3f 4b51 f23a 7533 5e40
000000a0: 099e 2940 a11e 0dbf 338d 8cbe 06d3 d0bf
000000b0: d184 eebd ca29 1ac0 8485 cdbf 852b 2440
000000c0: c1a1 4240 11d5 393e e7bd 0a40 f17b db3e
000000d0: 8694 aa3f 56cc 643a c5ee 01be e798 1fbe
000000e0: da61 db3e d227 6040 f8e3 b53f 1e49 a9bf
000000f0: 7bfb 99bf c2a4 af3f dddf 6d3d ffc9 5fbd
00000100: 3315 d5be 07be 8a3f 62b8 793f acd7 c3bf
00000110: 8565 1fbf d049 a63e 1fab 823f ca00 703e
00000120: ffa7 8f40 4134 353f e384 2e40 3fee 1f40
00000130: 5312 3040 e01d 54be 3a8b 4bbe 0145 1e3e
00000140: 735d 8d3f b326 733f 3aa3 d33f 1cb0 4bc0
00000150: 693b 20bf 3d6a ee3f 52cb 84bd 7d5c ca3e
00000160: b771 3ebe 9df3 ba3f 357a b93f 0222 933e
00000170: b075 4ac0 c129 3dc0 28b2 8440 fcd9 eabf
3.9164422 1.3620075 -1.471465 2.109018 4.008096 0.08824033 -0.053924844 -0.15879211
2.517055 0.5176701 1.3180717 -2.3371127 -0.442381 -0.64510864 -0.027274445 -1.168317
0.9356112 -0.72923255 2.29943 -3.31475 -1.1551383 0.60550267 0.0810704 -3.4015784
3.3774228 1.6933707 0.108568646 3.1738956 3.3615832 0.0890991 -0.008520887 0.04732108
2.5134592 0.67019403 1.9243852 -3.481297 -3.6266198 1.4820229 0.0018487362 3.4718907
2.6502707 -0.5512486 -0.27451476 -1.6314399 -0.116464265 -2.4088006 -1.6056371 2.5651562
3.0411227 0.18147685 2.1678407 0.42867997 1.3326576 0.0008727958 -0.1268874 -0.15585671
0.42848092 3.5024304 1.4210196 -1.3225439 -1.2029871 1.3722155 0.05807482 -0.054635998
-0.41617736 1.0839242 0.9754697 -1.5300193 -0.6226428 0.3247819 1.0208472 0.23437801
4.4892573 0.7078286 2.7268608 2.4989164 2.7511184 -0.20714521 -0.1987733 0.1545601
1.1044143 0.94980925 1.6534188 -3.1826239 -0.6259065 1.8626171 -0.06484093 0.39523688
-0.18598066 1.4605595 1.449042 0.28736883 -3.163433 -2.9556735 4.1467476 -1.8347774

4.bias f4 [4]
00000000: fe4b 81c0 720e 0a40 6e8f d1c0 c99b 833f
-4.0405264 2.1571317 -6.5487585 1.0281917
