logs_800/logs/target_params_B_400.pt (torch, 6263 bytes, 6 tensors)

0.weight f4 [24, 12]
00000000: eff8 9a3f ca7e 4a3f d9d4 a03e f466 283f
00000010: 4a90 0140 cdc6 f5bd 2b2e 403f 5846 c2bf
00000020: 4f56 f9bf 2fda d93e 1130 9340 5c51 3840
00000030: efe5 853f 5a27 0440 da12 013e 66c0 91bf
00000040: 940e 573e 2e05 9c3e b945 10bf 3917 babf
00000050: 5f90 09c0 09b0 5fc0 243d 5ec0 6145 09bf
00000060: 7c6f 97be f93d f53f a613 c8bf 4b3d 13bf
00000070: 998d aebf d364 fd3e b047 4bbc 7635 d13f
00000080: 89aa 5a3e ae7e 713f abd5 06c0 e61f 8240
00000090: aea4 813f 5283 173f 1eae 30be 13ce 0ebe
000000a0: bb68 0cbf 57ed 28bf 2cd4 c73e 045e 4b3f
000000b0: 931f bb40 ef60 b43e c4ef 99c0 21ac 1a40
000000c0: 7e35 92bf 0628 ec3e 2e62 553f ec65 b1be
000000d0: 6ee0 f83e 4ced d23e 4e81 e73e 9091 0a3c
000000e0: bdb6 82c0 87d6 edbf 5ec5 87c0 546c 79c0
000000f0: 339d a33d 7470 6a3f bd4e 56bf 01aa ecbe
00000100: 404c 143e 78fe a33f ca90 7e3d db70 423e
00000110: ce3e 843f d82e 72bd f81f b140 fbb1 8cbf
00000120: b70a a83f 722e d1bd f191 56bf a3a8 36c0
00000130: 3f6a 0dc0 7d70 1d3e 4e11 bdbe 50ca 82bf
00000140: b8aa da3f a762 91bf 79a5 41c0 7677 8fbf
00000150: 0fa4 b03f 107b 1b40 d4cf cabf 1636 22bf
00000160: eade 3abf 9bab 7b3f af26 57bf 6f5a 13bf
00000170: 0433 62c0 686f b4c0 7917 13c0 3ec9 e0bf
00000180: 3115 44bf d6d1 dd3f 09d6 17be b1cc acbd
00000190: 4701 943e 9dab c33e b771 cc3e 420d 203e
000001a0: 3d04 3c40 dc28 f93e 9aa8 56bf b25b 2540
000001b0: b1f7 93be 536d 09bf 281d 7fbe 1622 4dbe
000001c0: 2e9f d6bd bfd2 b3be dc76 80be 71a6 1bbe
000001d0: 5bcb 0c3e 605d c5be be9c 2c3d 499b 07bd
000001e0: ffb3 dbbd 618b cdbe f2ff a0be 0f24 a83d
000001f0: fb49 53be 16c5 b8be 99dc 96be e3f8 1b3c
00000200: f457 cf3d 2821 99be 3edb 55bd ddd7 c8bc
00000210: d48d 0f40 c358 d2bf 0a3c 603c 4147 3dbc
00000220: a5f0 56be 974d efbe f2b9 923d 3ac9 aa3d
00000230: 13fc 82c0 1b69 c6be 3ad9 cdbf e274 0abf
00000240: aa33 9fbf 128c 18bf 723a bdbe 657a 813e
00000250: 4e8b 473f 3fb9 ffbd e527 9f3e 3d84 c7be
00000260: da81 b840 995c ed3f a3e3 413e 017a 9c40
00000270: 2433 823f b695 21be b34d 8fbd a44c 96bb
00000280: c811 67bd aaff 41be a2b8 123f 9e97 313f
00000290: efb3 323f 3449 cf3e 5278 78bf 04e1 5d40
000002a0: 5a8a 0bbf bfcf 3340 e131 fd3e dbf6 b1bd
000002b0: c8ec 78bd aeb3 aebf c474 2f3e 94c6 7bbf
000002c0: f12c 933f 2626 91bd ed92 dfbf 1b62 9a3e
000002d0: a414 7c3d e23b 033f 0090 313e 66f2 afbe
000002e0: 2329 e93e e0d1 173f 1bfe 1e3e 0a4a 3bbe
000002f0: 7ec3 8640 9fd2 eabf 2ecd 4bc0 411c 29c0
00000300: 1794 1dbe b5f3 30be 88c5 05bf 6ce0 123f
00000310: 6295 8b3d 11c1 693f 0433 9d3f db4b 853f
00000320: 7cdf 47c0 6f39 ca3f b8ff 11c0 a9ae 10c0
00000330: 342c c5bf 14a7 26be c80b 983c 02cb 433f
00000340: dd5c cbbf 41cb 9e3f 45ff 923f e511 4bbe
00000350: f806 083e 3c3d 75bf 84fd 303f 5b5a 5c3f
00000360: 7d8e 993f 26c7 9cbe 8a4c 11bf 2595 e6bf
00000370: 59db 14bf d235 ccbc 8971 8a3e c6db 563f
00000380: 70e3 eec0 98b8 963d a279 7e40 b05b f63f
00000390: 7384 1fc0 3dc9 85bf 9e1e 1a3f c56e fe3e
000003a0: 9908 d03f eff8 843f 54ce 083c 9bc8 27bd
000003b0: 56d3 96c0 68a8 9abf 9c9f 08c0 93b2 39c0
000003c0: 554c b9bd 3dbf 06bf 9da7 babf 4377 8ac0
000003d0: ab6b 32bf 1881 b43f abdc ba3d d60b 1940
000003e0: a32e bdbf 8252 30bf b4e4 abbf c268 2b40
000003f0: 9803 febe 0cd1 26bf 23ad d9be 826a e13e
1.2107219 0.79099715 0.3141239 0.65782094 2.0244317 -0.12000809 0.75070447 -1.5177717
-1.9479464 0.42549273 4.5996175 2.8799658 1.0460795 2.0649018 0.12604848 -1.138684
0.21001655 0.30472702 -0.5635639 -1.4538337 -2.1494367 -3.4951193 -3.4724817 -0.5362149
-0.29577243 1.9159538 -1.5630996 -0.575154 -1.3636962 0.49490985 -0.012407228 1.634444
0.21354116 0.9433392 -2.1067913 4.066394 1.0128381 0.59184754 -0.1725392 -0.13945799
-0.54847306 -0.6598715 0.39029062 0.7944033 5.8476043 0.35230204 -4.8105183 2.416756
-1.1422575 0.46124285 0.83352935 -0.34648073 0.48608726 0.41196668 0.4521584 0.008457556
-4.084807 -1.8581094 -4.2428427 -3.8972368 0.07988968 0.9157784 -0.83713895 -0.46223453
0.14482212 1.2812033 0.0621498 0.18988363 1.0331666 -0.059126705 5.5351524 -1.0991815
1.312827 -0.10213937 -0.8381644 -2.8540428 -2.2096097 0.15374942 -0.36927265 -1.0217991
1.7083349 -1.1358231 -3.0257246 -1.1208332 1.3800067 2.4293861 -1.5844674 -0.6336378
-0.7299639 0.98308724 -0.840434 -0.57559866 -3.5343637 -5.6385994 -2.2983077 -1.7561414
-0.76594836 1.7329662 -0.14827742 -0.08437479 0.28907225 0.38216868 0.39930508 0.15630057
2.9377587 0.48663986 -0.83851016 2.5837216 -0.2889991 -0.5368244 -0.24913466 -0.20032534
-0.1047958 -0.35121724 -0.25090683 -0.15200211 0.13749449 -0.38547802 0.04214167 -0.033107076
-0.10727691 -0.401454 -0.3144527 0.08210003 -0.2063369 -0.36087865 -0.29465178 0.009519788
0.101241976 -0.2990811 -0.05221104 -0.024516994 2.2430315 -1.6433338 0.013686189 -0.011552633
-0.20990236 -0.46738884 0.071643725 0.08339162 -4.093271 -0.38752064 -1.6081917 -0.540846
-1.2437642 -0.5958873 -0.36958653 0.25288692 0.7794694 -0.12486505 0.31085125 -0.38968077
5.765851 1.8543884 0.18934493 4.889893 1.0171857 -0.15779766 -0.06997242 -0.004586773
-0.056413442 -0.18945184 0.5731298 0.69371974 0.69805807 0.40485537 -0.97058594 3.4668589
-0.5450798 2.8095548 0.49452117 -0.08689662 -0.060772687 -1.3648584 0.17134386 -0.9834988
1.149809 -0.07087354 -1.7466713 0.30152974 0.061543122 0.5126325 0.17340088 -0.34364623
0.45539197 0.5930462 0.15526621 -0.18289962 4.211364 -1.8345526 -3.1843982 -2.6423495
-0.15388523 -0.17280467 -0.52254534 0.5737369 0.06815602 0.9131022 1.2281194 1.0413774
-3.1230154 1.5798777 -2.2812328 -2.2606604 -1.5404115 -0.16274673 0.018560305 0.7648164
-1.5887715 1.2405778 1.1484152 -0.19831045 0.13283908 -0.9579656 0.69136834 0.8607537
1.1996609 -0.30620688 -0.56757414 -1.8014265 -0.581472 -0.024928007 0.27039745 0.839291
-7.4652634 0.07359427 3.9761739 1.9246731 -2.492459 -1.0452038 0.6020297 0.49693885
1.6252624 1.0388469 0.008349974 -0.040962797 -4.713298 -1.2082644 -2.1347418 -2.9015243
-0.09047762 -0.52635556 -1.4582402 -4.3270583 -0.6969554 1.4101896 0.0912412 2.3913474
-1.4779857 -0.68875897 -1.342917 2.678269 -0.49612117 -0.6516273 -0.42514905 0.44026572

0.bias f4 [24]
00000000: 79d9 88bf bbe9 b7bf 86dd 37c0 6d83 72c0
00000010: 0c3d 5740 6e0a acc0 2143 43c0 418f 00c0
00000020: f3b4 cdc0 ae82 24bf bec9 2bbf b95d 2a40
00000030: a3a5 d93f ec56 dec0 91bc 9340 31d7 d4c0
00000040: 33ae 0ec0 4348 5d40 8d9d 48bf 2128 0b40
00000050: 018c fa3e 5126 d93e 3ecd 3dc0 12f3 b0c0
-1.0691367 -1.4368204 -2.8728957 -3.7892716 3.363101 -5.376273 -3.0509722 -2.0087435
-6.4283385 -0.642619 -0.6710471 2.6619704 1.7003673 -6.9481106 4.6167684 -6.6512685
-2.2293823 3.4575355 -0.78365403 2.1743243 0.4893494 0.42412046 -2.965652 -5.5296717

2.weight f4 [24, 24]
00000000: d8b2 2140 0623 03c0 b765 a93f e8bf 4640
00000010: ec2d ecbf 91fa 4840 ea50 9bc0 8ccf 96bf
00000020: e1e2 6b40 388a 1b3d 4ba7 2cbd 4e52 fcbf
00000030: 6f77 1fc0 fe15 b33f e8d3 20c0 c0f7 9540
00000040: f5ed 093e ec2c bd3e 57cf f7bd 682d 65c0
00000050: b1bc b5c0 b86c 1c3f 395b ca40 73bb c540
00000060: cf38 b4bf 5ae5 f6bf a680 953f 2580 293f
00000070: 3c75 9ac0 b015 893f c2a2 0640 cc66 1c3f
00000080: 2c83 f9bd 3245 753d 5eef 7a3d 25ce 15c0
00000090: f45a a0bf a861 9f3f eec0 29c0 a846 dd3f
000000a0: b89e 61c0 ce31 2bc0 4f20 96be 59e9 57c0
000000b0: df28 c03f 2168 78c0 8e68 babf 0077 593f
000000c0: 2581 02c0 fd0e 87c0 02a6 e43f e20d b73f
000000d0: b5b2 9ec0 b6c2 7c3f bc8f 693f d575 92bd
000000e0: 0b75 303f 8c28 2bbd b149 c1bd 213a 5bbf
000000f0: 5090 00c0 c2a6 753f 7e73 b8bf 2be7 143f
00000100: 7824 8ec0 6644 17c0 32f2 eebe aa4a abc0
00000110: ef1d b43e 99f8 72c0 11be b3bf 0328 923f
00000120: 9996 8c3f 04f0 3ebe 636a a0bf a692 2240
00000130: 18ea 2fc0 9848 6f3e d054 843e 175c 883f
00000140: 7790 193f eaf8 bf3d d01c a33d 692f a6c0
00000150: b29d 05c0 10e8 213d 6cb6 24bf 6e67 123f
00000160: ce50 953e ebf0 5abe 99bc 6dc0 7c62 89c0
00000170: 6147 583f 693d 0cc1 8fcd 96bf 8448 3640
00000180: a0b6 14c0 1643 f83f 2b8e c93f 6e7e 1e40
00000190: da9f 11c1 cb93 e53f 94df 4a40 3590 993f
000001a0: 4f60 06c0 ff64 0b3e 693d 08be d2d5 f83e
000001b0: 26d0 c13f e557 c33f ddcd edc0 e75a 0c40
000001c0: 9525 c0bf c1f7 ce3d c0d1 4c3d 26d8 183e
000001d0: 28a9 853f 6dd1 2dc0 a8e8 84c0 091e cb3f
000001e0: 765b 34be af68 10bb d523 9cbe 116f 61be
000001f0: 4b9e 243d 53af 64be 2506 373d fb88 233c
00000200: 51b3 80bc 0ade 063e abd0 d63d ef20 17be
00000210: 4657 74be 93c1 a73d e1d7 5ebe 4897 5dbe
00000220: 35f5 b7be 1a30 c4be 679e 73bd 5c6e e9be
00000230: 3f04 2cbe a154 f8bc f8d8 b23d 33f7 3cbe
00000240: ea61 42be e425 49be e4b5 c7bd d310 09be
00000250: 7cb4 34be 3bea 9abe dc1a 113d 0df0 3ebd
00000260: 0a4a 86bd 004a d3bb ec98 e13d 47b8 09be
00000270: 96ec 00be f464 1dbe 9b7e 95be b798 363d
00000280: b9bd b93c 55e8 6abe 7e59 86be 299d 943d
00000290: d1b8 1bbe ef41 d7bd c1b4 8d3d 2c67 c8bd
000002a0: 39e1 92be 2ebf dabe a0ee 45bd ceb4 cebe
000002b0: 1f03 b4bd cc08 29bd 06eb 3bbe 3080 64bc
000002c0: a051 d7bb 7c21 203d 30b5 b5bc 7a12 14bd
000002d0: a5b7 b9be 58f3 6cbd 794e 99be d866 26bd
000002e0: 7990 cabe ad42 8abe d275 d6bd c0c1 ba3b
000002f0: b0fe 863c ad3d acbe 8935 e3bd 6024 e23c
00000300: ba7e ba3f 4921 32be f975 4d3e 4d85 e6bf
00000310: 46b7 ccc0 3aae 8a40 3705 6d40 7c29 0940
00000320: f876 c1c0 00fd b63d 4886 1bbc 881f bdbf
00000330: ff6f edbf 98fc 49c0 0dd8 1fc0 183d 82be
00000340: 4fca b6bf 5a3e bec0 d1d8 57bd 3f87 c6c0
00000350: 8815 2cbd dc91 13c0 92c3 6ebe 519b b2c0
00000360: 33d1 fcbf 017c 0cc0 c1fd 923f 459f 683f
00000370: 65fb 95c0 b965 f73e 7664 e23f fb11 323e
00000380: 6e75 973d af96 d2bd 5885 0dbc 7dd2 b9bf
00000390: 0c9f b6bf aabf 843f f0d0 b6bf 446a 943f
000003a0: 821e 91c0 554d d4bf 2206 b53d 23ef 89c0
000003b0: ecb6 823f 0e93 4ac0 3fe9 0cbf 1af8 453f
000003c0: cf6c 8c3f e022 4e3f bd51 3a3f a4e2 663f
000003d0: af16 c53d 1f24 93bd da66 96c0 a219 d6bf
000003e0: c6a1 c2bf cbb2 843d e23b 563e e502 963f
000003f0: 9551 76bf 5405 0e40 251b 1bbd 91f7 8b40
2.5265408 -2.0490127 1.3234166 3.105463 -1.8451514 3.1402934 -4.853627 -1.1782088
3.6857226 0.037973613 -0.04215173 -1.9712617 -2.4916646 1.3991086 -2.5129337 4.686493
0.1346968 0.36948335 -0.12100094 -3.5808964 -5.6792836 0.6110339 6.3236356 6.179132
-1.4079837 -1.9288743 1.1679885 0.6621116 -4.826811 1.0709743 2.103684 0.61094356
-0.12183222 0.059880443 0.061263435 -2.340707 -1.2527757 1.2451677 -2.6524005 1.7287188
-3.5253124 -2.6749148 -0.29321525 -3.3736174 1.5012473 -3.8813555 -1.4563158 0.84947205
-2.0391324 -4.2205796 1.7863162 1.4301112 -4.959315 0.98734605 0.91234946 -0.07151381
0.68928593 -0.041786715 -0.09437884 -0.8563557 -2.0088081 0.9595758 -1.4410245 0.58165234
-4.4419518 -2.3635497 -0.46669155 -5.3528643 0.35179088 -3.7964232 -1.4042379 1.1418461
1.0983459 -0.18646246 -1.2532467 2.5402007 -2.748663 0.23367536 0.25845957 1.0653104
0.5998606 0.093736485 0.0796448 -5.1932874 -2.08775 0.039527953 -0.64340854 0.5718907
0.29163212 -0.21380965 -3.714636 -4.293272 0.84483916 -8.764993 -1.1781482 2.848176
-2.3236465 1.9395473 1.5746511 2.4764667 -9.101526 1.7935728 3.1698961 1.1997133
-2.0996282 0.13612746 -0.13304676 0.48600632 1.5141647 1.5261198 -7.43138 2.1930482
-1.5011469 0.10105849 0.05000472 0.14926204 1.0442247 -2.7159073 -4.1534004 1.5868541
-0.17613015 -0.0022035053 -0.30496088 -0.22015025 0.040190022 -0.22332506 0.044683594 0.009981389
-0.015710505 0.13170639 0.10489019 -0.14758657 -0.23861417 0.08191218 -0.21762039 -0.2163974
-0.35929266 -0.3831795 -0.059477236 -0.4559201 -0.16798495 -0.030313792 0.0873279 -0.18453674
-0.18982664 -0.1964336 -0.0975149 -0.13385324 -0.17646974 -0.3025683 0.035426006 -0.04661565
-0.065570906 -0.0064480305 0.11015496 -0.13449202 -0.1259025 -0.15370542 -0.29198155 0.044579234
0.022673475 -0.2294019 -0.26240152 0.072565384 -0.1520722 -0.10510623 0.06919242 -0.097853035
-0.28687456 -0.42723984 -0.048323274 -0.40372318 -0.08789658 -0.041268155 -0.18351373 -0.013946578
-0.0065710098 0.039094433 -0.022181123 -0.036150433 -0.36272922 -0.05784926 -0.29942682 -0.040625423
-0.3956335 -0.27003995 -0.10471691 0.0056993663 0.016478866 -0.33640805 -0.110941954 0.027605236
1.4569924 -0.1739551 0.20064534 -1.800943 -6.3973722 4.333768 3.7034433 2.143157
-6.0457726 0.08934975 -0.009492464 -1.4775248 -1.8549803 -3.156042 -2.4975617 -0.25437236
-1.428049 -5.9451113 -0.052697007 -6.2040095 -0.04201272 -2.3057775 -0.23316792 -5.5814595
-1.9751343 -2.1950686 1.148369 0.90868026 -4.686938 0.48319796 1.7686908 0.17389672
0.07395445 -0.10282647 -0.008637749 -1.4517361 -1.4267287 1.0370991 -1.4282513 1.159493
-4.534974 -1.65861 0.0883906 -4.3104415 1.0212073 -3.1652255 -0.55043405 0.773317
1.0970706 0.80521965 0.7278097 0.90189576 0.09623467 -0.07184624 -4.700055 -1.6726573
-1.5205619 0.064794146 0.20921281 1.1719633 -0.96218234 2.2190752 -0.037867684 4.3739705

2.bias f4 [24]
00000000: 3fcf 07c0 4ea0 cbbf 60d3 d4bf f718 53c0
00000010: 30fa 4c3f b6fc 4abe 0cb0 66be 0a2a 8abe
00000020: 7b37 463e a93e e6bf 1508 bc3f f4fd 13c0
00000030: 3dcf eabd 9ea5 c9bf 78da 0ebd 29ec b83f
00000040: e4a9 ba3f de1a bb3f 20b8 3b40 f05a 01c0
00000050: 6e51 253e 5708 8c3f 326f 8040 0f0c 20c0
-2.1220243 -1.5908296 -1.6627007 -3.2983987 0.80069256 -0.19822964 -0.22528094 -0.26985198
0.19357102 -1.7987872 1.4689966 -2.312375 -0.11465309 -1.5753667 -0.034876317 1.444707
1.4583097 1.4617574 2.933113 -2.0211754 0.16144344 1.0940045 4.0135736 -2.500736

4.weight f4 [4, 24]
00000000: c5be 7c40 4356 ae3f f758 bcbf 5fba 9540
00000010: 7331 6840 59b7 b43d 4ce0 5cbd 669a 22be
00000020: 254c 8a40 0786 043f db1d aa3f d197 43c0
00000030: 95bc 9cbe d725 25bf a86e dfbc 1d87 51bf
00000040: f132 783f bc5e 83bf 25f7 0240 1487 45c0
00000050: 2fce 3ebf bc30 873f c70f 14be 2f35 cec0
00000060: 2e25 5f40 5fc0 d83f 3d59 de3d 3ee9 6040
00000070: 7783 7c40 9779 b63d 319b 0bbc c0d3 413d
00000080: cc39 aa40 d691 2b3f 65ce d63f 669d c3c0
00000090: e6c7 63c0 edb2 bd3f 4b51 f23a 5edb 7e40
000000a0: 2f5d 2d40 89d8 05bf d617 17bf 2453 aebf
000000b0: 3031 bb3c 7830 f5bf 9a0f 91bf 1583 6240
000000c0: a792 1a40 11d5 393e e7bd 0a40 8ff5 e63f
000000d0: 736a d63d 56cc 643a c5ee 01be e798 1fbe
000000e0: f352 873f d227 6040 e4c8 b43f 5c56 adbf
000000f0: 1119 8bbf c2a4 af3f dddf 6d3d e850 1c3e
00000100: 33f0 5bbe 6f71 803f 54ea 7f3f 5042 bbbf
00000110: 747e 09bf 3035 4a3e 91b4 b03f d7f8 fe3d
00000120: 1353 5b40 4134 353f e384 2e40 1aca 8d40
00000130: bf9b a33f e01d 54be 3a8b 4bbe 0145 1e3e
00000140: 2c87 5240 3745 423f 870a e23f aac7 5abf
00000150: d3ed 38bf 3d6a ee3f 52cb 84bd 7f69 023f
00000160: 8633 b6be b57c 953f cc55 b33f 5710 ba3e
00000170: 278d 44c0 b936 3bc0 8b92 7d40 d423 6fc0
3.9491436 1.3620075 -1.471465 4.6790004 3.6280181 0.08824033 -0.053924844 -0.15879211
4.321795 0.5176701 1.3290361 -3.0561411 -0.30612627 -0.64510864 -0.027274445 -0.8184679
0.9695273 -1.0263286 2.0463345 -3.0863695 -0.7453336 1.0561748 -0.14459144 -6.443992
3.4866443 1.6933707 0.108568646 3.514236 3.945524 0.0890991 -0.008520887 0.04732108
5.3195553 0.67019403 1.6781737 -6.1129637 -3.5590758 1.4820229 0.0018487362 3.982139
2.7088125 -0.5228353 -0.59020746 -1.3619123 0.022850603 -1.9155416 -1.1332886 3.5392506
2.415201 0.18147685 2.1678407 1.8043689 0.10469522 0.0008727958 -0.1268874 -0.15585671
1.0572189 3.5024304 1.4123807 -1.354198 -1.0867025 1.3722155 0.05807482 0.15265238
-0.21478347 1.0034617 0.9996693 -1.4629612 -0.5370858 0.19746852 1.3805104 0.12449806
3.4269454 0.7078286 2.7268608 4.4309206 1.2781905 -0.20714521 -0.1987733 0.1545601
3.2895002 0.75886863 1.7659463 -0.85460913 -0.7223789 1.8626171 -0.06484093 0.50942224
-0.35586184 1.1678683 1.4010558 0.3634059 -3.0711153 -2.925215 3.9620693 -3.7365618

4.bias f4 [4]
00000000: 9af2 2dc0 be99 0140 4f6c b7c0 150a ba3f
-2.7179322 2.0250087 -5.7319713 1.4534327
