logs_5/logs/target_params_A_4.pt (torch, 6247 bytes, 6 tensors)

0.weight f4 [24, 12]
0	0xbdd990ba	-0.106233075
1	0xbd8f8042	-0.07006885
2	0xbe5331fc	-0.20624536
3	0xbe0641fa	-0.13111106
4	0x3e872d00	0.2640152
5	0x3e6ee7d0	0.23330617
6	0x3d8011f0	0.06253421
7	0x3c049ce0	0.008094043
8	0x3b420200	0.0029603243
9	0x3d8e8b24	0.06960133
10	0x3e238bf8	0.15971363
11	0x3e8360d4	0.25659811
12	0x3d3e5240	0.04646516
13	0x3e738480	0.23781013
14	0x3e87a15a	0.2649029
15	0xbe6002a2	-0.21876004
16	0x3d362b90	0.04447514
17	0x3e0a21c8	0.13489449
18	0xbd765a48	-0.060144693
19	0x3e506b64	0.20353466
20	0x3e62270c	0.22085208
21	0xbe2542b2	-0.16138723
22	0xbdf5f5d2	-0.12009777
23	0x3e60dfc8	0.21960366
24	0x3cc967e0	0.024585664
25	0xbe315e09	-0.17321028
26	0x3dd8fd38	0.10595173
27	0x3e669468	0.2251755
28	0xbe043355	-0.12910207
29	0xbd85052e	-0.064951286
30	0xbdd73324	-0.10507801
31	0x3e93502e	0.2877211
32	0xbe17b126	-0.1481367
33	0x3e7fe884	0.24991041
34	0x3e7f52b4	0.24933892
35	0xbe5ad204	-0.21369177
36	0x3e1f016e	0.15527889
37	0x3e2b7646	0.16744336
38	0xbdf5d9e8	-0.12004453
39	0x3deaf6e8	0.11472875
40	0x3e8d4524	0.27591813
41	0xbd9e9aae	-0.077443466
42	0xbd5668b8	-0.05234596
43	0x398e7000	0.00027167797
44	0xbd5d1190	-0.053971827
45	0xbd098800	-0.033576965
46	0x3d8669a0	0.06563115
47	0x3e829e5a	0.25511438
48	0xbda68ad4	-0.08131948
49	0x3e6ef750	0.2333653
50	0xbe4e3e3d	-0.2014093
51	0x3e8c2b32	0.27376705
52	0x3e2f0f76	0.17095742
53	0xbe66a5c8	-0.22524178
54	0xbe87a840	-0.26495552
55	0xbe054e2e	-0.13018104
56	0xbddde7f6	-0.10835259
57	0xbd8f829e	-0.07007335
58	0xbe3dbc10	-0.18528771
59	0x3df1f0a0	0.11813474
60	0x3dcb07ac	0.09913573
61	0xbe75b6d3	-0.23995523
62	0x3d158028	0.036499172
63	0xbe81b80a	-0.25335723
64	0xbe4ecd08	-0.201954
65	0xbe2ebadc	-0.17063469
66	0x3dde303c	0.10849044
67	0x3e4f7dce	0.20262834
68	0xbcb61b00	-0.022229671
69	0xbe730c1a	-0.23735085
70	0x3e6f6684	0.2337895
71	0xbe776d45	-0.24162777
72	0xbe92e87e	-0.28693002
73	0xbd3a8b10	-0.045542777
74	0x3d772d38	0.06034586
75	0x3e766968	0.24063647
76	0x3df04d38	0.11733478
77	0xbe4e070e	-0.20119879
78	0xbe4a7bec	-0.19773835
79	0xbe254c84	-0.1614247
80	0x3e01dca6	0.12681827
81	0x3e5c361c	0.21505016
82	0x3ddd7ae8	0.10814458
83	0xbe3dfdf6	-0.1855391
84	0x3d8a6748	0.067579806
85	0x3e80ed76	0.25181168
86	0x3df00ba8	0.11720973
87	0x3e1e3a96	0.15452036
88	0xbe75f717	-0.24020039
89	0xbe68a932	-0.22720793
90	0x3e30d460	0.17268515
91	0xbdd70968	-0.10499841
92	0xbd0216b8	-0.031759948
93	0x3e48f788	0.19625676
94	0xbe3c06b8	-0.18361938
95	0xbe022633	-0.12709884
96	0xbe6857f8	-0.22689807
97	0x3c849bb0	0.016187519
98	0x3dc261f0	0.09491336
99	0xbe5174b2	-0.20454672
100	0xbe2a405a	-0.1662611
101	0x3de28970	0.110613704
102	0x3e0ce898	0.13760602
103	0x3e8ea6b8	0.2786157
104	0x3d902c48	0.07039696
105	0xbe514f3a	-0.20440379
106	0x3d962fb8	0.073333204
107	0x3d80b9b0	0.06285417
108	0xbe33c36d	-0.17555018
109	0xbe3ce94e	-0.18448374
110	0xbd682584	-0.056676403
111	0xbe16c775	-0.14724524
112	0x3e91305c	0.28357208
113	0x3e1644f0	0.14674735
114	0xbe3f1018	-0.18658483
115	0x3de5464c	0.11195049
116	0xbe9346e1	-0.28765014
117	0xbdfe58ee	-0.12419306
118	0x3d9c9ac4	0.07646707
119	0xbe91771a	-0.2841118
120	0xbcc92310	-0.024552852
121	0x3e44b362	0.19209054
122	0xbdf68aa6	-0.12038164
123	0x3cf04de0	0.029334009
124	0xbdea78de	-0.11448835
125	0xbe8e7fef	-0.2783198
126	0x3de9e9f4	0.11421576
127	0x3e8c9b50	0.27462244
128	0x3e783b54	0.24241382
129	0xbdc23c70	-0.09484184
130	0xbe4d3c10	-0.20042443
131	0x3d25adc0	0.040448904
132	0xbe6c6eb0	-0.23089099
133	0x3d547ca8	0.051876694
134	0x3e8b0d90	0.27158785
135	0xbd1cee68	-0.0383133
136	0xbe87e5c1	-0.26542476
137	0xbdeddd30	-0.11614454
138	0xbd777cdc	-0.06042181
139	0xbe731036	-0.23736653
140	0x3d5e74f8	0.05431077
141	0xbdc2b862	-0.095078245
142	0xbe0f906a	-0.14019933
143	0xbe610248	-0.21973526
144	0xbd9efd64	-0.07763174
145	0xbe7d0f38	-0.24712837
146	0xbc0439a0	-0.0080703795
147	0xbe148ee7	-0.14507638
148	0xbe5f2fe8	-0.21795619
149	0xbe8f064d	-0.27934495
150	0x3e34078e	0.17581007
151	0xbe77eaa0	-0.24210596
152	0x3e8e06f0	0.27739668
153	0xbc770680	-0.015077233
154	0x3e6fbe2c	0.23412389
155	0x3e8f2766	0.27959746
156	0x3e5de064	0.2166763
157	0x3e63260c	0.22182482
158	0x3d7279d8	0.05919823
159	0x3e8b9dfa	0.27268964
160	0x3db746a0	0.089490175
161	0x3e7f4158	0.2492727
162	0xbdfd1914	-0.12358299
163	0x3e8b51ea	0.27210933
164	0x3e9203a2	0.28518397
165	0xbd811a12	-0.06303801
166	0xbe8520a0	-0.26001453
167	0x3e781250	0.24225736
168	0x3e470a2a	0.19437471
169	0x3df47190	0.11935723
170	0xbe8facab	-0.28061423
171	0x3e3460a8	0.17614996
172	0x3e92ca36	0.286699
173	0xbe379e6a	-0.17931524
174	0x3a5a4000	0.0008325577
175	0x3cd4ef60	0.02599305
176	0xbe8b6419	-0.27224806
177	0xbe1042f1	-0.14088036
178	0x3e46e500	0.19423294
179	0xbe8f10c8	-0.2794249
180	0xbd2c9b40	-0.042140245
181	0x3c24db80	0.0100620985
182	0xbdfd9736	-0.12382357
183	0x3d4de4c8	0.05026701
184	0xbe6a6d9c	-0.22893375
185	0x3deeaf14	0.11654487
186	0xbe72bd0a	-0.23704925
187	0x3d622ef0	0.055220544
188	0x3e4d79b2	0.20065954
189	0xbc82ead0	-0.015981108
190	0x3e40f446	0.18843183
191	0xbe66ba6e	-0.22532055
192	0xbca6d3c0	-0.020364642
193	0xbe687ef7	-0.22704683
194	0x3e8fd76a	0.28094035
195	0x3e4f0f12	0.20220593
196	0xbde05a1a	-0.109546855
197	0x3e66eaec	0.22550553
198	0x3d641530	0.05568427
199	0x3d77f1f0	0.060533464
200	0x3e7fbabc	0.24973577
201	0xbd8965d6	-0.06708877
202	0xbdc5e620	-0.096630335
203	0xbe8413ed	-0.25796452
204	0xbe82373b	-0.25432763
205	0x3e8ba512	0.27274376
206	0x3df31b08	0.1187039
207	0xbe066432	-0.13124159
208	0xbe7a4cc4	-0.24443346
209	0xbe43e5e8	-0.19130671
210	0xbde6fff8	-0.11279291
211	0x3e0ef50e	0.13960668
212	0x3d22b388	0.039721996
213	0xbe22f212	-0.15912655
214	0xbe2b9cb1	-0.16758992
215	0x3db77c14	0.08959213
216	0xbd051b40	-0.03249669
217	0x3e2ab528	0.16670668
218	0xbe7e4820	-0.24832201
219	0x3e3d3d62	0.18480447
220	0xbbdd1900	-0.006747365
221	0xbdd0949e	-0.101845965
222	0x3d5b2188	0.053498775
223	0xbe8ce620	-0.2751932
224	0xbd8adb14	-0.06780067
225	0x3dcb1aec	0.09917244
226	0x3dad6fa0	0.084685564
227	0x3dfed5ec	0.12443146
228	0x3d22ef80	0.039779186
229	0x3e731c84	0.23741347
230	0x3e5f4380	0.21803093
231	0x3e32ae54	0.17449313
232	0xbe8684ce	-0.26273197
233	0xbda5b6de	-0.0809152
234	0xbd4df448	-0.050281793
235	0x3e7f12ac	0.24909467
236	0x3de1a158	0.11017102
237	0x3d231d30	0.039822757
238	0x3dade914	0.08491722
239	0xbdeae72a	-0.11469872
240	0x3e2fb410	0.17158532
241	0x3e252660	0.1612792
242	0x3da43fec	0.08020005
243	0x3d50ea60	0.051004767
244	0x3e6db780	0.23214531
245	0x3e1f2b5c	0.15543884
246	0x3e77eb48	0.24210846
247	0xbdf4d304	-0.119543105
248	0x3cca9df0	0.024733514
249	0xbe641658	-0.22274148
250	0xbe5eda1a	-0.21762887
251	0xbe29464e	-0.16530725
252	0x3e485da6	0.19566974
253	0x3de28bb4	0.110618025
254	0x3da9be90	0.082883
255	0x3e31bb5e	0.17356631

0.bias f4 [24]
0	0x3e340560	0.17580175
1	0x3de95284	0.11392692
2	0x3e116116	0.14197192
3	0x3c717c40	0.014739096
4	0xbe26f80e	-0.16305563
5	0x3c459d20	0.012061387
6	0xbcc92990	-0.024555951
7	0x3dfe392c	0.124132484
8	0xbdaf78b4	-0.08567944
9	0x3ded2094	0.115784794
10	0xbe258ab5	-0.16166194
11	0x3cadaf80	0.021201849
12	0xbde6d702	-0.11271478
13	0x3d8aa564	0.06769827
14	0xbe895d38	-0.26828933
15	0x3d9bfeb8	0.07616943
16	0xbe44ddd3	-0.19225244
17	0xbe17442c	-0.147721
18	0xbe1a4d91	-0.15068652
19	0x3e872554	0.26395667
20	0x3bb53a40	0.0055306256
21	0xbe8c8fca	-0.27453452
22	0xbe5767a4	-0.2103563
23	0x3e4a6a0e	0.19767019

2.weight f4 [24, 24]
0	0x3e2d3d08	0.16917813
1	0x3e2d2134	0.16907197
2	0x3e1319da	0.1436533
3	0x3d4b56f8	0.049643487
4	0x3e2b9f54	0.16759998
5	0xbd6cefe0	-0.05784595
6	0xbc317450	-0.010830954
7	0x3d29a66c	0.041418478
8	0xbe11b689	-0.14229788
9	0x3cca0a78	0.024663195
10	0x3e339246	0.17536268
11	0x3e03984a	0.12851062
12	0xbdc19271	-0.094517596
13	0x3d245918	0.04012403
14	0x3e2d22be	0.16907784
15	0x3d8b8460	0.06812358
16	0xbdfabb2f	-0.12242734
17	0x3d2e2a88	0.04252103
18	0x3d90d0e0	0.0707109
19	0xbd8d8dc0	-0.06911802
20	0xbdc55a69	-0.09636385
21	0x3d3525ac	0.04422538
22	0x3dc01378	0.09378713
23	0x3de95c1c	0.113945216
24	0xbe4093d3	-0.1880639
25	0x3e0f2ce2	0.13981965
26	0xbe27f596	-0.16402277
27	0x3d741760	0.059592605
28	0xbd3d9e48	-0.046293527
29	0xbe267244	-0.16254526
30	0xbe0bf922	-0.13669255
31	0x3e3aeda2	0.18254712
32	0x3daeb334	0.08530274
33	0x3e0a369a	0.13497391
34	0x3cf8e770	0.030383795
35	0xbe06ab93	-0.13151388
36	0x3dd8b864	0.10582045
37	0x3ca0be00	0.019621849
38	0x3ddde06c	0.10833821
39	0xbe406bd6	-0.18791136
40	0xbd2e83fc	-0.04260634
41	0x3e07a1e6	0.13245353
42	0xbe04826a	-0.12940374
43	0xbd803f9c	-0.062621325
44	0x3d81c804	0.06336978
45	0xbdd86be7	-0.10567456
46	0x3df276d8	0.11839074
47	0x3dd9d488	0.1063624
48	0xbe1d5ba2	-0.15366986
49	0xbe4e82e4	-0.20167118
50	0x3d443448	0.04790142
51	0x3d159db4	0.03652735
52	0xbe47ab6e	-0.19498989
53	0xbd4cbc2c	-0.049984142
54	0xbdc7f36c	-0.09763226
55	0x3e131b8e	0.1436598
56	0xbd9178ec	-0.07103142
57	0x3c055980	0.008139014
58	0xbe328cee	-0.17436573
59	0xbd45b2a0	-0.048266053
60	0x3d06ddf8	0.03292653
61	0x3e0c9ef2	0.13732508
62	0x3e460df4	0.1934126
63	0x3e0a6f3c	0.13518995
64	0xbbbca720	-0.0057572275
65	0xbe2d8ca9	-0.16948189
66	0xbe3f3f37	-0.18676458
67	0x3e2f242a	0.17103639
68	0x3e3eaea6	0.1862131
69	0xbda6d2f5	-0.081457056
70	0xbe3e7a89	-0.18601431
71	0xbdb67753	-0.08909478
72	0xbdefb218	-0.117038906
73	0x3d6cd198	0.05781707
74	0x3cce7d28	0.025206164
75	0xbe495407	-0.1966096
76	0x3e2c9d1c	0.16856807
77	0x3dc930d0	0.09823763
78	0x3da31fc0	0.0796504
79	0x3e177ee4	0.14794499
80	0x3ddd7cfc	0.108148545
81	0x3e40bb20	0.18821383
82	0xbda490a3	-0.080354
83	0x3e0e5b5c	0.13902038
84	0x3c878310	0.016541988
85	0x3d16e144	0.036835924
86	0x3bcab860	0.00618653
87	0x3da87b30	0.08226621
88	0xbc704b60	-0.014666408
89	0x3df43698	0.119244754
90	0xbcad5410	-0.021158248
91	0x3d35da58	0.044397682
92	0x3ddaa160	0.10675311
93	0xbe00a746	-0.1256381
94	0x3e4ef644	0.2021113
95	0x3e03df2c	0.12878102
96	0xbcd65030	-0.026161283
97	0x3de19d38	0.11016315
98	0xbdd393e6	-0.10330944
99	0xbe17d82e	-0.1482856
100	0xbbb72fe0	-0.005590424
101	0x3e40cd48	0.18828309
102	0x3da69c74	0.0813531
103	0xbdb9b763	-0.09068181
104	0x3e41665e	0.18886706
105	0xbe3c4056	-0.18383917
106	0xbe19f264	-0.15033871
107	0xbdd2de3a	-0.102962926
108	0xbccab8c8	-0.024746314
109	0x3c137ab0	0.009001419
110	0x3c18fdd0	0.009337857
111	0x3de0b944	0.109728366
112	0xbdfb5e17	-0.122738056
113	0x3e22034a	0.15821567
114	0x3cdac3d0	0.026704699
115	0xbdfdb5ef	-0.12388217
116	0x3e505902	0.20346454
117	0x3bb70b20	0.005586043
118	0xbd82bd96	-0.06383817
119	0xbe13c992	-0.14432362
120	0x3d2ee310	0.042697012
121	0x3d81a16c	0.06329617
122	0x3dd9af40	0.106291294
123	0x3d9fcaa8	0.078023255
124	0xbb4f9680	-0.0031675398
125	0xbe4169c0	-0.18887997
126	0x3cfe1110	0.031013995
127	0x3d121444	0.035663858
128	0x3ce1f8b0	0.027584404
129	0xbe0d9d6d	-0.13829584
130	0xbe230c12	-0.15922573
131	0x3da429d4	0.080157906
132	0x3d95ab14	0.07308021
133	0xbdde418e	-0.10852347
134	0xbdd67886	-0.10472207
135	0xbe15fcd2	-0.14647225
136	0x3db64e6c	0.089016765
137	0xbcf8f2e0	-0.03038925
138	0x3e080df0	0.13286567
139	0xbd5deba0	-0.054179788
140	0xbe0b0fba	-0.13580218
141	0xbdd554ba	-0.10416551
142	0x3e1982c4	0.1499129
143	0x3e3d65aa	0.18495813
144	0x3c90ef98	0.017692372
145	0xbe3639da	-0.17795506
146	0x3ca380b0	0.019958824
147	0x3d667998	0.056268305
148	0x3df53ddc	0.11974689
149	0xbca649c0	-0.020298839
150	0x3c9a5840	0.018840909
151	0x3d3fba88	0.04680875
152	0xbe29fc49	-0.16600145
153	0xbd237aa8	-0.039911896
154	0x3e473416	0.19453463
155	0x3e469198	0.19391477
156	0x3e1e3216	0.15448794
157	0x3d8b3504	0.06797221
158	0x3e249740	0.16073322
159	0xbe1051e1	-0.14093734
160	0xbe4c90b0	-0.19977069
161	0x3ba67b80	0.0050806403
162	0xbe4259c3	-0.18979554
163	0xbc193d80	-0.009353042
164	0x3db674d0	0.08908999
165	0xbdfe45c3	-0.1241565
166	0xbe45aca4	-0.19304138
167	0x3dbd6478	0.092476785
168	0xbe33d1c4	-0.17560488
169	0x3db030bc	0.08603045
170	0xbcb7e300	-0.02244711
171	0xbdd426b7	-0.10358947
172	0xbe21b9e2	-0.15793565
173	0xbe3b5b3b	-0.1829652
174	0x3dbb9be4	0.09160593
175	0xbe47d4b4	-0.19514734
176	0xbd9c6954	-0.07637277
177	0xbe117e92	-0.14208439
178	0xbd8e6086	-0.06952004
179	0x3d8350f4	0.06411925
180	0xbaec8100	-0.0018043816
181	0x3cc881c8	0.024475947
182	0x3e338fb6	0.1753529
183	0x3df1da34	0.11809197
184	0xbde78239	-0.11304135
185	0xbd1a06dc	-0.037604198
186	0x3dff2f0c	0.12460145
187	0xbdaaf4aa	-0.08347447
188	0xbdceaa54	-0.10091081
189	0xbe4ba526	-0.19887218
190	0xbc5fd040	-0.0136604905
191	0x3e172ff2	0.14764383
192	0xbdeae425	-0.11469296
193	0x3cd5c630	0.02609548
194	0xbd25f21c	-0.040514097
195	0x3d7716b0	0.06032437
196	0xbe228631	-0.15871502
197	0x3e1b50de	0.15167567
198	0xbe268a47	-0.16263686
199	0x3cb90cf8	0.022589192
200	0x3daceff8	0.08444208
201	0x3dd1e8e0	0.102494955
202	0xbe1f2ffe	-0.15545651
203	0x3da92ef4	0.08260909
204	0xbe2db7ec	-0.16964692
205	0xbdba617f	-0.09100627
206	0x3d833f88	0.06408602
207	0x3e08dc40	0.13365269
208	0xbe2ea849	-0.17056383
209	0xbe118be1	-0.14213516
210	0xbdd01a1f	-0.10161232
211	0xbe25c147	-0.1618701
212	0x3c974a78	0.018468127
213	0xbde58f58	-0.11208981
214	0x3bdb9c20	0.006701961
215	0xbe0e96e2	-0.13924745
216	0x3d537cd0	0.051632702
217	0x3ad89200	0.0016523004
218	0x3e0e7c0e	0.1391451
219	0x3e00afae	0.12567016
220	0x3db256ac	0.087079376
221	0xbdf0abb9	-0.117515035
222	0xbd7ae8cc	-0.06125717
223	0x3a1f5d00	0.0006079227
224	0x3e02645a	0.12733594
225	0xbd67a3fc	-0.056552872
226	0x3e3ec90a	0.18631378
227	0xbc644b00	-0.013933897
228	0x3dd596b8	0.10429138
229	0x3d746d70	0.05967468
230	0x3e39f41e	0.1815953
231	0x3c7d1690	0.015447274
232	0x3dae0488	0.08496958
233	0xbcb85bd0	-0.022504717
234	0xbd3009b0	-0.04297799
235	0x3daa2bb8	0.0830912
236	0x3e2f97cc	0.1714775
237	0x3e4804ac	0.19533032
238	0x3e203200	0.15644073
239	0xbe20fa4e	-0.15720484
240	0xbddeca10	-0.10878384
241	0xbc9b1250	-0.01892963
242	0xbe1dfa2b	-0.15427463
243	0xbd8ce736	-0.068800375
244	0xbe4c6820	-0.19961596
245	0xbdf72441	-0.12067462
246	0xbcf400e8	-0.029785588
247	0x3e1fff66	0.1562477
248	0x3c98a8b0	0.018635124
249	0xbdbe03bb	-0.09278055
250	0xbe1b729c	-0.15180439
251	0x3ce31da8	0.027724102
252	0xbe0bce36	-0.13652882
253	0xbdb7bd08	-0.08971602
254	0x3ccb3580	0.024805784
255	0x3db6f848	0.08934075

2.bias f4 [24]
0	0xbd47e478	-0.04880187
1	0xbdf09b4e	-0.11748372
2	0xbcd6f5a0	-0.02624017
3	0xbcd82160	-0.026383102
4	0xbe05e770	-0.13076568
5	0x3e1426c8	0.14467919
6	0xbe162018	-0.1466068
7	0x3e0d5272	0.13800982
8	0x3e15a312	0.14612988
9	0xbd3de940	-0.046365023
10	0x3d94e7c4	0.07270768
11	0x3e470aca	0.1943771
12	0xbe246969	-0.16055836
13	0x3de1eeb0	0.11031854
14	0x3e1433e6	0.14472923
15	0xbe0e83cc	-0.13917464
16	0x3a8d8400	0.0010796785
17	0xbdd85616	-0.105632946
18	0x3ddb18cc	0.10698089
19	0xbd45c988	-0.0482879
20	0xbcb7bfd0	-0.02243033
21	0x3d1cde80	0.03829813
22	0x3de87e94	0.11352268
23	0x3c940828	0.018070295

4.weight f4 [4, 24]
0	0x3d186264	0.037203208
1	0x3dbd53d4	0.092445046
2	0xbd9f2566	-0.07770805
3	0xbda14b90	-0.078757405
4	0xbd038b5c	-0.032115325
5	0x3df41754	0.11918512
6	0xbdb3b5fc	-0.08774945
7	0x3e319f7a	0.17345992
8	0xbdfbdbee	-0.12297808
9	0x3de25024	0.11050442
10	0xbdf5acc2	-0.119958416
11	0x3e0569b6	0.13028607
12	0xbbcc9aa0	-0.0062440187
13	0x3d50ed80	0.051007748
14	0x3d161240	0.0366385
15	0xbd88a84e	-0.066727266
16	0xbce472c0	-0.027886748
17	0x3bb4ef40	0.005521685
18	0x3e149f6e	0.14513943
19	0x3d7019e0	0.058618426
20	0xbe41a09c	-0.18908924
21	0x3dc0d890	0.09416306
22	0xbda11a3a	-0.078663304
23	0x3c334db0	0.010943815
24	0xbe0548df	-0.1301608
25	0x3dc2bcc4	0.095086604
26	0xbe407742	-0.18795493
27	0x3c80fb98	0.01574497
28	0x3e096676	0.13417992
29	0xbe4d54da	-0.200519
30	0x3db2c248	0.087284625
31	0x3d93c334	0.072149664
32	0x3e48f930	0.19626307
33	0x3d8b598c	0.06804189
34	0x3c085280	0.008320451
35	0x3df19598	0.11796111
36	0xb7c56000	-2.3528934e-05
37	0x3e0961e8	0.13416255
38	0x3cb4cff8	0.022071823
39	0x3e311eee	0.17296955
40	0xbd603f1c	-0.054747686
41	0xbd8da050	-0.06915343
42	0xbc6cbbf0	-0.014449105
43	0x3bf31780	0.007418573
44	0x3d824fc4	0.0636287
45	0x3d743198	0.05961761
46	0xbc291480	-0.010319829
47	0xbd4a97dc	-0.04946123
48	0xbd27cb90	-0.040965617
49	0xbe0719fc	-0.13193506
50	0xbdaf4acf	-0.085591905
51	0x3d48dc38	0.049038142
52	0xbd1d75a0	-0.038442254
53	0x3dd7f944	0.105455905
54	0xbde53a84	-0.111928016
55	0x3da1e6f4	0.07905379
56	0xbe1f9cb0	-0.15587115
57	0xbe4c46ab	-0.19948833
58	0x3d675640	0.05647874
59	0xbc487f00	-0.01223731
60	0xbe3240d1	-0.17407538
61	0x3dda1a48	0.10649544
62	0xbdb765d1	-0.08954967
63	0xbe275871	-0.16342331
64	0xbe29220e	-0.16516897
65	0x3dbacb2c	0.09120783
66	0xbe05ff34	-0.13085634
67	0xbdac162a	-0.08402665
68	0x3da468d8	0.0802781
69	0x3ddea380	0.10871029
70	0x3cc25b60	0.023725212
71	0xbdb7e35e	-0.08978914
72	0x3d5aa9e0	0.05338466
73	0x3b609dc0	0.0034273714
74	0x3e46d418	0.19416845
75	0x3ccb5408	0.024820343
76	0xbb6aa880	-0.0035806
77	0xbd8a8d74	-0.06765261
78	0x3e4ab362	0.19794992
79	0xbe46e961	-0.19424964
80	0x3e0e0c86	0.13871965
81	0xbda469e7	-0.08028012
82	0xbe25db56	-0.16196951
83	0x3dc9b860	0.0984962
84	0x3e1557f4	0.14584333
85	0x3e5001a8	0.20313132
86	0x3e0fea88	0.1405431
87	0xbe18c202	-0.14917758
88	0xbe161377	-0.14655863
89	0x3da57c3c	0.080803365
90	0xbe2a7b33	-0.1664856
91	0xbd0b6bb0	-0.034038246
92	0x3e2862f6	0.16444
93	0xbe10b5b2	-0.14131811
94	0xbdf2918a	-0.118441656
95	0x3d8aea30	0.06782949

4.bias f4 [4]
0	0x3dfdefbc	0.12399241
1	0xbd7597cc	-0.059959218
2	0xbca73858	-0.020412609
3	0xbde65be7	-0.11247998
