logs_400/logs/target_params_B_175.pt (torch, 6263 bytes, 6 tensors)

0.weight f4 [24, 12]
0.12786771 -0.6504495 -0.083850496 1.1118872 -2.6035807 -0.094994135 1.0360858 -0.26903096
-3.27116 1.5138386 1.3682686 0.008909077 0.17122042 0.7516179 0.25686803 1.5771176
0.5142555 -0.044432182 -0.48480585 0.8212104 3.1998837 2.1697214 1.0074586 4.1399465
0.14001772 1.7221107 0.12931974 -1.5328683 0.4648007 -1.0286523 0.75799096 -1.9855123
-5.300042 -3.1727345 -3.4730153 1.2678804 1.8403134 2.2781203 -0.44356933 -0.5911058
-0.609973 -2.0606685 -0.56004304 -0.12944745 -6.547917 -1.2291337 2.0200427 -1.9499723
1.9905933 0.14341894 -0.0566554 -0.34704432 -0.10296524 -0.05485068 -0.010040276 0.08458016
3.2903042 -0.7644411 -1.1455569 -0.33309647 0.56413543 1.7867955 -0.30369756 -0.79968095
-0.8080488 -0.22336444 0.35122007 0.4414012 4.8720145 -1.5647857 -2.5479949 0.25331876
0.30984333 0.8426048 0.005138537 -3.4190834 1.7939473 0.8404479 -0.84491116 -0.01426674
2.1420455 -1.340023 1.6158649 -7.123015 1.3831859 0.89594996 -0.5166709 0.24060754
-0.8388979 0.52809644 -0.80259883 -0.15540424 -4.698863 -0.46030912 -7.150764 -1.2613397
-1.2261463 1.83227 -0.7252445 -1.6348695 -0.46201122 -0.32301942 0.76528794 1.1793765
3.3216348 -0.08976198 -8.445804 1.8140924 0.42059758 0.51806134 -0.082957506 -0.07318305
0.6443813 0.08612824 -0.68755156 -0.45441443 -7.257112 -0.07501972 -7.971657 -3.48129
-0.19064239 0.52650243 0.36303747 -2.5009315 -6.54574 -1.3416752 -0.24103348 1.1265658
4.4696765 -2.4857168 -3.8351495 0.6444005 -0.5075262 -0.21418157 0.024418687 -0.29108196
-0.37843198 -0.21504043 -0.2090229 -0.31317538 -0.20084266 -0.27828324 0.009833147 0.45375073
1.5401969 -0.28135976 -3.4575968 -1.6681465 0.45294884 -4.4946113 1.1549408 0.96952933
2.8344674 -6.3466935 -8.677774 1.155432 0.6213072 0.95632863 -0.6193088 0.21546671
-0.662359 -0.95611995 -0.56607956 -0.10735899 2.6426382 0.9040481 -5.563403 -1.9598817
-0.09424482 -2.2827659 -0.27097622 -0.4807601 0.03443553 0.32530352 -0.5713903 0.7153258
-1.7785673 1.9150441 2.8951237 4.025157 -0.0837675 -0.5572641 -0.8188252 -0.41728044
0.5190435 0.23595457 0.9888822 0.6684931 -4.642968 -0.20727386 3.9739726 5.9258738
0.5668603 -0.8518427 0.24527541 0.24510032 0.47607404 -0.6757364 -0.15844837 0.60074204
-3.7514844 -0.82247716 -0.5438284 1.482341 2.33384 1.9762396 -1.0205654 -0.43331853
0.23705755 -1.0338383 -0.7292421 -0.27134067 -1.2348677 -0.8338707 -1.6062397 -4.7419415
0.16951135 0.006166076 -0.32123327 0.047180228 -1.8279175 0.7283234 -0.05815026 -0.01975153
5.3707094 -0.6597888 -0.557988 -3.2114892 -1.1339424 -2.451581 -0.11202378 -0.018986046
-0.02188025 -0.102326 0.9920751 2.332656 -2.7808256 -0.27721614 -0.6666807 -0.85305554
0.05968749 0.67344177 -0.029245693 -0.23132257 0.91702896 0.5477405 2.0967262 1.0419883
-0.67912084 2.4268646 3.0458424 2.1245198 -3.205776 0.86429644 0.79190886 0.2806104
00000000: c1ef 023e dc83 26bf cfb9 abbd 5252 8e3f
00000010: 11a1 26c0 498c c2bd 769e 843f 6dbe 89be
00000020: af5a 51c0 77c5 c13f 6d23 af3f 61f7 113c
00000030: 6854 2f3e 086a 403f 3584 833e fdde c93f
00000040: 40a6 033f 85fe 35bd 7938 f8be d83a 523f
00000050: e5ca 4c40 b7dc 0a40 67f4 803f 717a 8440
00000060: ce60 0f3e 206e dc3f 656c 043e 0735 c4bf
00000070: 5bfa ed3e e1aa 83bf b20b 423f 4425 febf
00000080: f299 a9c0 150e 4bc0 e245 5ec0 e849 a23f
00000090: 648f eb3f b9cc 1140 851b e3be b652 17bf
000000a0: 3127 1cbf fee1 03c0 fb5e 0fbf df8d 04be
000000b0: 8988 d1c0 4154 9dbf 6148 0140 b198 f9bf
000000c0: c3cb fe3f 6adc 123e 7e0f 68bd cbaf b1be
000000d0: 71df d2bd 1bab 60bd f87f 24bc 5d38 ad3d
000000e0: 5894 5240 69b2 43bf 9ca1 92bf 9f8b aabe
000000f0: 2e6b 103f b7b5 e43f 3f7e 9bbe e4b7 4cbf
00000100: 49dc 4ebf a6b9 64be 1ed3 b33e 57ff e13e
00000110: 8be7 9b40 e64a c8bf 5912 23c0 ffb2 813e
00000120: c9a3 9e3e f3b4 573f 2c61 a83b 43d2 5ac0
00000130: 11a0 e53f 9827 573f 194c 58bf 0bbf 69bc
00000140: 4617 0940 e085 abbf a9d4 ce3f bdef e3c0
00000150: 3c0c b13f fa5c 653f 8b44 04bf d361 763e
00000160: 03c2 56bf 5431 073f 1e77 4dbf 4a22 1fbe
00000170: 165d 96c0 a3ad ebbe 0fd3 e4c0 9473 a1bf
00000180: 5df2 9cbf d387 ea3f a0a9 39bf 6743 d1bf
00000190: bc8c ecbe cd62 a5be e9e9 433f cff5 963f
000001a0: aa95 5440 21d5 b7bd 0322 07c1 2e34 e83f
000001b0: 9158 d73e ab9f 043f a0e5 a9bd ffe0 95bd
000001c0: 2cf6 243f 0164 b03d 6103 30bf 02a9 e8be
000001d0: 433a e8c0 f0a3 99bd d017 ffc0 75cd 5ec0
000001e0: c237 43be ddc8 063f 0ce0 b93e 430f 20c0
000001f0: b476 d1c0 03bc abbf 7bd1 76be 4f33 903f
00000200: 9707 8f40 fc15 1fc0 1773 75c0 6ef7 243f
00000210: 3ded 01bf 6a52 5bbe b309 c83c b208 95be
00000220: d6c1 c1be 8f33 5cbe 190a 56be 8658 a0be
00000230: b3a9 4dbe 247b 8ebe 351b 213c 0452 e83e
00000240: 2c25 c53f 630e 90be 4449 5dc0 d385 d5bf
00000250: e9e8 e73e dbd3 8fc0 1ad5 933f 1333 783f
00000260: ea67 3540 1d18 cbc0 2ad8 0ac1 32e5 933f
00000270: fd0d 1f3f f4d1 743f 068b 1ebf 4ea3 5c3e
00000280: 5c90 29bf 47c4 74bf 97ea 10bf 08df dbbd
00000290: fc20 2940 b26f 673f 6607 b2c0 67dd fabf
000002a0: 6e03 c1bd d618 12c0 65bd 8abe 3026 f6be
000002b0: 450c 0d3d 2f8e a63e a246 12bf 971f 373f
000002c0: 18a8 e3bf 2a20 f53f b549 3940 16ce 8040
000002d0: 4c8e abbd dca8 0ebf 879e 51bf c8a5 d5be
000002e0: 09e0 043f 139e 713e 6227 7d3f 5d22 2b3f
000002f0: 3293 94c0 993f 54be 9155 7e40 c2a0 bd40
00000300: c21d 113f 5d12 5abf 7a29 7b3e 94fb 7a3e
00000310: fabf f33e 10fd 2cbf 4a40 22be 3bca 193f
00000320: 5218 70c0 dd8d 52bf 5738 0bbf 5abd bd3f
00000330: a25d 1540 6bf5 fc3f e3a1 82bf eddb ddbe
00000340: 37bf 723e d054 84bf 9caf 3abf 2aed 8abe
00000350: 2510 9ebf 8d78 55bf 4399 cdbf fcbd 97c0
00000360: 6294 2d3e cb0c ca3b b078 a4be 0e40 413d
00000370: 33f9 e9bf 6773 3a3f f82e 6ebd f6cd a1bc
00000380: dadc ab40 ebe7 28bf 4dd8 0ebf 0a89 4dc0
00000390: 0625 91bf b4e6 1cc0 b96c e5bd a088 9bbc
000003a0: 363e b3bc 4b90 d1bd a2f8 7d3f 3c4a 1540
000003b0: 0cf9 31c0 46ef 8dbe 96ab 2abf d961 5abf
000003c0: df7a 743d ae66 2c3f aa94 efbc d3df 6cbe
000003d0: 69c2 6a3f b938 0c3f c330 0640 df5f 853f
000003e0: ddda 2dbf c051 1b40 15ef 4240 22f8 0740
000003f0: 6f2b 4dc0 8842 5d3f 8aba 4a3f 2bac 8f3e

0.bias f4 [24]
2.4213588 -4.0931697 0.13660243 -2.1002572 -7.229833 -5.0991316 -1.8128207 0.79398876
-0.78451484 2.136643 -2.0703647 -0.47008508 -1.464503 0.9644016 2.3824706 -1.8870037
3.3334343 -1.9305491 -3.6302125 3.151973 -1.8114846 3.0856023 -1.7493342 -0.30805588
00000000: 8bf7 1a40 3ffb 82c0 82e1 0b3e 9d6a 06c0
00000010: cb5a e7c0 162c a3c0 820a e8bf d942 4b3f
00000020: f7d5 48bf c2be 0840 db80 04c0 feae f0be
00000030: d674 bbbf 06e3 763f 667a 1840 5689 f1bf
00000040: fd56 5540 3c1c f7bf 6755 68c0 edb9 4940
00000050: bade e7bf 827a 4540 2fea dfbf 80b9 9dbe

2.weight f4 [24, 24]
0.5763019 0.78399295 2.0055184 1.0464321 4.8734703 1.3067191 1.3695061 0.31649172
1.0039098 -1.2028538 4.979041 -0.018114744 -0.6698862 1.3005458 -0.19199187 0.67248756
0.053872336 1.0078796 1.7167194 -1.5701371 0.40949875 -0.23816963 -0.7633738 1.2555156
-1.0913557 0.779562 -0.6321964 -1.7948178 1.8063928 0.5986207 -0.5031233 -1.0603905
-0.07624763 -5.6402035 -4.373253 -0.05355326 2.3180475 0.117910214 -5.193313 -3.9719715
-2.7128396 -1.3797232 -0.25482127 -4.1082683 -4.725636 -2.011 -0.68668693 0.48531315
0.6881625 0.0831815 1.3012515 0.19110307 -9.911407 3.0808103 0.43113118 0.046572603
0.3873648 0.021180421 -1.7188462 0.11035913 -2.5669715 0.4597822 1.0141056 0.2825744
0.6087868 0.8797893 -3.4898975 -0.63078445 0.22458273 0.6396168 0.71974707 0.523547
-5.115345 -1.088417 -0.7510255 -3.8408096 3.791221 0.59874845 1.5085028 0.543567
0.53944623 -1.3077447 -2.7792382 -0.06560066 2.5900273 0.6967428 -2.1756704 -1.5089028
-5.812555 -0.3234551 -0.637133 -2.9241505 0.277183 -1.0521913 -1.4052025 0.9595552
0.06658078 -0.21313235 -0.18515858 0.04875845 -0.14170735 -0.3206311 -0.11232045 0.10010041
-0.04913996 -0.3113843 0.032507543 0.1886445 -0.026563033 -0.01896888 -0.42886874 -0.4496285
-0.3132486 -0.0034804947 -0.018901007 -0.35469282 -0.14921378 -0.1775523 -0.1006014 -0.14903653
-0.5416151 -0.2676522 0.025859345 -0.0036992892 -0.11542447 -0.2417327 -0.25383133 0.1933023
-0.04810394 -0.44273353 -0.14858156 0.08220199 -0.0035910038 -0.2926994 -0.23363666 -0.298846
-0.21618176 -0.23586626 0.1284632 -0.48206037 -0.12308339 -0.2587174 -0.07229765 0.047573753
-0.3949743 0.45908785 -2.7134514 -1.6723927 -7.1502223 4.365143 -0.19509964 -1.8674873
2.1654468 -4.1944394 -5.340018 0.437449 4.7825375 -0.90923935 -2.8255634 1.5320581
1.262222 -1.6341977 -2.24218 -7.018258 0.9875343 -1.0876999 -0.32070667 3.9630678
0.07582754 -0.3802599 -0.12884419 -0.23858269 0.08473836 -0.03508328 -0.12830983 0.044738986
-0.28636578 -0.085015096 0.11473077 -0.1950745 -0.12996952 -0.005311042 -0.28127474 -0.45217308
-0.3376478 -0.26448736 0.075466715 -0.4693392 -0.30317518 -0.09112475 -0.09447282 0.05325854
-0.9743632 -0.83545154 0.7644663 2.024384 0.75202054 0.5714957 1.2251213 -4.026191
-0.24073613 -3.2150555 -1.961798 0.07156043 1.7825668 0.47959825 -3.3143866 -1.5386292
-7.5023794 1.0509542 1.1364672 -4.6277633 -3.0754027 -3.7654629 1.3779843 0.18547714
0.5685582 -0.5815417 0.91869015 0.86138886 -3.5553043 0.6952303 -0.059287317 -0.1357988
0.5429085 1.8810722 1.2038122 0.012437705 -1.0076758 -0.87631285 -0.12974021 -2.047648
-1.168541 1.5078378 -4.3332095 0.5137849 0.7302304 0.12494343 0.20259665 -2.6435733
-3.1790798 -2.310293 0.39508575 -2.6885297 0.29493234 0.63321155 0.29783878 -0.58501697
0.016443977 -1.3614914 -0.08405089 -0.14909124 -0.8701723 0.34008494 -2.4264853 -1.5984465
00000000: 8588 133f c3b3 483f 6a5a 0040 7df1 853f
00000010: 78f3 9b40 9242 a73f fa4b af3f 340b a23e
00000020: 1e80 803f 1df7 99bf 4e54 9f40 5f65 94bc
00000030: a97d 2bbf 4978 a63f 8499 44be 2528 2c3f
00000040: 3da9 5c3d 3302 813f 76bd db3f 41fa c8bf
00000050: d2a9 d13e bde2 73be 776c 43bf bcb4 a03f
00000060: 8bb1 8bbf 6091 473f a0d7 21bf 97bc e5bf
00000070: e137 e73f 353f 193f b0cc 00bf e0ba 87bf
00000080: b827 9cbd 8c7c b4c0 b0f1 8bc0 aa5a 5bbd
00000090: e45a 1440 e97a f13d 9f2f a6c0 c834 7ec0
000000a0: 2a9f 2dc0 c59a b0bf ef77 82be ef76 83c0
000000b0: 6938 97c0 39b4 00c0 b7ca 2fbf f77a f83e
000000c0: 6b2b 303f 105b aa3d 698f a63f 86b0 433e
000000d0: 2095 1ec1 ff2b 4540 3abd dc3e eac2 3e3d
000000e0: ae54 c63e 9082 ad3c 2703 dcbf f803 e23d
000000f0: 4349 24c0 9368 eb3e 36ce 813f 97ad 903e
00000100: 74d9 1b3f df39 613f 7b5a 5fc0 177b 21bf
00000110: 04f9 653e edbd 233f 5841 383f 2d07 063f
00000120: e8b0 a3c0 4051 8bbf 3543 40bf d3cf 75c0
00000130: 5da3 7240 9447 193f 9f16 c13f 3527 0b3f
00000140: 2619 0a3f 2e64 a7bf 0adf 31c0 a459 86bd
00000150: 02c3 2540 bc5d 323f 2f3e 0bc0 ba23 c1bf
00000160: 7300 bac0 e89b a5be 261b 23bf 4825 3bc0
00000170: eeea 8d3e 34ae 86bf addd b3bf 69a5 753f
00000180: 815b 883d 5e3f 5abe 369a 3dbe f1b6 473d
00000190: bb1b 11be c229 a4be 4408 e6bd 7201 cd3d
000001a0: fc46 49bd c36d 9fbe a126 053d 062c 413e
000001b0: b89a d9bc a064 9bbc af94 dbbe b535 e6be
000001c0: 1f62 a0be 0319 64bb 49d6 9abc 4c9a b5be
000001d0: 7fcb 18be 45d0 35be 1b08 cebd 089d 18be
000001e0: 4aa7 0abf b609 89be fad6 d33c c66f 72bb
000001f0: aa63 ecbd c788 77be 2ef6 81be 0af1 453e
00000200: a308 45bd f8ad e2be c425 18be 8459 a83d
00000210: 0c57 6bbb b2dc 95be 733e 6fbe 5802 99be
00000220: c05e 5dbe ed86 71be db8b 033e 9ed0 f6be
00000230: 2513 fcbd 9b76 84be ca10 94bd b2dc 423d
00000240: 123a cabe 900d eb3e 30a9 2dc0 f710 d6bf
00000250: 9fce e4c0 40af 8b40 33c8 47be d309 efbf
00000260: ae96 0a40 d938 86c0 6de1 aac0 51f9 df3e
00000270: 8c0a 9940 e9c3 68bf 08d6 34c0 7b1a c43f
00000280: 7e90 a13f 642d d1bf e17f 0fc0 9295 e0c0
00000290: 0ccf 7c3f c039 8bbf aa33 a4be e7a2 7d40
000002a0: 784b 9b3d 6db1 c2be bbef 03be 054f 74be
000002b0: 4e8b ad3d 7cb3 0fbd a763 03be 3a40 373d
000002c0: 899e 92be 651c aebd f7f7 ea3d 9cc1 47be
000002d0: bb16 05be 4008 aebb 3e03 90be 3b83 e7be
000002e0: 2ce0 acbe e36a 87be 4b8e 9a3d 3a4d f0be
000002f0: c739 9bbe 9d9f babd f77a c1bd a025 5a3d
00000300: de6f 79bf 27e0 55bf 10b4 433f 828f 0140
00000310: 6b84 403f 8b4d 123f c6d0 9c3f 8fd6 80c0
00000320: 8883 76be 78c3 4dc0 321c fbbf 468e 923d
00000330: 262b e43f e78d f53e e91e 54c0 cdf1 c4bf
00000340: 7e13 f0c0 ab85 863f c277 913f a316 94c0
00000350: 66d3 44c0 58fd 70c0 ca61 b03f b8ed 3d3e
00000360: 088d 113f ebdf 14bf 472f 6b3f fb83 5c3f
00000370: 1b8a 63c0 9dfa 313f 42d7 72bd d70e 0bbe
00000380: 0dfc 0a3f f9c6 f03f 8516 9a3f 84c7 4b3c
00000390: 85fb 80bf 0a56 60bf 9eda 04be aa0c 03c0
000003a0: c092 95bf d400 c13f a7a9 8ac0 6887 033f
000003b0: 61f0 3a3f 57e2 ff3d 7f75 4f3e 4e30 29c0
000003c0: 0b76 4bc0 d7db 13c0 ae48 ca3e df10 2cc0
000003d0: 5f01 973e 271a 223f 537e 983e acc3 15bf
000003e0: 85b5 863c 5a45 aebf df22 acbd 60ab 18be
000003f0: 9dc3 5ebf 9d1f ae3e 894b 1bc0 e599 ccbf

2.bias f4 [24]
1.0893524 -1.1740234 -2.6618786 -0.75610524 -0.37686038 -0.30222794 -2.9528966 -0.025185907
-1.7436838 2.1215632 -0.9838331 -3.1109831 0.88655144 -0.47005752 -0.35976294 -1.4852931
1.5089426 -0.13473284 -0.09561609 2.5568795 -0.70356476 -0.7475993 2.0868824 0.03966432
00000000: e66f 8b3f 6646 96bf 385c 2ac0 1d90 41bf
00000010: d8f3 c0be 9fbd 9abe 42fc 3cc0 ad52 cebc
00000020: 0831 dfbf b1c7 0740 7cdc 7bbf 591a 47c0
00000030: 09f5 623f 61ab f0be d932 b8be 161e bebf
00000040: 0825 c13f 68f7 09be 5ed2 c3bd eaa3 2340
00000050: d21c 34bf ab62 3fbf 7b8f 0540 0e77 223d

4.weight f4 [4, 24]
2.4243102 1.2512523 -0.6842928 1.2218676 0.012248069 -0.16628791 2.947484 -0.042783175
0.97552365 -3.1835046 -0.18354276 1.6195855 3.1486802 -0.41342264 -0.0311642 1.9061996
0.5739492 0.484243 -0.10445981 -0.49034563 -0.6890289 -0.84138405 -0.43214807 0.10521693
1.9615282 3.0612447 -1.670857 -1.6770774 0.108617455 -0.27714413 1.9623172 -0.055319216
-0.22495465 -0.30141205 2.6469038 4.961565 4.1431665 -0.048117142 2.208301 1.8934505
-1.9528642 2.1289349 0.25056592 -1.4306793 2.3820963 2.3838406 -1.7719487 -0.16462943
1.5997797 0.7797455 0.3065871 -2.6837463 0.11123453 0.098913215 2.0917802 0.007664085
2.0304317 -1.9265827 -0.057417568 2.607876 4.2845087 0.17474526 1.8042612 1.7983102
0.2328086 0.6444985 0.1261248 -0.7333969 -0.021039393 0.066492245 -0.75144553 0.07833526
0.26385534 0.9880182 1.8015708 2.393854 0.056764364 0.22164834 5.2059164 -0.12920436
3.2619321 -1.3386629 -2.7674127 3.3469632 1.110954 -0.31871083 1.6658715 3.531387
-0.18617529 0.8327348 -0.051662922 -1.0575522 -1.9736522 -2.108843 -0.48204035 -0.07475153
00000000: e627 1b40 0929 a03f d02d 2fbf 2866 9c3f
00000010: 20ac 483c 6147 2abe 94a3 3c40 693d 2fbd
00000020: ebbb 793f 8abe 4bc0 a2f2 3bbe 944e cf3f
00000030: fa83 4940 22ac d3be 104c ffbc 59fe f33f
00000040: 56ee 123f b3ee f73e 06ef d5bd 950e fbbe
00000050: 3364 30bf f264 57bf 8342 ddbe f97b d73d
00000060: 5b13 fb3f 6feb 4340 a4de d5bf 79aa d6bf
00000070: d472 de3d d6e5 8dbe 362d fb3f 6796 62bd
00000080: 835a 66be ae52 9abe df66 2940 24c5 9e40
00000090: d294 8440 7b16 45bd ce54 0d40 965c f23f
000000a0: 74f7 f9bf 7840 0840 2d4a 803e 8020 b7bf
000000b0: 4474 1840 d890 1840 37cf e2bf 9e94 28be
000000c0: 95c5 cc3f 679d 473f fcf8 9c3e 80c2 2bc0
000000d0: eece e33d 0393 ca3d badf 0540 0123 fb3b
000000e0: 98f2 0140 439a f6bf af2e 6bbd 71e7 2640
000000f0: b21a 8940 6cf0 323e 08f2 e63f 072f e63f
00000100: 6165 6e3e dbfd 243f dc26 013e e6bf 3bbf
00000110: ce5a acbc 162d 883d bc5e 40bf 3d6e a03d
00000120: 0c18 873e c3ee 7c3f df99 e63f e734 1940
00000130: c081 683d c8f7 623e de96 a640 264e 04be
00000140: 7fc3 5040 4e59 abbf 4a1d 31c0 a534 5640
00000150: be33 8e3f 112e a3be 473b d53f 3f02 6240
00000160: bca4 3ebe 1c2e 553f 809c 53bd df5d 87bf
00000170: a3a0 fcbf 49f7 06c0 fecd f6be 5517 99bd

4.bias f4 [4]
-5.120016 1.2150859 -4.864016 -1.5992938
00000000: 2cd7 a3c0 ef87 9b3f 05a6 9bc0 a9b5 ccbf
