logs_400/logs/target_params_B_100.pt (torch, 6263 bytes, 6 tensors)

0.weight f4 [24, 12]
00000000: 68e7 73bd 438d 22bf 2905 d93e 7d57 a73f
00000010: 1b8f 2cc0 cc2d aebd 381b 753f 8c43 d8be
00000020: f452 42c0 1c69 1e3f ada2 e63f 7d00 a23e
00000030: 9f04 743e 3bf1 703f d21e a93e 6086 ce3f
00000040: cbae fe3e bc15 8d3e cedb 22bf 2fa8 8f3f
00000050: 1c58 2b40 1256 0140 c280 873f 9261 6640
00000060: d14d c53e c499 c43f 1d20 04bf e5d8 05bf
00000070: 9c46 913e c5fa 94bf 5477 553f f87c 43c0
00000080: 1295 d9bf 6e0e 4bbe dd59 3ac0 43dd cc3f
00000090: e824 0340 9d27 f53f 8f7c bcbe 9340 c9be
000000a0: 678d 92be fb77 f9bf cc5c 7fbf 8046 91bd
000000b0: c8f1 60c0 b962 0abf 10bf 883f b843 4cc0
000000c0: b240 ff3f a7f2 083d a041 4dbe 1346 41be
000000d0: ba50 cbbd 1f86 02be 6814 7abd a25b 0abe
000000e0: 489b 8240 0b19 26bf 6816 59bf a94a 2cbf
000000f0: 41df 223f f89b 0340 5e01 53be ea59 abbe
00000100: dac9 00bf 7cda 88bf 5c7c 673e 630e b73d
00000110: 97ad 5b40 f86f e6bf 0bf1 3fc0 ecf6 ba3c
00000120: 15de be3e 1d48 633e 91d3 b83d 2a50 3dc0
00000130: ceb2 d83f f674 3f3e ca26 4fbe 89b9 e9be
00000140: 65d9 1c40 8930 4cc0 3b6b f33f 0c8b abc0
00000150: 4dd1 df3f 625c 643f 8653 87be 07de ef3d
00000160: c081 92bf 7318 4e3e 15ba 91be fd38 4bbe
00000170: b368 83c0 22a0 50bf 2ef7 b7c0 8ab9 a4bf
00000180: 8f79 afbf 3beb cf3f a643 0dbf 49a0 29bf
00000190: de02 00bf b038 4fbf 8ca4 303f c227 7e3f
000001a0: 3257 2340 89aa 10be 94fb f2c0 3dec c83e
000001b0: f005 ec3e 7b40 293e 3b03 4dbf d97a 863e
000001c0: 0613 3a3f 1c8c c73e a2c9 35be 5102 74be
000001d0: db69 afc0 b4a6 433d 5f5d 9fc0 86c8 81c0
000001e0: eea8 153f 2e28 0a3e c330 12bf 5a5a 51bf
000001f0: 1b2a b8c0 1983 e6bf db0d 5fbe 62c5 0e3f
00000200: 7c46 7f40 be33 1bc0 e538 09c0 e3b9 75bf
00000210: 3ded 01bf 6a52 5bbe b309 c83c b208 95be
00000220: d6c1 c1be 8f33 5cbe 190a 56be 8658 a0be
00000230: b3a9 4dbe 247b 8ebe 351b 213c 0452 e83e
00000240: eb16 9c3f 6363 b8bf 2da4 76c0 9130 09be
00000250: 28ef 88bf 7062 f9bf b884 913f fe0f 1f3f
00000260: 336d 5740 4874 bcc0 8261 e5c0 19dc 15c0
00000270: 2e9e dfbd 7366 2d3f 5e46 b4be 71eb 333f
00000280: 3a0c 2ebf 5ee5 ebbf effc 90bf deca 19bf
00000290: 238f 5b40 eed4 163f 6591 aec0 0664 9bbf
000002a0: 01c0 ac3d 3487 0fc0 70ce bb3d 8c72 40be
000002b0: 7d3e 283e f8e6 5d3e 849b 40bf be5e 6c3f
000002c0: 4a40 a4bf e6e9 2840 456d 3140 47c2 4f40
000002d0: 2477 86bd 649a 21bf 9e2c 35bf a867 4ebf
000002e0: 72e0 233f 453e 063f 6636 893f e628 143f
000002f0: 77f8 5bc0 d324 31bf 3f7a 8440 7ea2 a940
00000300: dcd9 a53e 0de0 11bf c57b 273e cbb8 6f3d
00000310: 2676 db3e 8eb7 2abf 555f 45bd 7a70 1c3f
00000320: e143 66c0 30ab 23bf fd49 fdbe 28c0 0740
00000330: f0bf 1640 5e8a ee3f 7f60 8bbf d4c4 c1be
00000340: ebe4 1e3d 911a 85bf 9027 5cbf 9f57 77be
00000350: 0eb8 4ebf b70f 8cbf edba 15be 0b7f 87c0
00000360: 3136 0f3f a734 943e 8167 efbe 374a a23d
00000370: c620 99bf 70a9 e73d 754e 673d 4949 523e
00000380: 84c0 9d40 63b5 98bf 65cc f0bf 0123 75c0
00000390: cfa2 2ebf b7a0 ffbf 7c15 813d 57c2 7dbe
000003a0: 15a8 843d 9925 103f 3b27 e93e 1371 6b3f
000003b0: 38c4 86bf d430 d43f 734e ef3e dfea 93bd
000003c0: f585 7c3e d937 193f 88d7 a9bd d892 d0be
000003d0: 86ee 3d3f cf38 603f 2c02 0040 2c7d 833f
000003e0: 56f2 3fbf 7d50 3a40 401d 3e40 bb46 0540
000003f0: 72aa 45c0 ceec 453f c7b9 1c3f be57 653e
-0.059546858 -0.634968 0.4238675 1.3073574 -2.6962345 -0.08504829 0.9574466 -0.42239034
-3.036313 0.61879134 1.8018395 0.31640998 0.23829888 0.9411809 0.33031327 1.6134758
0.4974273 0.27555645 -0.63616645 1.12232 2.6772528 2.0208783 1.0586169 3.5997052
0.38535932 1.5359426 -0.516115 -0.5228408 0.28374183 -1.1639029 0.83385205 -3.0545025
-1.6998618 -0.19829723 -2.9117348 1.6005024 2.0491276 1.9152714 -0.3681378 -0.3930708
-0.28623506 -1.948974 -0.9975097 -0.07093525 -3.5147572 -0.5405689 1.0683308 -3.1916332
1.9941618 0.033434536 -0.20044565 -0.18874387 -0.09927507 -0.12746476 -0.061054617 -0.13511518
4.081455 -0.6488196 -0.84799814 -0.6730142 0.6362191 2.0563946 -0.2060599 -0.33467036
-0.50308 -1.0691676 0.22606033 0.08938291 3.43247 -1.800292 -2.999087 0.02282282
0.3727881 0.22195478 0.09024728 -2.9580178 1.6929567 0.18696961 -0.2022964 -0.45649365
2.4507687 -3.1904624 1.9017099 -5.3607235 1.7485749 0.89203465 -0.2643091 0.1171227
-1.1445847 0.20126514 -0.28462282 -0.19845958 -4.1065307 -0.81494343 -5.7489233 -1.2869122
-1.3708972 1.6243662 -0.5518135 -0.662602 -0.50004375 -0.80945873 0.6900108 0.99279416
2.552197 -0.14127554 -7.59321 0.39242736 0.4609828 0.16528504 -0.80083054 0.262656
0.7268528 0.38974082 -0.17752698 -0.23829009 -5.481672 0.047766402 -4.980148 -4.055728
0.5846089 0.1349189 -0.57105654 -0.8177849 -5.75514 -1.8008758 -0.21782629 0.5576993
3.988677 -2.425033 -2.1440976 -0.95986766 -0.5075262 -0.21418157 0.024418687 -0.29108196
-0.37843198 -0.21504043 -0.2090229 -0.31317538 -0.20084266 -0.27828324 0.009833147 0.45375073
1.2194494 -1.440533 -3.8537705 -0.13397433 -1.0697985 -1.9483166 1.1368628 0.6213378
3.36604 -5.8891945 -7.168153 -2.3415587 -0.10918842 0.6773445 -0.35209936 0.7028113
-0.67987406 -1.8429372 -1.1327189 -0.60075176 3.4306114 0.58918655 -5.4552484 -1.21399
0.08435059 -2.2426271 0.09170234 -0.18793696 0.16430087 0.21670139 -0.752373 0.92332065
-1.283212 2.639276 2.7722943 3.2462327 -0.06565693 -0.63126206 -0.70771205 -0.80626917
0.6401435 0.52438766 1.0719726 0.57874906 -3.43704 -0.69196814 4.1399226 5.3010855
0.32392776 -0.569825 0.16355808 0.05852584 0.42863578 -0.6668633 -0.04818662 0.61109126
-3.597893 -0.63933086 -0.4947051 2.1211033 2.355465 1.8635976 -1.0888823 -0.3784548
0.038792532 -1.0398732 -0.8599787 -0.24154519 -0.80749595 -1.0942296 -0.14622088 -4.234258
0.55942065 0.2894642 -0.46758655 0.079243116 -1.1963127 0.113116145 0.056471307 0.20535769
4.9297504 -1.1930355 -1.8812376 -3.8302615 -0.68217176 -1.9970921 0.06302926 -0.24781166
0.064773716 0.5630737 0.45537743 0.9196941 -1.0528631 1.6577401 0.4673954 -0.072225325
0.24660476 0.5985084 -0.082930624 -0.40737033 0.7419208 0.87586683 2.0001326 1.0272574
-0.7497915 2.9111626 2.9705353 2.082442 -3.0885282 0.7731446 0.61220974 0.22396752

0.bias f4 [24]
00000000: 4ee5 2740 8f01 85c0 c3a0 883d 86c5 08c0
00000010: 47e6 d1c0 6f5d 94c0 29ed c4bf 37db 2c3f
00000020: d82d afbd 13f9 0140 87c6 f7bf feae f0be
00000030: b1ba bdbf d375 323f 3d71 1740 53e5 cbbf
00000040: 5505 5d40 14fc fcbf 5bb2 76c0 539c 8240
00000050: 2273 dcbf 9bf7 4c40 43e4 d4bf 6c7a 95bf
2.6233706 -4.1564403 0.06671288 -2.1370559 -6.55936 -4.6364055 -1.5384876 0.67521995
-0.08553666 2.0308273 -1.9357461 -0.47008508 -1.4822599 0.69711035 2.3662865 -1.5929359
3.4534504 -1.9764428 -3.854636 4.0815825 -1.7222636 3.2026126 -1.663216 -1.1677985

2.weight f4 [24, 24]
00000000: aa5d 213f 0348 d43e 41c1 af3f 84af 31bd
00000010: a667 ac40 96c4 a13f 4257 b33f eab1 1e3d
00000020: ca4a 523e f5ce cfbe 343f a840 5f65 94bc
00000030: 7ce1 24c0 a7a7 1e3e f0ee 15bf 598d 1a3f
00000040: 328c 62be 90ee 8c3f 55c1 2f40 5510 16bd
00000050: 68fb 003f 159b e13d 1521 d2bd eeec edbd
00000060: ff5c 88bf daaa 5a3f a0d7 21bf 97bc e5bf
00000070: a855 ed3f 2b96 1b3f b0cc 00bf b830 79bf
00000080: c25b 87bd 8c7c b4c0 b0f1 8bc0 aa5a 5bbd
00000090: fae0 1440 41b0 5f3e 9f2f a6c0 c834 7ec0
000000a0: a200 2bc0 e530 acbf 31ab 38be 73f6 82c0
000000b0: f7ea 96c0 4f22 ffbf 190c 1ebf f1ea 223f
000000c0: 7c1c d63e 5874 623e 9ebe 763f e71c 793e
000000d0: 1ced f8c0 be3b e43f 6c31 0f3f f579 dabb
000000e0: 8326 8c3c b226 573e 183d 1ebe f803 e23d
000000f0: f8e5 24c0 9e68 90bf cd7d fc3e 7b2d 323f
00000100: eae7 063e 520a 84bd a7cd 7ec0 24fd c9be
00000110: 31e9 bd3e ea29 b63e 0de3 2d3e 0e70 fe3f
00000120: ff18 9ac0 4b0c e2bf e64c 213f a480 3cbf
00000130: 6e45 2740 c104 823f 528d ff3f 721d 6d3f
00000140: 81c5 1f3f 5cd6 a4bf 3eee f3bf a459 86bd
00000150: c899 b03f 69f1 863e c3a9 01c0 5172 62bf
00000160: 5c45 b0c0 cb55 403f 4c29 1abe b9cf 29c0
00000170: a051 27bf 4f07 26bf 2e45 393f b761 8e3f
00000180: 815b 883d 5e3f 5abe 369a 3dbe f1b6 473d
00000190: bb1b 11be c229 a4be 4408 e6bd 7201 cd3d
000001a0: fc46 49bd c36d 9fbe a126 053d 062c 413e
000001b0: b89a d9bc a064 9bbc af94 dbbe b535 e6be
000001c0: 1f62 a0be 0319 64bb 49d6 9abc 4c9a b5be
000001d0: 7fcb 18be 45d0 35be 1b08 cebd 089d 18be
000001e0: 4aa7 0abf b609 89be fad6 d33c c66f 72bb
000001f0: aa63 ecbd c788 77be 2ef6 81be 0af1 453e
00000200: a308 45bd f8ad e2be c425 18be 8459 a83d
00000210: 0c57 6bbb b2dc 95be 733e 6fbe 5802 99be
00000220: c05e 5dbe ed86 71be db8b 033e 9ed0 f6be
00000230: 2513 fcbd 9b76 84be ca10 94bd b2dc 423d
00000240: 3724 60be f0cd 573e 3d44 35c0 a063 b9bf
00000250: 0d5c bfc0 5bb9 8640 6378 d0bf 5b4e 9abf
00000260: 7b88 853f dd73 5ec0 c618 ab3d 51f9 df3e
00000270: a5cb 3f40 7294 05be d21b 35c0 b926 ee3f
00000280: cc8d 5b3f ff4d 24c0 08f1 55bf 5639 6ec0
00000290: af5e 573f fdbc acbf a3a0 423e c5f7 6640
000002a0: 784b 9b3d 6db1 c2be bbef 03be 054f 74be
000002b0: 4e8b ad3d 7cb3 0fbd a763 03be 3a40 373d
000002c0: 899e 92be 651c aebd f7f7 ea3d 9cc1 47be
000002d0: bb16 05be 4008 aebb 3e03 90be 3b83 e7be
000002e0: 2ce0 acbe e36a 87be 4b8e 9a3d 3a4d f0be
000002f0: c739 9bbe 9d9f babd f77a c1bd a025 5a3d
00000300: 7abf 59c0 9779 72bf 8691 893f 29fc 873f
00000310: df92 a93f 5190 273f 3efc d83f 63ae 38c0
00000320: 6e72 893c 83c3 4dc0 849f e4bf 468e 923d
00000330: e2df e63f 7498 c93f 2108 51c0 8971 c1bf
00000340: ed82 9cc0 8137 8d3f 2db1 203f 4905 90c0
00000350: 7291 50c0 6335 4ac0 e792 e13f 7b4f 2a3f
00000360: 2678 a73e 7d85 98be 0c77 8c3f 8e6d 093e
00000370: f538 36c0 ab57 4c3f 2653 5fbd ff82 203f
00000380: dd22 2ebe 3abe b23f 48f3 24c0 84c7 4b3c
00000390: 2203 90bf 39f6 2dbf 2aa8 c93f f1d0 50bf
000003a0: 6e7f 2abf ad16 11bf dfc5 49c0 f1e1 303f
000003b0: 4010 e43e eefa 6e3f 5ced 833f 1dbd 74bf
000003c0: 0b76 4bc0 d7db 13c0 ae48 ca3e df10 2cc0
000003d0: 5f01 973e 271a 223f 537e 983e acc3 15bf
000003e0: 85b5 863c 5a45 aebf df22 acbd 60ab 18be
000003f0: 9dc3 5ebf 9d1f ae3e 894b 1bc0 e599 ccbf
0.63033545 0.4146119 1.3730851 -0.043380275 5.3876524 1.2638118 1.4011004 0.03874389
0.20536342 -0.40587583 5.257715 -0.018114744 -2.5762625 0.15493642 -0.58567715 0.6037193
-0.22123793 1.1010303 2.746175 -0.03663667 0.50383615 0.11015908 -0.10260216 -0.116174564
-1.065338 0.8541695 -0.6321964 -1.7948178 1.8541765 0.60776013 -0.5031233 -0.97339964
-0.06609298 -5.6402035 -4.373253 -0.05355326 2.3262315 0.2184458 -5.193313 -3.9719715
-2.6719136 -1.3452421 -0.18034054 -4.092584 -4.716182 -1.9932345 -0.6173721 0.6363974
0.41818607 0.22114694 0.9638461 0.24327432 -7.778944 1.7830732 0.55934787 -0.0066673704
0.017108208 0.21010855 -0.15452993 0.11035913 -2.5765362 -1.1281927 0.49314728 0.6960065
0.13174406 -0.06447281 -3.981302 -0.39450943 0.37091973 0.35578853 0.16981144 1.9877946
-4.8155513 -1.7660002 0.6300796 -0.7363379 2.6136127 1.0157701 1.9965003 0.92623055
0.6241074 -1.2877917 -1.9057081 -0.06560066 1.379693 0.26356056 -2.0259864 -0.88455683
-5.5084667 0.7513091 -0.15054816 -2.6533034 -0.65358925 -0.648549 0.72371185 1.112357
0.06658078 -0.21313235 -0.18515858 0.04875845 -0.14170735 -0.3206311 -0.11232045 0.10010041
-0.04913996 -0.3113843 0.032507543 0.1886445 -0.026563033 -0.01896888 -0.42886874 -0.4496285
-0.3132486 -0.0034804947 -0.018901007 -0.35469282 -0.14921378 -0.1775523 -0.1006014 -0.14903653
-0.5416151 -0.2676522 0.025859345 -0.0036992892 -0.11542447 -0.2417327 -0.25383133 0.1933023
-0.04810394 -0.44273353 -0.14858156 0.08220199 -0.0035910038 -0.2926994 -0.23363666 -0.298846
-0.21618176 -0.23586626 0.1284632 -0.48206037 -0.12308339 -0.2587174 -0.07229765 0.047573753
-0.21888815 0.21074653 -2.83229 -1.4483528 -5.9799867 4.2101264 -1.6286739 -1.2055162
1.0432276 -3.4758217 0.083543345 0.437449 2.9968045 -0.13044909 -2.829823 1.8605567
0.8576324 -2.5672605 -0.8357091 -3.7222495 0.8412885 -1.3495175 0.1900659 3.6088727
0.07582754 -0.3802599 -0.12884419 -0.23858269 0.08473836 -0.03508328 -0.12830983 0.044738986
-0.28636578 -0.085015096 0.11473077 -0.1950745 -0.12996952 -0.005311042 -0.28127474 -0.45217308
-0.3376478 -0.26448736 0.075466715 -0.4693392 -0.30317518 -0.09112475 -0.09447282 0.05325854
-3.4023118 -0.9471678 1.0747535 1.0623828 1.3247947 0.65454584 1.6951978 -2.8856437
0.016778197 -3.215058 -1.786118 0.07156043 1.8037074 1.574965 -3.2661211 -1.5112773
-4.890982 1.1032563 0.6277035 -4.500645 -3.2588773 -3.1595085 1.7622956 0.6652753
0.32708853 -0.29789343 1.097383 0.13420698 -2.8472264 0.7982127 -0.054522656 0.62699884
-0.17005487 1.3964303 -2.5773487 0.012437705 -1.1250956 -0.6795383 1.5754445 -0.8156882
-0.6660069 -0.56675225 -3.152702 0.6909476 0.44543648 0.9335164 1.0306811 -0.95601064
-3.1790798 -2.310293 0.39508575 -2.6885297 0.29493234 0.63321155 0.29783878 -0.58501697
0.016443977 -1.3614914 -0.08405089 -0.14909124 -0.8701723 0.34008494 -2.4264853 -1.5984465

2.bias f4 [24]
00000000: 36af ce3e 12fa 8abf b0ce 1ec0 dd47 bdbe
00000010: d8f3 c0be 9fbd 9abe a3b2 2fc0 ad52 cebc
00000020: cb8b 51bf 5982 5440 7cdc 7bbf faae 4dc0
00000030: 91fc 7e3f 61ab f0be 1939 a4be fcbc 9cbe
00000040: fbcc bd3f 6650 32bf 5ed2 c3bd ded8 3840
00000050: d21c 34bf ab62 3fbf cbd3 2a40 0e77 223d
0.4036805 -1.0857565 -2.4813652 -0.3696889 -0.37686038 -0.30222794 -2.7452781 -0.025185907
-0.8185393 3.3204558 -0.9838331 -3.2138047 0.99604136 -0.47005752 -0.32074812 -0.30612934
1.482818 -0.6965393 -0.09561609 2.8882365 -0.70356476 -0.7475993 2.6691768 0.03966432

4.weight f4 [4, 24]
00000000: a6f6 fe3f 0929 a03f 36b7 e9bd 19e3 933f
00000010: 20ac 483c 6147 2abe a786 4340 693d 2fbd
00000020: 1aa1 783f 31f1 f8bf a2f2 3bbe 9344 1a40
00000030: c51f 0940 22ac d3be 39c1 dd3d 46f2 bb3f
00000040: 8f73 893e ce36 303f 06ef d5bd 0d07 efbe
00000050: 3364 30bf f264 57bf 6a88 9dbf f97b d73d
00000060: bedb 0640 7b58 4440 5260 d6bf 468b 88be
00000070: d472 de3d d6e5 8dbe 3963 7b3f 6796 62bd
00000080: 1aa1 333f 15ca 10bf df66 2940 d9b1 ad40
00000090: 967e 5040 7b16 45bd 7c7f ff3f 1281 2b40
000000a0: f06c 02c0 6f0d 0940 2d4a 803e a72d afbf
000000b0: 4474 1840 d890 1840 aa11 90bf 9e94 28be
000000c0: 13d2 c03f 679d 473f 40c4 633e 98f0 59bf
000000d0: eece e33d 0393 ca3d f942 bc3f 0123 fb3b
000000e0: a132 0440 c949 b0bf af2e 6bbd 8645 4440
000000f0: 0098 933f 6cf0 323e 08f2 e63f 7eb1 56be
00000100: aa92 763e 130f 073f dc26 013e 521d f1be
00000110: ce5a acbc 162d 883d 82be 7abf 3d6e a03d
00000120: 4c33 d43c 610c 7d3f 383e d43f 6657 2a40
00000130: c081 683d c8f7 623e c3a5 9540 264e 04be
00000140: fddb 3940 3807 6cbf 4a1d 31c0 2378 9b40
00000150: 4cf4 4440 112e a3be 7bef e13f 4d3e 1640
00000160: 2661 79bd 29f9 143f 809c 53bd 732a 5dbf
00000170: a3a0 fcbf 49f7 06c0 88e0 0ebf 5517 99bd
1.9919021 1.2512523 -0.11411898 1.155368 0.012248069 -0.16628791 3.0550935 -0.042783175
0.9712082 -1.9448606 -0.18354276 2.4104354 2.142564 -0.41342264 0.1082787 1.4683311
0.26845977 0.68833625 -0.10445981 -0.46685067 -0.6890289 -0.84138405 -1.2307255 0.10521693
2.107162 3.0679004 -1.6748145 -0.26668757 0.108617455 -0.27714413 0.98198277 -0.055319216
0.70167696 -0.5655835 2.6469038 5.42796 3.2577262 -0.048117142 1.996078 2.6797528
-2.037899 2.141445 0.25056592 -1.3685807 2.3820963 2.3838406 -1.1255391 -0.16462943
1.506411 0.7797455 0.22242832 -0.8513274 0.11123453 0.098913215 1.4707938 0.007664085
2.0655901 -1.3772517 -0.057417568 3.0667434 1.1530762 0.17474526 1.8042612 -0.20966145
0.24079385 0.52757376 0.1261248 -0.47092682 -0.021039393 0.066492245 -0.9794694 0.07833526
0.025903367 0.98847014 1.6581488 2.6615844 0.056764364 0.22164834 4.6764846 -0.12920436
2.904052 -0.92198515 -2.7674127 4.858415 3.0774107 -0.31871083 1.7651209 2.3475525
-0.060883664 0.5819269 -0.051662922 -0.863929 -1.9736522 -2.108843 -0.5581136 -0.07475153

4.bias f4 [4]
00000000: dc5d bdc0 cf42 563f 427b f3c0 ac1f 09c0
-5.9177074 0.8369569 -7.608796 -2.142558
