logs_400/logs/target_params_A_225.pt (torch, 6263 bytes, 6 tensors)

0.weight f4 [24, 12]
1.9998653 1.8176419 0.07840257 0.056318216 -1.0553948 1.1035216 -0.40115917 -0.19191626
-5.049737 2.7432694 1.839247 -0.16583474 -2.2841194 -1.0910774 1.1580215 -0.12482879
-0.41739577 1.5649248 0.947686 0.9537291 3.9299464 1.0048375 0.685912 2.0031328
0.6957723 2.229631 0.26646066 -0.12947087 -0.5440918 -4.135638 1.1896238 1.40628
-2.4648917 -0.55080295 -4.582532 -2.6599257 -2.3464773 -0.44304904 0.10089545 0.15510142
-0.17875496 -0.23345733 -1.8527905 -1.6999556 7.353157 -1.6646361 -0.4155854 -6.062227
-1.359439 -1.9640454 -0.018785615 0.08532506 0.016868688 0.31245607 0.09068894 0.20514943
-5.6730876 -0.4630371 -0.78122413 0.16510135 1.0900689 -2.345975 0.40472254 0.06950596
0.47819552 2.2098691 0.085323334 0.90788573 -7.7297707 -1.1707145 -0.83843076 1.6692778
2.3045385 -0.90695745 -0.024534933 0.15655614 -0.19969569 -0.06430299 1.1411908 0.81868064
-9.968543 -0.10936513 -0.45988253 -2.8289409 -0.42019254 2.3685248 -0.14234231 -0.048324086
1.6201401 -0.7201555 0.4353717 -2.0187337 -5.3184223 -0.58715194 -1.0341948 3.2831702
0.5715035 -0.95464784 0.48280817 1.1977118 1.319912 0.9314625 -3.77147 -5.448575
0.52576244 -1.978952 -4.102924 -14.447139 -1.6282557 -0.72267365 -0.614391 0.43842685
-0.1528148 0.6563497 2.6822462 0.7149639 -4.241026 -2.950865 -3.9080338 -3.5839338
2.7093534 -0.47810084 -3.0484984 0.16716637 1.6146499 -0.5759446 -1.3946075 0.040669933
2.3924875 -5.7096715 -11.480881 -7.6211715 1.7485664 -2.1212587 -0.8136103 0.0127027845
0.5775043 0.10031357 1.1729722 0.79867184 5.436885 -1.4058272 -0.4334358 -0.3771322
2.172294 -4.7284374 0.09443305 0.21035282 0.49984115 -0.08948908 0.28963724 0.12997785
-5.225453 -0.35500178 1.927106 1.1719068 -3.2837245 -0.584326 -0.5437166 -0.34406853
3.0906072 1.2218786 0.030357577 -0.5939527 3.0523021 2.8111372 1.9891129 0.27569908
1.1271518 0.9692945 -0.5637275 0.19980583 0.795217 -0.27361238 0.54374653 -1.2205918
6.1463985 0.7345562 -0.03916313 -3.5255437 4.664607 0.25485846 -0.60938585 -0.61149114
1.3796207 -0.6991041 -0.567591 -1.5172567 -3.3866794 -1.3514849 -2.5119135 -2.0765283
-10.654868 2.4297924 -0.8214501 -0.5047178 1.8383989 0.2767425 -12.162532 0.13148965
2.300199 -1.7232003 -0.7647907 -13.254978 0.90250593 1.9898236 -0.4983821 -1.4698896
-3.2452776 0.12587856 2.0528114 -1.3696498 1.7338067 -9.382939 1.015732 0.34302703
0.8696043 1.2104182 -0.038355697 0.4369221 -0.19085783 0.6007788 1.0199741 0.14860116
5.238543 -3.0729027 -4.1594214 1.0683675 -0.026064245 -0.122145765 -0.29047275 -0.20814931
-0.18242708 -0.13417561 -0.1300421 -0.13129598 -0.16690683 0.085859805 -0.12627424 -0.2379061
0.5846571 3.0461972 0.9451053 -0.437173 -0.22760938 0.4450392 0.3909502 -0.18066913
-2.710522 -0.27596343 0.8413793 0.7768106 -0.55805945 -1.1628401 1.2846067 0.6244383
00000000: 96fb ff3f 7da8 e83f 8791 a03d eead 663d
00000010: 2d17 87bf 3240 8d3f bc64 cdbe b285 44be
00000020: 7297 a1c0 ba91 2f40 726c eb3f 95d0 29be
00000030: 032f 12c0 6da8 8bbf 0c3a 943f 3da6 ffbd
00000040: e6b4 d5be 754f c83f 8d9b 723f 9727 743f
00000050: 3e84 7b40 849e 803f ee97 2f3f 5433 0040
00000060: 221e 323f 46b2 0e40 886d 883e 0394 04be
00000070: 9a49 0bbf 2657 84c0 9845 983f fc00 b43f
00000080: c9c0 1dc0 6c01 0dbf 1aa4 92c0 393c 2ac0
00000090: af2c 16c0 53d7 e2be 46a2 ce3d e8d2 1e3e
000000a0: 8a0b 37be 700f 6fbe 3d28 edbf 2598 d9bf
000000b0: 104d eb40 cc12 d5bf 9cc7 d4be c3fd c1c0
000000c0: 1902 aebf d765 fbbf 4ae4 99bc e8be ae3d
000000d0: 3430 8a3c 3efa 9f3e 1fbb b93d b112 523e
000000e0: ef89 b5c0 3313 edbe 4efe 47bf 5410 293e
000000f0: 6187 8b3f 7424 16c0 cb37 cf3e 2459 8e3d
00000100: 0bd6 f43e 7f6e 0d40 00be ae3d 336b 683f
00000110: 485a f7c0 f9d9 95bf 66a3 56bf e5aa d53f
00000120: 8f7d 1340 5d2e 68bf 7cfd c8bc 4150 203e
00000130: 077d 4cbe 49b1 83bd 8a12 923f 0e95 513f
00000140: 277f 1fc1 d3fa dfbd b975 ebbe 5e0d 35c0
00000150: 7a23 d7be e995 1740 2fc2 11be 7aef 45bd
00000160: c060 cf3f 1c5c 38bf 0ae9 de3e ef32 01c0
00000170: 8430 aac0 974f 16bf 7f60 84bf 761f 5240
00000180: 0e4e 123f cd63 74bf a232 f73e 9f4e 993f
00000190: e0f2 a83f 5474 6e3f c45f 71c0 ba5a aec0
000001a0: 5e98 063f 4d4e fdbf 274b 83c0 7b27 67c1
000001b0: af6a d0bf 2401 39bf bb48 1dbf 7c79 e03e
000001c0: 7c7b 1cbe 8906 283f eca9 2b40 e007 373f
000001d0: 7cb6 87c0 f9da 3cc0 3a1d 7ac0 2c5f 65c0
000001e0: 0c66 2d40 a2c9 f4be 991a 43c0 a92d 2b3e
000001f0: d9ac ce3f 1b71 13bf 8082 b2bf 8495 263d
00000200: 841e 1940 a1b5 b6c0 b0b1 37c1 a3e0 f3c0
00000210: 06d1 df3f b4c2 07c0 c448 50bf 571f 503c
00000220: 52d7 133f 3371 cd3d f423 963f c275 4c3f
00000230: f6fa ad40 25f2 b3bf 4ceb ddbe 7917 c1be
00000240: dd06 0b40 5c4f 97c0 1d66 c13d bb66 573e
00000250: 2eeb ff3e 0d46 b7bd 554b 943e ea18 053e
00000260: e936 a7c0 cbc2 b5be 69ab f63f 0b01 963f
00000270: 8b28 52c0 6496 15bf 0331 0bbf c029 b0be
00000280: 82cc 4540 8566 9c3f 74b0 f83c 490d 18bf
00000290: eb58 4340 ace9 3340 409b fe3f 6e28 8d3e
000002a0: 8346 903f af23 783f 7250 10bf e699 4c3e
000002b0: 5793 4b3f ec16 8cbe f932 0b3f 5a3c 9cbf
000002c0: 4caf c440 e00b 3c3f 8569 20bd 82a2 61c0
000002d0: 7644 9540 cf7c 823e b600 1cbf af8a 1cbf
000002e0: 6997 b03f 7cf8 32bf a54d 11bf 7835 c2bf
000002f0: 5bbf 58c0 75fd acbf 31c3 20c0 d7e5 04c0
00000300: 577a 2ac1 b881 1b40 8e4a 52bf 3035 01bf
00000310: a850 eb3f 31b1 8d3e bb99 42c1 39a5 063e
00000320: 7636 1340 d491 dcbf 53c9 43bf 6414 54c1
00000330: a10a 673f 8ab2 fe3f f02b ffbe 5825 bcbf
00000340: a1b2 4fc0 4fe6 003e 4361 0340 af50 afbf
00000350: 61ed dd3f 8520 16c1 8203 823f 3da1 af3e
00000360: 639e 5e3f fcee 9a3f dd1a 1dbd 41b4 df3e
00000370: 3c70 43be a4cc 193f 838e 823f e72a 183e
00000380: 25a2 a740 70aa 44c0 fb19 85c0 44c0 883f
00000390: af84 d5bc 8f27 fabd d8b8 94be 1825 55be
000003a0: 2ace 3abe 5565 09be c229 05be 7472 06be
000003b0: a0e9 2abe 44d7 af3d 094e 01be a89d 73be
000003c0: 16ac 153f e5f4 4240 6cf2 713f 24d5 dfbe
000003d0: 6f12 69be 2edc e33e a02a c83e 5401 39be
000003e0: 3179 2dc0 144b 8dbe a264 573f 0fdd 463f
000003f0: fcdc 0ebf f2d7 94bf fe6d a43f 30db 1f3f

0.bias f4 [24]
1.4896783 -1.5305378 0.73188573 -0.288717 10.576416 -1.2343516 -0.5481784 3.424824
-0.96548927 2.7204013 -1.4705601 0.10682732 0.09525294 -2.5775828 -0.738275 0.48956543
-2.2411523 -1.1422427 -3.625314 0.13636167 3.2664652 2.910231 -1.047332 -2.7143774
00000000: c7ad be3f aae8 c3bf dd5c 3b3f b7d2 93be
00000010: 0039 2941 3cff 9dbf 6b55 0cbf 5130 5b40
00000020: 4e2a 77bf 0e1b 2e40 503b bcbf 48c8 da3d
00000030: f913 c33d 1ef7 24c0 97ff 3cbf 52a8 fa3e
00000040: 0a6f 0fc0 0235 92bf 2505 68c0 65a2 0b3e
00000050: c40d 5140 3a41 3a40 fa0e 86bf 5cb8 2dc0

2.weight f4 [24, 24]
-2.2949233 0.7243377 3.3696663 -0.71195865 1.1400381 -6.6628127 -3.163241 -8.164735
6.1705976 1.7302866 -2.8597188 -2.7407587 -3.9712903 -2.1824121 -5.1581674 -4.0714445
0.8067307 -4.3938394 2.7377849 0.09218767 1.4572364 -1.1194401 -3.5628402 -7.826938
-1.2729659 1.7476445 -0.8362103 1.9758426 2.383314 -1.6767534 -3.9104779 -0.69340366
-0.67435133 -0.8400491 -0.050653383 -0.1263864 -5.5952425 0.7248268 1.5644639 0.768303
-0.1460832 3.6653082 -0.39647493 0.035987876 -3.060357 1.6500453 -1.8325781 -0.8584236
1.1068455 -2.460063 2.9383159 -5.9275484 -2.5758004 1.1601553 1.7153254 2.5213618
1.9743975 1.5032686 -0.24551912 -1.5342335 0.49672723 -0.4013183 0.0468829 1.7781233
2.3349574 2.9457364 -1.941497 -0.020544302 2.074845 -0.53611845 0.7624109 0.75727785
-1.171328 1.1337467 -1.809774 1.1423248 3.2824416 -3.5022793 -2.8485196 -0.9343988
1.3953557 -0.45618287 0.27294877 2.4347453 -3.1406217 1.0863607 0.9583992 -1.669727
-1.545511 -3.583019 1.4487615 -0.17454492 0.055827685 0.26147166 1.5585196 -0.26160046
-8.278379 0.6702449 -2.5308974 -6.5424633 2.379685 -5.0575314 -3.730979 -6.9489393
-5.5224023 1.166801 -4.666111 -0.98808146 -10.815017 -12.343126 -0.9736045 -1.1741208
-1.4442543 -7.392875 -0.80157197 0.25066242 -0.97888964 0.34385848 -7.7561398 2.281585
-0.87041116 -0.37183398 -4.386922 2.6663384 -0.5711975 -2.273765 1.2977014 -7.0240583
-8.30359 -1.8762276 -1.1529417 0.5824941 -0.43915924 -1.8088596 0.5346293 1.3919
-4.840435 -7.2377644 1.8747377 0.015477726 0.37357983 -0.6988254 1.1973361 0.436006
-0.7183082 1.4846779 0.5852024 2.7175376 1.6262442 -1.6902546 -2.2421398 -2.0344737
-1.2954916 -1.3751701 -0.98619527 0.67876434 2.8906562 1.1401772 1.28518 0.1855646
0.09245018 3.0290337 1.8539912 0.0872916 -2.2431118 0.6560649 -1.2652656 1.3545704
-0.06904608 1.4749919 -2.2637284 1.1141181 -2.1116383 0.9588982 2.6069303 0.90456086
-1.428656 -1.2187846 2.4938054 -0.16145448 2.9240336 -0.0019615195 -0.17431076 -0.64549834
0.45265847 1.1921144 0.5450247 0.041592155 -1.1151102 -0.06942214 -0.7505145 -1.0729123
-20.983263 -2.8674343 -2.327527 3.4076095 -0.56694496 -3.236398 -0.033993714 -17.255589
3.9810963 3.368593 -2.218587 1.6941991 -12.533815 -3.7393591 1.4206475 0.8955043
0.7275444 -11.70319 1.1022611 -0.20158821 -3.4761972 0.9232849 -14.924936 -7.4685245
-2.369222 0.90243554 -1.0224131 1.7098774 3.6765258 -1.9309025 -3.7586114 -1.7094278
-1.0856782 0.7074784 0.06732958 0.9517639 -3.055459 1.6623923 0.9993186 -3.4028795
-0.20669393 0.408871 0.32770434 -0.29060817 -1.0028484 1.1824081 1.7458625 0.36289516
-1.0513575 -1.1462268 -6.477084 -1.4501638 -1.8747662 -10.642394 -9.485248 -8.885441
6.0213566 -0.88216573 -7.309754 -3.3091614 1.1029325 0.9700885 0.7377429 -10.39159
00000000: 06e0 12c0 326e 393f 9da8 5740 ec42 36bf
00000010: c5ec 913f c335 d5c0 8a72 4ac0 c1a2 02c1
00000020: 8975 c540 087a dd3f a205 37c0 9768 2fc0
00000030: 9f29 7ec0 a4ac 0bc0 b50f a5c0 4649 82c0
00000040: e785 4e3f 559a 8cc0 de37 2f40 e4cc bc3d
00000050: b986 ba3f d049 8fbf 9305 64c0 4776 fac0
00000060: 8cf0 a2bf d1b2 df3f e111 56bf 69e8 fc3f
00000070: 3788 1840 db9f d6bf 4545 7ac0 e782 31bf
00000080: 4aa2 2cbf 750d 57bf ec79 4fbd 706b 01be
00000090: 3a0c b3c0 408e 393f 5a40 c83f 81af 443f
000000a0: d696 15be 6994 6a40 c3fe cabe 0668 133d
000000b0: e4dc 43c0 af34 d33f eb91 eabf a6c1 5bbf
000000c0: 1dad 8d3f ac71 1dc0 5e0d 3c40 7aae bdc0
000000d0: ead9 24c0 f87f 943f c88f db3f fe5d 2140
000000e0: 0fb9 fc3f 1b6b c03f 5d69 7bbe c361 c4bf
000000f0: 0853 fe3e 9879 cdbe 4908 403d 8b99 e33f
00000100: f16f 1540 f286 3c40 f982 f8bf 864c a8bc
00000110: 43ca 0440 0f3f 09bf 5c2d 433f f6dc 413f
00000120: 13ee 95bf 9d1e 913f ada6 e7bf b337 923f
00000130: 8613 5240 5825 60c0 254e 36c0 c234 6fbf
00000140: 049b b23f cd90 e9be f1bf 8b3e ded2 1b40
00000150: f2ff 48c0 de0d 8b3f a659 753f 9db9 d5bf
00000160: 4ed3 c5bf 2f50 65c0 0471 b93f e7bb 32be
00000170: 92ab 643d 9ddf 853e 927d c73f 7ff0 85be
00000180: 3e74 04c1 2b95 2b3f 39fa 21c0 dc5b d1c0
00000190: c24c 1840 4cd7 a1c0 5cc8 6ec0 b65d dec0
000001a0: 85b7 b0c0 bc59 953f c850 95c0 e8f2 7cbf
000001b0: 4f0a 2dc1 727d 45c1 253e 79bf 9749 96bf
000001c0: 53dd b8bf 6f92 ecc0 d233 4dbf d356 803e
000001d0: 8398 7abf 380e b03e 4c32 f8c0 7d05 1240
000001e0: 44d3 5ebf 0661 bebe aa61 8cc0 4aa5 2a40
000001f0: 003a 12bf 5e85 11c0 141b a63f 16c5 e0c0
00000200: 81db 04c1 3a28 f0bf 9893 93bf 551e 153f
00000210: 7bd9 e0be b688 e7bf 77dd 083f c729 b23f
00000220: d8e4 9ac0 c49b e7c0 68f7 ef3f 4a96 7d3c
00000230: db45 bf3e 39e6 32bf 4f42 993f 2e3c df3e
00000240: 0ce3 37bf ed09 be3f d3cf 153f 23ec 2d40
00000250: c528 d03f 435a d8bf 387f 0fc0 d134 02c0
00000260: abd2 a5bf 9305 b0bf 4b77 7cbf 80c3 2d3f
00000270: 8300 3940 54f1 913f c780 a43f a604 3e3e
00000280: 8556 bd3d b0db 4140 954f ed3f f0c5 b23d
00000290: 258f 0fc0 dff3 273f 39f4 a1bf 9062 ad3f
000002a0: 0868 8dbd 89cc bc3f ede0 10c0 6c9b 8e3f
000002b0: 1525 07c0 5a7a 753f f2d7 2640 4d91 673f
000002c0: 33de b6bf 2201 9cbf 829a 1f40 5354 25be
000002d0: 5e23 3b40 d68c 00bb 857e 32be 613f 25bf
000002e0: dac2 e73e 3497 983f bd86 0b3f 895c 2a3d
000002f0: eebb 8ebf 322d 8ebd b821 40bf 3155 89bf
00000300: b9dd a7c1 0b84 37c0 34f6 14c0 4616 5a40
00000310: 4e23 11bf 2521 4fc0 fe3c 0bbd 720b 8ac1
00000320: 48ca 7e40 0797 5740 54fd 0dc0 84db d83f
00000330: 828a 48c1 a951 6fc0 c7d7 b53f c53f 653f
00000340: 5a40 3a3f 4440 3bc1 e416 8d3f 246d 4ebe
00000350: 047a 5ec0 665c 6c3f 8acc 6ec1 27fe eec0
00000360: 55a1 17c0 0406 673f 6fde 82bf 43dd da3f
00000370: 334c 6b40 d027 f7bf 178d 70c0 88ce dabf
00000380: 81f7 8abf 4e1d 353f 17e4 893d cda6 733f
00000390: a48c 43c0 45c9 d43f 58d3 7f3f c7c8 59c0
000003a0: 93a7 53be 8a57 d13e ddc8 a73e 98ca 94be
000003b0: 565d 80bf 2659 973f 6c78 df3f 65cd b93e
000003c0: e292 86bf 8fb7 92bf 4644 cfc0 f89e b9bf
000003d0: 57f8 efbf 3f47 2ac1 93c3 17c1 c42a 0ec1
000003e0: f4ae c040 9dd5 61bf 81e9 e9c0 4dc9 53c0
000003f0: e42c 8d3f b857 783f b8dc 3c3f f443 26c1

2.bias f4 [24]
-0.67618406 -0.75128907 0.96893936 2.4807396 -0.14223067 -0.78824836 -1.598594 0.38311774
1.7209933 0.5897276 -1.8859261 0.007248034 5.667643 2.1040537 0.17102191 2.4968083
3.5222352 -1.6212076 5.449569 -2.3719037 4.035081 -0.7122022 -3.9360785 -1.4731628
00000000: 661a 2dbf 7b54 40bf 690c 783f 70c4 1e40
00000010: eba4 11be a5ca 49bf ba9e ccbf 0228 c43e
00000020: 8249 dc3f 63f8 163f 0766 f1bf ea80 ed3b
00000030: 555d b540 d1a8 0640 5e20 2f3e b5cb 1f40
00000040: 4d6c 6140 bb83 cfbf df62 ae40 45cd 17c0
00000050: 621f 8140 e252 36bf b6e8 7bc0 9990 bcbf

4.weight f4 [4, 24]
11.856516 -3.4863362 -1.2366757 0.34253642 -0.43845734 -1.8523018 -3.2942958 0.24700607
4.119868 3.1600845 1.218212 4.091868 3.0594332 1.1783221 -2.269793 1.079459
2.1421995 -3.531428 3.572245 -4.592285 2.4820924 8.825477 -4.3036222 0.9191477
10.616053 0.81985813 -3.6527379 2.2425637 8.090367 4.715078 0.5006829 -2.8109736
14.443638 0.78738225 5.959466 8.259229 2.3168006 -0.75991464 1.0694656 -3.0564942
0.9299862 -3.7554052 2.6233833 10.319259 3.4161463 2.5498111 -0.28832987 2.878543
-0.6234162 0.7583731 -3.854283 -2.6685567 10.756286 1.5335671 -4.352652 -1.8446087
0.85192347 -2.5965934 -2.5987182 9.775026 3.9135005 1.4608812 -0.06427649 0.5835758
3.6072745 2.102151 2.9460561 8.126526 1.9545043 9.257621 0.4983971 0.8849175
6.0908 -2.9639747 -3.8571377 2.3620422 4.0535626 -3.7000759 0.48151127 -1.4661309
12.93295 -1.8861703 11.308874 1.2224877 2.1627698 5.593867 -7.012589 2.930547
4.1989923 -3.2326283 1.8567029 -0.77909744 0.7578738 9.747221 1.6208459 2.6585531
00000000: 4ab4 3d41 2220 5fc0 644b 9ebf ef60 af3e
00000010: 7b7d e0be 3a18 edbf bed5 52c0 29ef 7c3e
00000020: f5d5 8340 d33e 4a40 5fee 9b3f 95f0 8240
00000030: c1cd 4340 42d3 963f 4a44 11c0 b62b 8a3f
00000040: cc19 0940 eb02 62c0 a99f 6440 00f4 92c0
00000050: 9ada 1e40 2735 0d41 46b7 89c0 434d 6b3f
00000060: 5adb 2941 39e2 513f 75c6 69c0 2a86 0f40
00000070: 2572 0141 ebe1 9640 c12c 003f fee6 33c0
00000080: 2419 6741 e291 493f f2b3 be40 cd25 0441
00000090: 7646 1440 c489 42bf 40e4 883f 9a9d 43c0
000000a0: 9313 6e3f 8f58 70c0 83e5 2740 af1b 2541
000000b0: 24a2 5a40 1b30 2340 f99f 93be 0c3a 3840
000000c0: 3498 1fbf bd24 423f 93ac 76c0 a2c9 2ac0
000000d0: bf19 2c41 ed4b c43f ed48 8bc0 231c ecbf
000000e0: a817 5a3f 962e 26c0 6651 26c0 8266 1c41
000000f0: cb76 7a40 28fe ba3f 64a3 83bd 3965 153f
00000100: 96dd 6640 a489 0640 2f8c 3c40 4006 0241
00000110: 322d fa3f 371f 1441 e82d ff3e f489 623f
00000120: d5e7 c240 c3b1 3dc0 58db 76c0 b32b 1740
00000130: c9b6 8140 0bce 6cc0 a588 f63e 2daa bbbf
00000140: 5ded 4e41 076e f1bf 26f1 3441 7a7a 9c3f
00000150: d26a 0a40 f500 b340 2167 e0c0 158e 3b40
00000160: 255e 8640 62e3 4ec0 71a8 ed3f ee72 47bf
00000170: 0404 423f 9ef4 1b41 e177 cf3f bc25 2a40

4.bias f4 [4]
6.8016343 2.2141197 3.3582344 0.59501827
00000000: fda6 d940 23b4 0d40 50ed 5640 1e53 183f
