logs_400/logs/target_params_B_200.pt (torch, 6263 bytes, 6 tensors)

0.weight f4 [24, 12]
0.21324071 -0.49842316 -0.060479507 1.2844125 -2.4999247 -0.05429005 0.9122391 -0.12688452
-3.425492 1.9864283 1.4255747 -0.011157573 0.23831217 0.7976331 0.23765674 1.4807872
0.56396323 -0.06067177 -0.43923894 0.59267604 3.017613 2.2152357 0.9847629 4.2649817
0.08128679 1.7722545 0.11881846 -1.5863693 0.21678764 -1.2113676 0.80051553 -1.8018541
-6.6371393 -4.293177 -3.6178763 1.307603 1.7107581 2.446484 -0.40723345 -0.59458154
-0.8684488 -2.0661788 -0.40496427 -0.12228431 -8.033872 -1.2946067 2.1476524 -1.577098
1.9711417 0.09480335 -0.028500564 -0.39471322 -0.14124903 -0.07164108 0.005857237 0.17286001
3.4677517 -0.8881358 -0.8216382 -0.3712298 0.66509604 1.7794081 -0.23214713 -0.9133759
-0.8866974 -0.22255723 0.4142121 0.55981094 4.8886642 -1.3253976 -2.2879808 0.46682432
0.19410828 1.1002741 -0.10107021 -3.5040493 1.6409405 0.7383242 -0.6511959 0.5002732
2.1065216 -0.71938205 1.6842517 -7.466181 1.3958871 0.8896126 -0.55836415 0.101560004
-0.6904499 0.48498693 -0.8354249 -0.114218116 -5.075488 -0.24523881 -7.404036 -1.3186786
-1.3626393 1.9698312 -0.60025454 -1.6185597 -0.14997554 -0.12856895 0.38195246 1.3857064
2.71606 -0.58127815 -8.919978 1.9275539 0.54621 0.64733976 0.04526766 -0.0849549
0.48005968 0.1340505 -0.75610524 -0.45911565 -8.0305 -0.1943408 -8.55632 -3.3153772
-0.47187352 0.61518145 0.42977655 -2.9635909 -7.048803 -0.8936212 0.41325325 0.8440241
4.3538017 -2.4857168 -4.3819075 0.9402134 -0.5075262 -0.21418157 0.024418687 -0.29108196
-0.37843198 -0.21504043 -0.2090229 -0.31317538 -0.20084266 -0.27828324 0.009833147 0.45375073
1.2885548 -0.09855553 -3.314694 -2.4981263 0.52961326 -5.4587936 1.3152449 0.9050922
3.717397 -6.7112627 -9.091346 1.450696 0.75213575 0.7167915 -0.5647032 0.058428615
-0.86563843 -0.96923566 -0.56292933 0.14646053 2.3344293 0.8362609 -6.4684243 -1.626878
-0.2175576 -2.3794103 -0.5235137 -0.5127837 0.0693222 0.6288583 -0.44321752 0.8048098
-2.5555267 0.838195 2.4427056 4.3442883 -0.10468549 -0.479823 -0.86929697 -0.37599602
0.44126752 0.3009578 1.0379409 0.79395336 -5.107523 0.020721305 3.6726477 6.078346
0.6280943 -0.9258752 0.36035314 0.33480787 0.32809243 -0.7041012 -0.14344236 0.7755037
-3.896694 -0.7845404 -0.6869627 1.3740096 2.3503687 1.9025449 -0.93430597 -0.32871926
0.3906125 -1.0116355 -0.9415505 -0.24652943 -1.1857548 -0.46491045 -1.9693655 -4.824537
0.04641765 0.14202869 -0.17385015 -0.008564559 -1.6605682 0.6305417 -0.16627562 0.0125940405
5.5211716 -0.9133156 -0.44153 -3.9549356 -1.1798018 -2.558793 -0.23363468 0.16343684
-0.03850538 -0.04069742 1.0994948 2.587813 -4.3274527 -0.7825055 -0.919569 -0.90416586
0.055533417 0.75625116 -0.07617501 -0.2812801 0.9682887 0.4140513 2.164378 1.0549291
-0.93805957 2.3273623 2.937197 2.0347254 -3.2153077 0.8914192 0.9200755 0.34979704
00000000: c65b 5a3e 5231 ffbe 5cb9 77bd a167 a43f
00000010: c4fe 1fc0 3e5f 5ebd 8088 693f 04ee 01be
00000020: 433b 5bc0 4843 fe3f 3b79 b63f 41ce 36bc
00000030: 1b08 743e af31 4c3f 4a5c 733e 6f8a bd3f
00000040: e55f 103f f682 78bd ede3 e0be 9eb9 173f
00000050: 9220 4140 6cc6 0d40 6c19 7c3f bb7a 8840
00000060: b079 a63d 3cd9 e23f 1857 f33d 260e cbbf
00000070: 94fd 5d3e 180e 9bbf 96ee 4c3f 28a3 e6bf
00000080: 7263 d4c0 b561 89c0 498b 67c0 895f a73f
00000090: 1ffa da3f 3293 1c40 e780 d0be 7f36 18bf
000000a0: a952 5ebf 463c 04c0 7a57 cfbe 3270 fabd
000000b0: bd8a 00c1 acb5 a5bf 2373 0940 59de c9bf
000000c0: 5f4e fc3f 4228 c23d 047a e9bc da17 cabe
000000d0: 96a3 10be 8fb8 92bd 11ee bf3b 3702 313e
000000e0: a5ef 5d40 de5c 63bf e256 52bf d511 bebe
000000f0: bc43 2a3f a5c3 e33f fab7 6dbe 01d3 69bf
00000100: 9afe 62bf 0be6 63be 9c13 d43e c54f 0f3f
00000110: f06f 9c40 a1a6 a9bf 476e 12c0 9903 ef3e
00000120: 52c4 463e c8d5 8c3f e6fd cebd 5842 60c0
00000130: 570a d23f d102 3d3f c6b4 26bf e811 003f
00000140: 40d1 0640 6c29 38bf 8f95 d73f f4ea eec0
00000150: 6eac b23f a7bd 633f f4f0 0ebf b1fe cf3d
00000160: 53c1 30bf 3550 f83e 68de 55bf 30eb e9bd
00000170: 666a a2c0 e21f 7bbe dded ecc0 76ca a8bf
00000180: f76a aebf 6e23 fc3f 48aa 19bf f72c cfbf
00000190: 3093 19be 94a7 03be 468f c33e d45e b13f
000001a0: edd3 2d40 a5ce 14bf 3bb8 0ec1 16ba f63f
000001b0: 6bd4 0b3f 0fb8 253f 956a 393d d6fc adbd
000001c0: 62ca f53e 8944 093e 1d90 41bf 3511 ebbe
000001d0: ee7c 00c1 4601 47be b0e6 08c1 242f 54c0
000001e0: 6899 f1be 887c 1d3f ac0b dc3e 79ab 3dc0
000001f0: cb8f e1c0 5cc4 64bf ee95 d33e f711 583f
00000200: 5852 8b40 fc15 1fc0 9638 8cc0 d3b1 703f
00000210: 3ded 01bf 6a52 5bbe b309 c83c b208 95be
00000220: d6c1 c1be 8f33 5cbe 190a 56be 8658 a0be
00000230: b3a9 4dbe 247b 8ebe 351b 213c 0452 e83e
00000240: 5def a43f 7bd7 c9bd f223 54c0 4de1 1fc0
00000250: bc94 073f 70ae aec0 f259 a83f 1fb4 673f
00000260: d5e9 6d40 aac2 d6c0 2776 11c1 68b0 b93f
00000270: f88b 403f a67f 373f 6490 10bf d852 6f3d
00000280: 7b9a 5dbf d41f 78bf 231c 10bf c0f9 153e
00000290: 4a67 1540 3215 563f 55fd cec0 8a3d d0bf
000002a0: 6bc7 5ebe 4248 18c0 fe04 06bf cb45 03bf
000002b0: ccf8 8d3d dcfc 203f 68ed e2be 0408 4e3f
000002c0: c08d 23c0 f393 563f 4a55 1c40 6904 8b40
000002d0: 5965 d6bd 5cab f5be 3f8a 5ebf 8d82 c0be
000002e0: d1ed e13e 2417 9a3e 3fdb 843f 8740 4b3f
000002f0: d470 a3c0 babf a93c a90c 6b40 cf81 c240
00000300: caca 203f 2806 6dbf 3580 b83e f06b ab3e
00000310: bbfb a73e fa3f 34bf 8ee2 12be 6987 463f
00000320: 6f63 79c0 a4d7 48bf cadc 2fbf 8cdf af3f
00000330: 716c 1640 9786 f33f ad2e 6fbf e44d a8be
00000340: 5dfe c73e 467d 81bf 7409 71bf 3672 7cbe
00000350: d0c6 97bf be08 eebe 2b14 fcbf 9b62 9ac0
00000360: 6f20 3e3d f86f 113e c605 32be 5d52 0cbc
00000370: 808d d4bf 2e6b 213f 2844 2abe 3c57 4e3c
00000380: 70ad b040 0dcf 69bf 3810 e2be aa1d 7dc0
00000390: bf03 97bf 44c3 23c0 ee3d 6fbe fd5b 273e
000003a0: d1b7 1dbd 56b2 26bd 3fbc 8c3f ba9e 2540
000003b0: 7e7a 8ac0 4852 48bf e068 6bbf 6a77 67bf
000003c0: 0277 633d ad99 413f a501 9cbd f203 90be
000003d0: c5e1 773f 88fe d33e 2b85 0a40 eb07 873f
000003e0: ac24 70bf 81f3 1440 09fb 3b40 f138 0240
000003f0: 9ac7 4dc0 0c34 643f 118a 6b3f 9918 b33e

0.bias f4 [24]
2.4663312 -3.98995 0.14439122 -2.290252 -7.359734 -5.214522 -1.7711823 0.843471
-1.0749179 2.2467537 -2.0819874 -0.47008508 -1.860957 1.8796785 2.2887878 -1.9420128
3.357589 -2.0727267 -3.4787638 2.8754578 -1.7792927 3.0366664 -1.7146355 0.08467076
00000000: 5fd8 1d40 575b 7fc0 4bdb 133e 7d93 12c0
00000010: f182 ebc0 5ddd a6c0 1ab6 e2bf b7ed 573f
00000020: e996 89bf d0ca 0f40 483f 05c0 feae f0be
00000030: d733 eebf 4e99 f03f 807b 1240 e093 f8bf
00000040: bde2 5640 8ea7 04c0 11a4 5ec0 8007 3840
00000050: ddbf e3bf be58 4240 2d79 dbbf dd67 ad3d

2.weight f4 [24, 24]
0.33121568 0.85818505 2.3767693 1.2632669 4.684169 1.0485182 1.1990626 0.36228985
1.0860335 -1.3054276 4.851052 -0.018114744 -0.5192532 2.246855 -0.23193808 0.55857164
0.2735334 0.96900576 1.5238116 -2.199643 0.67005354 -0.71286595 -0.72280145 1.5786349
-1.0913557 0.779562 -0.6321964 -1.7948178 1.8063928 0.5986207 -0.5031233 -1.0603905
-0.07624763 -5.6402035 -4.373253 -0.05355326 2.3180475 0.117910214 -5.193313 -3.9719715
-2.7128396 -1.3797232 -0.25482127 -4.1082683 -4.725636 -2.011 -0.68668693 0.48531315
0.7610368 -0.04819121 1.2616415 0.29658276 -11.240295 3.6403358 0.8975763 0.24566266
-0.004015836 0.3032997 -1.3083329 0.11035913 -3.150276 -0.0991941 1.1013079 0.39402568
0.89399064 1.2385851 -2.0920932 -0.52956206 0.18395326 0.61320746 0.6059243 0.32907945
-5.1595235 -1.1901721 -1.5447634 -4.7411633 3.6999302 0.094459504 2.1233482 0.4007518
-0.2770628 -2.0030334 -2.8639402 -0.06560066 3.2667134 0.84624165 -2.182936 -1.1024425
-5.376091 0.5121663 -0.8888043 -3.1178117 0.3677638 -0.70531684 -1.6323482 0.990005
0.06658078 -0.21313235 -0.18515858 0.04875845 -0.14170735 -0.3206311 -0.11232045 0.10010041
-0.04913996 -0.3113843 0.032507543 0.1886445 -0.026563033 -0.01896888 -0.42886874 -0.4496285
-0.3132486 -0.0034804947 -0.018901007 -0.35469282 -0.14921378 -0.1775523 -0.1006014 -0.14903653
-0.5416151 -0.2676522 0.025859345 -0.0036992892 -0.11542447 -0.2417327 -0.25383133 0.1933023
-0.04810394 -0.44273353 -0.14858156 0.08220199 -0.0035910038 -0.2926994 -0.23363666 -0.298846
-0.21618176 -0.23586626 0.1284632 -0.48206037 -0.12308339 -0.2587174 -0.07229765 0.047573753
-0.33297247 0.41261643 -2.8579195 -1.9307449 -7.491732 4.6647034 -0.32412788 -1.6004121
2.0751576 -3.846831 -5.753827 0.437449 5.1571603 -1.3264374 -2.837659 1.3531696
1.3001021 -1.4010435 -2.7949493 -8.242795 0.9471353 -1.0336539 -0.25924885 3.8201096
0.07582754 -0.3802599 -0.12884419 -0.23858269 0.08473836 -0.03508328 -0.12830983 0.044738986
-0.28636578 -0.085015096 0.11473077 -0.1950745 -0.12996952 -0.005311042 -0.28127474 -0.45217308
-0.3376478 -0.26448736 0.075466715 -0.4693392 -0.30317518 -0.09112475 -0.09447282 0.05325854
-0.23623298 -0.47447345 0.030519191 1.5773597 1.1334639 0.310401 1.4831547 -4.586152
-0.28544623 -3.2150555 -2.264631 0.07156043 1.7825668 0.45872515 -3.3143866 -1.607194
-8.007777 0.85540056 1.1825708 -4.6277633 -3.1593611 -4.132621 1.4808081 0.46190163
0.41533315 -0.39348254 1.420905 1.1928301 -3.257045 0.51372504 0.38289428 -0.18892893
0.9528575 1.8620028 1.7448354 0.012437705 -1.1566054 -1.313225 -0.024173718 -2.6592028
-1.2139235 2.0803745 -4.0832524 0.5084177 0.87085044 -0.15571134 0.04429481 -2.99751
-3.1790798 -2.310293 0.39508575 -2.6885297 0.29493234 0.63321155 0.29783878 -0.58501697
0.016443977 -1.3614914 -0.08405089 -0.14909124 -0.8701723 0.34008494 -2.4264853 -1.5984465
00000000: 1a95 a93e 04b2 5b3f fd1c 1840 bbb2 a13f
00000010: b6e4 9540 d835 863f e27a 993f 0e7e b93e
00000020: 2503 8b3f 4018 a7bf d13b 9b40 5f65 94bc
00000030: c7ed 04bf 79cc 0f40 2d81 6dbe 8dfe 0e3f
00000040: 920c 8c3e c310 783f 420c c33f f3c6 0cc0
00000050: a188 2b3f 627e 36bf 8409 39bf b510 ca3f
00000060: 8bb1 8bbf 6091 473f a0d7 21bf 97bc e5bf
00000070: e137 e73f 353f 193f b0cc 00bf e0ba 87bf
00000080: b827 9cbd 8c7c b4c0 b0f1 8bc0 aa5a 5bbd
00000090: e45a 1440 e97a f13d 9f2f a6c0 c834 7ec0
000000a0: 2a9f 2dc0 c59a b0bf ef77 82be ef76 83c0
000000b0: 6938 97c0 39b4 00c0 b7ca 2fbf f77a f83e
000000c0: 4fd3 423f 2564 45bd 787d a13f b2d9 973e
000000d0: 40d8 33c1 43fb 6840 8fc7 653f fe8e 7b3e
000000e0: 4697 83bb 194a 9b3e 7477 a7bf f803 e23d
000000f0: 1f9e 49c0 4726 cbbd a8f7 8c3f bcbd c93e
00000100: 92dc 643f f589 9e3f dbe4 05c0 6191 07bf
00000110: 3e5e 3c3e 2afb 1c3f db1d 1b3f 1a7d a83e
00000120: d11a a5c0 8f57 98bf cfba c5bf 9cb7 97c0
00000130: a8cb 6c40 fc73 c13d f0e4 0740 572f cd3e
00000140: 2ddb 8dbe b331 00c0 cc4a 37c0 a459 86bd
00000150: d511 5140 4ba3 583f 39b5 0bc0 d61c 8dbf
00000160: f008 acc0 551d 033f ae88 63bf 3a8a 47c0
00000170: 894b bc3e a58f 34bf c9f0 d0bf f870 7d3f
00000180: 815b 883d 5e3f 5abe 369a 3dbe f1b6 473d
00000190: bb1b 11be c229 a4be 4408 e6bd 7201 cd3d
000001a0: fc46 49bd c36d 9fbe a126 053d 062c 413e
000001b0: b89a d9bc a064 9bbc af94 dbbe b535 e6be
000001c0: 1f62 a0be 0319 64bb 49d6 9abc 4c9a b5be
000001d0: 7fcb 18be 45d0 35be 1b08 cebd 089d 18be
000001e0: 4aa7 0abf b609 89be fad6 d33c c66f 72bb
000001f0: aa63 ecbd c788 77be 2ef6 81be 0af1 453e
00000200: a308 45bd f8ad e2be c425 18be 8459 a83d
00000210: 0c57 6bbb b2dc 95be 733e 6fbe 5802 99be
00000220: c05e 5dbe ed86 71be db8b 033e 9ed0 f6be
00000230: 2513 fcbd 9b76 84be ca10 94bd b2dc 423d
00000240: 5e7b aabe 7642 d33e 27e8 36c0 a622 f7bf
00000250: 45bc efc0 4045 9540 17f4 a5be 4eda ccbf
00000260: 62cf 0440 7b32 76c0 5a1f b8c0 51f9 df3e
00000270: 7507 a540 b3c8 a9bf 349c 35c0 a934 ad3f
00000280: bf69 a63f 6555 b3bf 73e0 32c0 7de2 03c1
00000290: 7677 723f c54e 84bf 44bc 84be ad7c 7440
000002a0: 784b 9b3d 6db1 c2be bbef 03be 054f 74be
000002b0: 4e8b ad3d 7cb3 0fbd a763 03be 3a40 373d
000002c0: 899e 92be 651c aebd f7f7 ea3d 9cc1 47be
000002d0: bb16 05be 4008 aebb 3e03 90be 3b83 e7be
000002e0: 2ce0 acbe e36a 87be 4b8e 9a3d 3a4d f0be
000002f0: c739 9bbe 9d9f babd f77a c1bd a025 5a3d
00000300: 0fe7 71be 2fee f2be 6203 fa3c ece6 c93f
00000310: 5815 913f e1ec 9e3e 03d8 bd3f c2c1 92c0
00000320: 0226 92be 78c3 4dc0 b7ef 10c0 468e 923d
00000330: 262b e43f 06de ea3e e91e 54c0 88b8 cdbf
00000340: db1f 00c1 88fb 5a3f 7b5e 973f a316 94c0
00000350: f932 4ac0 6e3e 84c0 1f8b bd3f 5f7e ec3e
00000360: 8ca6 d43e 8b76 c9be 37e0 b53f a8ae 983f
00000370: 6d73 50c0 7c83 033f b80a c43e 9676 41be
00000380: 78ee 733f 1c56 ee3f c456 df3f 84c7 4b3c
00000390: a50b 94bf c217 a8bf f607 c6bc 6130 2ac0
000003a0: d861 9bbf db24 0540 01aa 82c0 aa27 023f
000003b0: 0ef0 5e3f cb72 1fbe 7a6e 353d 34d7 3fc0
000003c0: 0b76 4bc0 d7db 13c0 ae48 ca3e df10 2cc0
000003d0: 5f01 973e 271a 223f 537e 983e acc3 15bf
000003e0: 85b5 863c 5a45 aebf df22 acbd 60ab 18be
000003f0: 9dc3 5ebf 9d1f ae3e 894b 1bc0 e599 ccbf

2.bias f4 [24]
1.6125095 -1.1740234 -2.6491148 -0.92939484 -0.37686038 -0.30222794 -2.9619808 -0.025185907
-1.7066357 1.5257417 -0.9838331 -3.0590477 0.9441252 -0.47005752 -0.35976294 -1.6726053
1.4406434 0.24066527 -0.09561609 2.3797464 -0.70356476 -0.7475993 1.9758246 0.03966432
00000000: b666 ce3f 6646 96bf 198b 29c0 d2ec 6dbf
00000010: d8f3 c0be 9fbd 9abe 1891 3dc0 ad52 cebc
00000020: 0a73 dabf 814b c33f 7cdc 7bbf 70c7 43c0
00000030: 30b2 713f 61ab f0be d932 b8be ee17 d6bf
00000040: 0167 b83f f570 763e 5ed2 c3bd c44d 1840
00000050: d21c 34bf ab62 3fbf d2e7 fc3f 0e77 223d

4.weight f4 [4, 24]
2.8611932 1.2512523 -0.8058406 -0.5366606 0.012248069 -0.16628791 2.9836712 -0.042783175
0.96966106 -3.6583362 -0.18354276 1.5187856 2.4714353 -0.41342264 -0.0311642 2.7819073
0.63964224 0.5543633 -0.10445981 -0.33428553 -0.6890289 -0.84138405 -0.33228487 0.10521693
1.9503461 3.0612447 -1.7884032 -2.1213744 0.108617455 -0.27714413 1.8305829 -0.055319216
-0.23473744 -0.37393826 2.6469038 4.7203474 4.106451 -0.048117142 2.208301 1.4604355
-1.9719133 2.1893198 0.25056592 -1.5741508 2.3820963 2.3838406 -2.1610641 -0.16462943
1.6571034 0.7797455 0.5913843 -4.297704 0.11123453 0.098913215 2.2175322 0.007664085
1.8275348 -2.5341885 -0.057417568 2.8176227 4.9987335 0.17474526 1.8042612 1.6544025
0.21920963 0.6628231 0.1261248 -0.7109876 -0.021039393 0.066492245 -0.6605709 0.07833526
0.30341908 0.9880182 1.9893287 1.7131975 0.056764364 0.22164834 5.288771 -0.12920436
3.411612 -1.8819346 -2.7674127 3.281636 1.0183221 -0.31871083 1.6658715 4.0303974
-0.18408866 0.8847459 -0.051662922 -1.1322712 -1.9736522 -2.108843 -1.0315422 -0.07475153
00000000: ca1d 3740 0929 a03f 924b 4ebf 9762 09bf
00000010: 20ac 483c 6147 2abe 78f4 3e40 693d 2fbd
00000020: b53b 783f 2e22 6ac0 a2f2 3bbe 9167 c23f
00000030: ff2b 1e40 22ac d3be 104c ffbc c50a 3240
00000040: 98bf 233f c1ea 0d3f 06ef d5bd 7927 abbe
00000050: 3364 30bf f264 57bf 3e21 aabe f97b d73d
00000060: f1a4 f93f 6feb 4340 65ea e4bf 99c4 07c0
00000070: d472 de3d d6e5 8dbe 8a50 ea3f 6796 62bd
00000080: 035f 70be d674 bfbe df66 2940 160d 9740
00000090: 0c68 8340 7b16 45bd ce54 0d40 8def ba3f
000000a0: a867 fcbf d11d 0c40 2d4a 803e c67d c9bf
000000b0: 4474 1840 d890 1840 e04e 0ac0 9e94 28be
000000c0: f71b d43f 679d 473f f664 173f cb86 89c0
000000d0: eece e33d 0393 ca3d 0cec 0d40 0123 fb3b
000000e0: a9ec e93f 2530 22c0 af2e 6bbd ee53 3440
000000f0: a0f5 9f40 6cf0 323e 08f2 e63f 76c3 d33f
00000100: 7d78 603e c6ae 293f dc26 013e 4903 36bf
00000110: ce5a acbc 162d 883d 2d1b 29bf 3d6e a03d
00000120: bf59 9b3e c3ee 7c3f 53a2 fe3f 0e4a db3f
00000130: c081 683d c8f7 623e 9d3d a940 264e 04be
00000140: da57 5a40 3ce3 f0bf 4a1d 31c0 5306 5240
00000150: 6158 823f 112e a3be 473b d53f 04f9 8040
00000160: bd81 3cbe b57e 623f 809c 53bd 43ee 90bf
00000170: a3a0 fcbf 49f7 06c0 9309 84bf 5517 99bd

4.bias f4 [4]
-4.3669877 1.4480319 -3.93921 -1.3691334
00000000: 5dbe 8bc0 1c59 b93f 041c 7cc0 c33f afbf
