logs_400/logs/target_params_A_175.pt (torch, 6263 bytes, 6 tensors)

0.weight f4 [24, 12]
00000000: dc08 f13f b58c cd3f 2e18 f1bd b0b2 c73e
00000010: 68ca 84bf 797a a53f 7dbf 8dbe 958c 99be
00000020: d56e 9dc0 9069 3b40 3dfe 0840 6b72 acbf
00000030: eee1 19c0 87b2 85bf 0daa 863f 59ee 81be
00000040: cb99 70be d84f b03f 018a 843f c230 143f
00000050: bf52 8740 62c4 c63e d157 323f b301 1540
00000060: a1b1 54be db22 e53f eddc 3c3f dd59 cfbe
00000070: efed 58bf afe6 80c0 38bd da3f dd7a b93f
00000080: 239f c2bf 7a64 1bbf c314 8cc0 4872 6fc0
00000090: 81e7 d8bf 1b9f b13d 6833 4a3f a11d 4c3f
000000a0: d739 1d3f 8526 8c3e 05fa b8bf 47a9 f2bf
000000b0: 12a8 d240 6b23 d6bf 5609 9e3e 70a3 c9c0
000000c0: fe34 b0bf dc83 e0bf d43a b93d 97b7 bf3d
000000d0: d5f8 1fbd 40b3 053e ede7 cb3d f9f1 0c3e
000000e0: 6a18 a7c0 0537 99be f18e 41bf f65d 623e
000000f0: 5755 4a3f 816f 17c0 cdd1 b13e 34b2 cd3d
00000100: 257f e23e 906e 0e40 d853 143e 78e0 743f
00000110: 9214 e6c0 d5e3 c4bf 21a1 313e 1d8c e53f
00000120: 71f7 1240 a681 07bf 8b74 6dbd 570d db3e
00000130: fbd9 9bbe bf41 cbbe 3382 ac3f ee9e 213f
00000140: 6bdc 1ac1 1b08 53bd 87ab 6fbf af7b 71c0
00000150: f10e 02bf 1fe1 0f40 dc02 2fbe d508 83bd
00000160: 9c3e d43f c128 7fbf 6821 ef3e 4c8d bebf
00000170: 8c88 afc0 cfcc ddbe 4e1e 09bf e80d 6340
00000180: fa31 143f 5a40 b8bf 9277 223e b7e3 8a3f
00000190: 0dc8 e73f ced9 943f d53c 5cc0 1463 afc0
000001a0: 0f67 1b3f ba37 d0bf a7ea 9cc0 7b27 67c1
000001b0: a95f a3bf d325 98bf 8b3f 75bf db72 713f
000001c0: 4f33 0b3e b0b2 353f 62f4 2140 8f92 d83e
000001d0: 34a7 80c0 c41b 38c0 734a 99c0 5060 5fc0
000001e0: 0b6b 2440 d17d f1be eaaf 67c0 f234 9d3e
000001f0: 7d01 a43f 5eb2 d63c f185 d4bf 60f9 b13c
00000200: fe8e 0f40 34e6 86c0 2adf 21c1 5a15 f2c0
00000210: 303f cd3f cc62 0cc0 831d 85bf 1009 893e
00000220: 6c9b 343f d91c a03d 529a 933f ce27 643f
00000230: e7c6 a640 1282 1cbf 6927 ebbe 3a6a 2cbf
00000240: a7ca 1140 2985 85c0 5c90 d13d aac4 5c3e
00000250: f440 f83e fe6d 833e d148 0c3e 048c 76be
00000260: 1938 adc0 e23a fcbe 4bfc ef3f f780 0440
00000270: 1ce2 56c0 aeda c6be 2b59 16bf 7fb7 853d
00000280: b11a 4840 7f8d bf3f 2d51 46be 275a dfbe
00000290: defc 6240 77c2 303f b985 6440 4a60 3dbf
000002a0: efea 8a3f fdb9 503f 93f4 03bf f740 353f
000002b0: d53e 6c3f 5b86 0cbf 993d 173f 531b 87bf
000002c0: c8e8 b640 f044 863f 0837 643f 067d 7fc0
000002d0: 5310 8740 e365 e93e 708e 19bf 488c b0be
000002e0: 7c65 e33f 932c 68bf c90d 1dbf b250 8dbf
000002f0: c072 81c0 b183 c8bf 2b56 af3c 7ee6 c0bf
00000300: aaa6 29c1 22bf c63f 3a31 2ebe 4d63 67bf
00000310: 2c6e 2740 d1ff 8c3e b9ce 2bc1 1eb8 53be
00000320: 35b0 0340 a523 cfbf a5c5 04c0 6680 47c1
00000330: e142 873f 7d87 2240 99fb cebe 008a adbf
00000340: 1097 40c0 1813 bb3e 39c3 ab3f bee9 8ebf
00000350: b252 9c3f d559 18c1 57cd fdbd b418 ae3f
00000360: f815 533f a4bc 883f 53a7 81bd 686e e13e
00000370: acc3 77be c9ba 1b3f 625d 6f3f e098 d33e
00000380: 95b0 9e40 1c16 2bc0 ffd9 abc0 5d44 633f
00000390: af84 d5bc 8f27 fabd d8b8 94be 1825 55be
000003a0: 2ace 3abe 5565 09be c229 05be 7472 06be
000003b0: a0e9 2abe 44d7 af3d 094e 01be a89d 73be
000003c0: c55a 103f 84df 4440 89ba 783f 2f9f 1abf
000003d0: 591a 31be d646 013f 90ef d13e fbc2 8bbe
000003e0: f7f4 43c0 a85f 67bb 48d9 503f fc80 c53f
000003f0: 51cc 9ebe c50b bdbf e2de 393f 5d55 bd3f
1.8830829 1.6058565 -0.1177219 0.39003515 -1.037427 1.2928001 -0.27685156 -0.29990068
-4.9197793 2.928318 2.1405175 -1.3472418 -2.4044147 -1.0445107 1.0520645 -0.25377157
-0.23496167 1.3774366 1.0354615 0.578869 4.228851 0.38821703 0.6966525 2.3282287
-0.20770885 1.7901262 0.73774606 -0.40498248 -0.8473806 -4.0281596 1.7088995 1.449062
-1.5204815 -0.6070019 -4.3775344 -3.7413502 -1.6945649 0.08672925 0.7898469 0.7973271
0.6141638 0.27373138 -1.44513 -1.8957909 6.5830164 -1.6729559 0.30866498 -6.301201
-1.3766172 -1.754024 0.09044424 0.09361189 -0.039055664 0.1305666 0.09956346 0.1376418
-5.22173 -0.2992479 -0.75608736 0.22106156 0.7903647 -2.3661807 0.34730378 0.10043755
0.4423763 2.2254982 0.14485109 0.9565501 -7.190011 -1.5382029 0.17346622 1.7933384
2.2963526 -0.529322 -0.057972472 0.42783615 -0.30439743 -0.39698598 1.3477234 0.6313313
-9.678813 -0.0515214 -0.93621105 -3.773174 -0.5080405 2.2481153 -0.17090935 -0.06398169
1.6581607 -0.9967156 0.46705174 -1.488687 -5.4854183 -0.4332032 -0.53561866 3.5477238
0.5788876 -1.4394639 0.15865925 1.0850743 1.8107926 1.1628969 -3.441213 -5.4808445
0.6070413 -1.6267006 -4.903644 -14.447139 -1.2763568 -1.1886543 -0.95800084 0.9431588
0.13593791 0.7097578 2.530541 0.42299315 -4.0204105 -2.8766947 -4.790338 -3.4902534
2.5690334 -0.47166303 -3.620112 0.30704457 1.2812954 0.026208099 -1.6603376 0.021725357
2.2431026 -4.215601 -10.116983 -7.5651064 1.6034908 -2.19353 -1.0399631 0.26764727
0.70549655 0.07818002 1.153147 0.8912324 5.21178 -0.6113597 -0.45928505 -0.6734959
2.277994 -4.172505 0.102326125 0.21559396 0.48487055 0.25669855 0.13699652 -0.24076849
-5.413098 -0.49263674 1.8748869 2.0703714 -3.3575506 -0.38838714 -0.5872981 0.0652914
3.126629 1.4965056 -0.19366904 -0.43623468 3.5466838 0.6904673 3.5706618 -0.7397505
1.0852946 0.81533796 -0.51545066 0.70802253 0.92283374 -0.5489251 0.59078366 -1.0555214
5.7159157 1.0489788 0.8914647 -3.9920058 4.2207427 0.45585546 -0.5998297 -0.34482026
1.7765346 -0.90693015 -0.6134916 -1.1040251 -4.0452576 -1.5665189 0.021403393 -1.5070341
-10.603189 1.5527079 -0.17010966 -0.90385896 2.6160994 0.27538922 -10.737969 -0.20675704
2.0576298 -1.6182753 -2.0745633 -12.468847 1.0567285 2.5395195 -0.4042633 -1.3557739
-3.0092201 0.36538005 1.3418952 -1.1165082 1.2212737 -9.521932 -0.12392681 1.3601289
0.82455397 1.0682569 -0.06330743 0.44029546 -0.24195737 0.60831887 0.93501866 0.41327572
4.9590554 -2.6732244 -5.370361 0.8877619 -0.026064245 -0.122145765 -0.29047275 -0.20814931
-0.18242708 -0.13417561 -0.1300421 -0.13129598 -0.16690683 0.085859805 -0.12627424 -0.2379061
0.56388503 3.0761423 0.9715963 -0.60399145 -0.17295207 0.5049871 0.41003084 -0.27297196
-3.0618265 -0.0035304818 0.81581545 1.5429988 -0.31015256 -1.4769217 0.7260572 1.4791676

0.bias f4 [24]
00000000: c6de a93f aa81 90bf db08 ce3f d787 48bf
00000010: 0134 2a41 7c72 8cbf fc25 24bf 0ca2 3a40
00000020: 8f52 17bf 53d5 3540 4902 bcbf b363 a3bd
00000030: 371d 8f3d 0fc3 0ac0 9ece 9ebf bc89 5c3d
00000040: baf2 04c0 a9fe ccbf 88aa 79c0 65a2 0b3e
00000050: 404e 3c40 504f 3e40 8d08 9dbf 9477 0bc0
1.327111 -1.128957 1.6096452 -0.78332275 10.637696 -1.0972438 -0.6412046 2.9161406
-0.5911035 2.8411453 -1.4688197 -0.079780005 0.06987994 -2.1681554 -1.2406805 0.05384229
-2.0773149 -1.6015216 -3.9010334 0.13636167 2.942276 2.9735909 -1.2268234 -2.1791735

2.weight f4 [24, 24]
00000000: 3592 10c0 21de 683f 586b 6d40 6b2c 15bf
00000010: 8f55 ae3f 3684 c5c0 361a 3dc0 ceec f1c0
00000020: 8975 c540 6978 e73f a205 37c0 89e6 0ac0
00000030: 4f4e 73c0 3b7d 02c0 fbe2 99c0 94ac 82c0
00000040: eba8 4e3f 090d 8cc0 55aa 2540 e4cc bc3d
00000050: 5a7b a73f 7e94 45bf c751 5cc0 d408 edc0
00000060: c963 aabf 894c 0440 952f 8bbf 8738 ed3f
00000070: af1a de3f 666f edbf c165 67c0 7e06 b2be
00000080: 51ec 38bf a393 9abf 45bd 8fbe 612b 84be
00000090: 5613 adc0 a3f8 073f b541 c53f a461 a73e
000000a0: 9268 76be 8755 8e40 45c1 d43d 0668 133d
000000b0: 7e7f 1bc0 b8a2 f73f 1495 f4bf 5e65 2abf
000000c0: a74a 863f f4b9 f9bf 17fb 1e40 4274 acc0
000000d0: f742 3ec0 8dc7 ab3f 06da 0440 8782 2240
000000e0: 6e4c a13f 3d4c bb3f 5360 31bf 02e6 d1bf
000000f0: c765 f7bd 3d48 edbe 51e2 2bbe 17ec ac3f
00000100: f8bb 1540 8d46 3f40 253a 0bc0 864c a8bc
00000110: 3b1b 0740 1488 fcbe 06ec 5d3f 9f26 853e
00000120: 9f49 adbf ad6b 883f 7821 d3bf 137c c03f
00000130: 3cea 5340 9f3e 3fc0 5cc2 08c0 b3ae acbf
00000140: b2c6 2040 0d16 e2be 9f21 003f f5e8 1e40
00000150: 3364 96c0 85c7 873f 9428 763f e223 cbbf
00000160: 4ecd e6bf b116 7cc0 f11a a53f e7bb 32be
00000170: 446d 34bb 036b cf3e 6174 813f 3ab9 ecbe
00000180: 2f8b dec0 4073 8b3f 4482 2ac0 ec89 b6c0
00000190: 7b0c 3540 27a8 4cc0 a7fd 6ac0 b65d dec0
000001a0: 85b7 b0c0 2470 b73f e25c 65c0 29c4 b1be
000001b0: 7348 2bc1 a8c6 37c1 d3e0 bfbe 9749 96bf
000001c0: 53dd b8bf d338 e1c0 139a 47be d356 803e
000001d0: c1fa 0cbf 0d80 fb3e 36e5 05c1 a420 1a40
000001e0: d645 c8bf f2c0 c23d 4178 97c0 d52d 2340
000001f0: 02a8 fb3d 89f6 09c0 45a2 f13f d51e edc0
00000200: 1213 d5c0 4d60 0bc0 ad7b 0bbf 91ce 463f
00000210: f504 71be 56b9 ffbf ef42 0c3f b398 cd3f
00000220: 121f 80c0 80ee bcc0 7ae9 e03f 4a96 7d3c
00000230: 1117 c23e fcfb 04bf bf15 ae3f 6229 763e
00000240: 9d89 8bbf e898 ba3f 1ee8 143f b3cc 3740
00000250: c769 ca3f 70e5 e3bf b0f5 2dc0 ec60 0dc0
00000260: 2b49 9bbf 66fd d9bf e7df 36bf 3069 8f3f
00000270: d5f4 0c40 8ebe 963f d63a 9f3f fe06 8a3e
00000280: 8c10 12bf d4ed 6140 e29f 0140 f0c5 b23d
00000290: 3f03 febf eb61 5f3f fc4a f3bf bdb4 a03f
000002a0: 5124 43be 4e31 473f 7d04 b1bf 5627 ef3f
000002b0: 61f4 05c0 a79d 843f d16a 2340 9e71 093f
000002c0: 30f0 b8bf 9824 67bf ebfb 0540 fd6f 03be
000002d0: 7bdf 5d40 1732 1e3e 0abe 12bd 7027 47bd
000002e0: 3e00 503e cd68 533f 9bdd 823e 895c 2a3d
000002f0: ac7e 96bf 2635 b7bd 459f 15bd f3b2 7abf
00000300: 5814 98c1 c033 2ec0 758d ddbf 3a3d 1a40
00000310: 7648 3abf 4fe2 30c0 7bc7 64be 9e7b 81c1
00000320: 6292 7140 99ae 4f40 b999 e9bf f807 df3f
00000330: c4b3 54c1 8bd0 7ac0 0722 973f 2b7d cb3f
00000340: fbb0 adbf 59b8 06c1 eaaf 8e3f 246d 4ebe
00000350: c139 73c0 087c 7a3f 17f4 6cc1 530e 04c1
00000360: 2dcc 01c0 ec17 863f 681d 47bf a88f 0240
00000370: 81f3 7b40 ba0c d1bf 3e4b 86c0 620b 9fbf
00000380: 1268 94bf 70e0 a13e 1529 7ebe 7cc7 443f
00000390: e09a 29c0 7c62 ab3f 17c9 aa3f 8cde 2ec0
000003a0: 005f 203f 319c 733f f224 c33e 98ca 94be
000003b0: 60c5 88bf cd22 4b3f 7c56 953f babe 9d3f
000003c0: 4bbb 8dbf 302c 9abf 27a8 f7c0 2d40 9dbf
000003d0: 301d f7bf 2a4d 28c1 286b 16c1 e0ad e1c0
000003e0: 9ba0 bb40 c60c 21c0 5243 cfc0 4158 02c0
000003f0: e42c 8d3f 80fd 173f a250 fa3e 65a0 2ac1
-2.2589238 0.9096394 3.7096767 -0.582709 1.361986 -6.172389 -2.9547248 -7.560157
6.1705976 1.8083621 -2.8597188 -2.1703207 -3.8016546 -2.0388935 -4.8089576 -4.0835667
0.807265 -4.376591 2.5885212 0.09218767 1.3084519 -0.77179706 -3.4424913 -7.4073277
-1.3311702 2.0671713 -1.0873896 1.8532876 1.7351893 -1.8549621 -3.6155856 -0.34770578
-0.7223559 -1.2076305 -0.2807409 -0.25814345 -5.4086103 0.53113765 1.5410677 0.3269168
-0.24063328 4.4479403 0.10388426 0.035987876 -2.4296565 1.9346533 -1.9107995 -0.66560924
1.0491532 -1.9509873 2.4840753 -5.3891916 -2.9728372 1.3420273 2.075807 2.5392168
1.260145 1.4632641 -0.69287604 -1.6398318 -0.12079959 -0.46344176 -0.16785552 1.3509549
2.3395977 2.988681 -2.1754239 -0.020544302 2.111037 -0.4932257 0.8668827 0.26006028
-1.3538092 1.065786 -1.6494589 1.5037864 3.3111715 -2.988197 -2.1368628 -1.3490814
2.5121274 -0.44157448 0.500513 2.4829686 -4.6997313 1.0607764 0.9615567 -1.5870326
-1.8031404 -3.938885 1.2898847 -0.17454492 -0.0027530948 0.4051133 1.0113641 -0.46235067
-6.95449 1.0894547 -2.6642008 -5.704336 2.8288867 -3.1977632 -3.6717317 -6.9489393
-5.5224023 1.4331098 -3.583794 -0.3471997 -10.705188 -11.486 -0.37476215 -1.1741208
-1.4442543 -7.0381866 -0.19492368 0.25066242 -0.5507012 0.49121132 -8.36846 2.4082422
-1.5646312 0.09509458 -4.7334294 2.5496724 0.12287904 -2.1556723 1.8877646 -7.4100137
-6.658578 -2.1777527 -0.5448559 0.77658945 -0.23537047 -1.9978435 0.5478963 1.6062225
-4.003793 -5.904114 1.7571251 0.015477726 0.37908223 -0.51947 1.3600386 0.24039224
-1.0901371 1.4577913 0.5816668 2.8718688 1.5813531 -1.7804394 -2.7181206 -2.2090406
-1.2131704 -1.7030456 -0.714354 1.1203976 2.2024434 1.1776903 1.243983 0.2695846
-0.570565 3.5301409 2.0253835 0.0872916 -1.9844741 0.87258786 -1.9007258 1.2555157
-0.19056822 0.7780961 -1.3829495 1.8683879 -2.0930407 1.0360612 2.5533946 0.5368899
-1.44483 -0.9029021 2.0935009 -0.12835689 3.4667652 0.15448795 -0.035825767 -0.048621595
0.20312592 0.8258179 0.25559697 0.041592155 -1.1757407 -0.08945684 -0.036528844 -0.97929305
-19.009933 -2.7219086 -1.7308794 2.409987 -0.72766817 -2.7638128 -0.22341721 -16.18536
3.7745595 3.2450316 -1.8250037 1.7424307 -13.293888 -3.9189785 1.1807259 1.5897573
-1.3569635 -8.420007 1.1147435 -0.20158821 -3.8004 0.97845507 -14.809592 -8.253497
-2.028087 1.047605 -0.77779245 2.040018 3.9367373 -1.6332009 -4.196685 -1.2425349
-1.159426 0.31616545 -0.24820359 0.7686689 -2.6500778 1.338943 1.3342618 -2.7323332
0.6264496 0.95160204 0.38114125 -0.29060817 -1.0685234 0.79349977 1.1667018 1.232383
-1.1072782 -1.2044735 -7.7392764 -1.228521 -1.9305782 -10.518839 -9.401161 -7.052475
5.863355 -2.5164046 -6.476968 -2.0366366 1.1029325 0.59371185 0.48889643 -10.664159

2.bias f4 [24]
00000000: caf5 f1be 5b4b 51bf 537f 793f 0539 0c40
00000010: 7c80 ea3e 3034 eabe 8622 d2bf 7e65 ac3e
00000020: 911f c63f 3352 a03f 1a2c fbbf db80 2a3f
00000030: f5d6 ad40 c20a f33f 0c4f 873e f5e8 2140
00000040: 97f5 4840 1336 b3bf 21a5 a640 4e28 05c0
00000050: 68be 8040 361e 41bf 7e3c 6bc0 b18f ecbf
-0.47257835 -0.8175561 0.97459906 2.1909802 0.4580115 -0.4574294 -1.6416786 0.33671182
1.5478383 1.2525085 -1.9622834 0.6660287 5.43249 1.8987658 0.26427495 2.5298436
3.1399896 -1.4000877 5.2076573 -2.080585 4.023243 -0.75436723 -3.6755672 -1.8481351

4.weight f4 [4, 24]
00000000: cb0c 4141 78b9 86c0 e98e a5bf 2934 243f
00000010: f959 43bf 8698 f1bf 7be1 4bc0 db7e e93e
00000020: 2ae6 8a40 4505 4b40 44ab ee3f 6222 7940
00000030: f2ce 2f40 b230 2240 9217 5ec0 b4fd a73f
00000040: 83a4 1340 f84b 87c0 3cfb 5b40 bd20 92c0
00000050: db37 3340 689b 0c41 de95 88c0 9de3 a73e
00000060: be4a 0341 9d45 2a3f 7d04 5ec0 e463 1b40
00000070: ba53 0641 c21c b040 0466 b53e 8f00 01c0
00000080: 3295 2d41 f6d6 083f 3006 8a40 7fde 0441
00000090: ceb9 fa3f f7b4 78be 02e7 cb3e 8d68 5dc0
000000a0: 3be9 183f e51c 5dc0 356a 1a40 9660 0841
000000b0: d3e9 6140 4214 2e40 054b 81be eaef 2640
000000c0: 750d 94bf f603 bb3f fc41 85c0 e143 49c0
000000d0: fe42 2541 43e3 2940 73b0 a8c0 59b5 28c0
000000e0: b97b 1e40 f349 27c0 ec34 97bf 21f9 1641
000000f0: 1f98 5540 ad36 b43f 1948 0cbe 64a5 463f
00000100: d120 8040 74c6 e93f 5fff 4240 090a 0241
00000110: 7376 1640 6d0e 1641 1281 d33e d394 143f
00000120: da59 eb40 4a4f 21c0 4a95 6bc0 927c 1040
00000130: 406c 8340 fef7 5cc0 a91d e53d ab8f 2abf
00000140: a96f 6c41 06c0 e2bf c23b 2541 e399 8d3f
00000150: 5d97 1840 a802 bb40 b98f cbc0 e7a5 3240
00000160: 7fcd 8640 0945 54c0 5487 ef3f 877f 49bf
00000170: 93b9 a63e 6e70 0c41 0217 733f 78f8 2c40
12.065623 -4.21014 -1.2934238 0.6414209 -0.7630916 -1.8874671 -3.1856372 0.45604596
4.340596 3.1721966 1.8646016 3.8927236 2.747006 2.5342221 -3.4701886 1.3124299
2.306916 -4.2280235 3.4372091 -4.5664964 2.8002841 8.787941 -4.2682943 0.32790843
8.205748 0.6651247 -3.469024 2.4279718 8.395441 5.5035105 0.35429394 -2.015659
10.848925 0.53453004 4.3132553 8.30432 1.9587953 -0.24287783 0.39824682 -3.4595063
0.5973088 -3.4548886 2.4127324 8.523581 3.5298965 2.7199864 -0.25252548 2.6083932
-1.1566607 1.4610584 -4.1643047 -3.144768 10.3288555 2.654496 -5.271539 -2.6360686
2.4763014 -2.6138885 -1.1813025 9.4358225 3.3374097 1.4079186 -0.13699378 0.77596116
4.004006 1.8263688 3.0468366 8.12745 2.3509796 9.378522 0.4130941 0.5803959
7.354718 -2.5204644 -3.680987 2.2576032 4.106964 -3.4526362 0.11187298 -0.6662547
14.777261 -1.7714851 10.327089 1.1062587 2.3842385 5.8440742 -6.3612943 2.7913759
4.212585 -3.3167136 1.8713174 -0.78710216 0.32563457 8.777449 0.9495698 2.7026653

4.bias f4 [4]
00000000: 6bfb da40 027a 0540 38f8 4240 88fe 843e
6.8431907 2.0855718 3.0464 0.25975442
