logs_400/logs/target_params_B_375.pt (torch, 6263 bytes, 6 tensors)

0.weight f4 [24, 12]
0	0xbf276c9f	-0.6540012
1	0xbe3d262b	-0.18471591
2	0xbf35647d	-0.7085646
3	0x4007c9d3	2.1216934
4	0xbff6d5e9	-1.928403
5	0x3ef0bca7	0.4701893
6	0xbf1e08d5	-0.61732227
7	0x3f4027a1	0.7506047
8	0xc0d31762	-6.5966043
9	0x405c6bf1	3.4440882
10	0x3fd6bd6b	1.6776556
11	0xbe5e3580	-0.21700096
12	0x3f2b49e2	0.6690961
13	0x3f274e7b	0.65354127
14	0x3eeb6293	0.45973644
15	0x3fc4c975	1.537398
16	0x3f106b41	0.56413656
17	0xbd4a07ca	-0.049323834
18	0xbf276a46	-0.65396535
19	0x3e7733c4	0.24140841
20	0x400aab46	2.1667037
21	0x4006bcb8	2.1052685
22	0x3f69e09d	0.9135836
23	0x408c9b09	4.393925
24	0x3d850387	0.064948134
25	0x400e801f	2.22657
26	0x3f8de612	1.1085837
27	0xbfd571ac	-1.6675315
28	0xbd27e8b8	-0.040993422
29	0xbf64e10d	-0.894059
30	0x3e0e8f23	0.1392179
31	0xbf3a0f8d	-0.7267998
32	0xc1325272	-11.145128
33	0xc12ef517	-10.934836
34	0xc0974d44	-4.728182
35	0xbe6c5167	-0.23077928
36	0x3fa8e966	1.3196228
37	0x401d2b9e	2.4557872
38	0xbd1ab01f	-0.03776562
39	0xbf08ba4c	-0.53409266
40	0xbfbc75c7	-1.4723443
41	0xc0177896	-2.366735
42	0xbe07d45f	-0.13264607
43	0xbddb4f63	-0.10708501
44	0xc14da3d0	-12.852493
45	0xbec40d43	-0.38291368
46	0x4049b369	3.1515753
47	0xbf137070	-0.5759344
48	0x3fe31a1e	1.7742345
49	0x3dc84a42	0.097797886
50	0xbd23629d	-0.039888967
51	0xbe97ee92	-0.29674202
52	0x3cb7f62b	0.02245625
53	0xbe08abc3	-0.13346772
54	0x3e1b0aa9	0.15140785
55	0x3b72fcb1	0.0037076885
56	0x405c7fb6	3.4452949
57	0xbe105cfa	-0.14097968
58	0x3e4388c3	0.19095139
59	0xbedac1bd	-0.42725936
60	0x3e92c2b6	0.28664178
61	0x3fd49003	1.6606449
62	0xbea63b43	-0.32467088
63	0xbedc43a2	-0.4302035
64	0xbeacecf2	-0.33774525
65	0xbe84be4b	-0.25926432
66	0x3ee155a2	0.44010645
67	0x3e18e471	0.14930893
68	0x40b68f8d	5.7050233
69	0xbf626a4d	-0.8844345
70	0xbfc021aa	-1.5010273
71	0x3f0854f5	0.53254634
72	0xbd3dc810	-0.046333373
73	0x3fd0ea82	1.6321566
74	0xbe151b4e	-0.14561197
75	0xc010e23a	-2.2638078
76	0x3fd38e24	1.6527753
77	0x3fe1fc44	1.765511
78	0xbf978167	-1.1836365
79	0x3f06b2a1	0.52616316
80	0xbf82811c	-1.0195651
81	0xc076bdff	-3.8553464
82	0x4014eba1	2.3268816
83	0xc1242303	-10.258548
84	0x3f99f011	1.2026387
85	0x3f91bc54	1.1385598
86	0xbf36f947	-0.7147412
87	0xbe5a4b5a	-0.21317807
88	0xbecbcd30	-0.39804983
89	0x3f1770ab	0.5915629
90	0xbf526426	-0.82184064
91	0x3ef316b2	0.47478253
92	0xc0e21174	-7.0646305
93	0xc00d9da1	-2.212746
94	0xc106b992	-8.420305
95	0xbfb050c3	-1.3774647
96	0xc009440d	-2.1447785
97	0x3ffa0602	1.9533083
98	0xbda81871	-0.08207787
99	0xbfb9aa16	-1.4505031
100	0xbdaa53bc	-0.08316752
101	0xbe2fb224	-0.17157799
102	0x3e080423	0.13282828
103	0x3fb7314e	1.4311922
104	0x4027a2ee	2.6193194
105	0xc040ab4c	-3.0104551
106	0xc1157e44	-9.343327
107	0x3f72c33c	0.94829154
108	0x3f64c324	0.8936026
109	0x3f313e3f	0.69235605
110	0x3b73462b	0.003712068
111	0x3d0bfa25	0.034174103
112	0x3d1417d7	0.036155548
113	0x3e55ed7c	0.20891374
114	0xbf707793	-0.93932456
115	0xbf6476d2	-0.89243805
116	0xc109efe0	-8.621063
117	0x3e509956	0.20370993
118	0xc1160168	-9.375343
119	0xc07579fe	-3.8355708
120	0xbf3e69c1	-0.7438012
121	0x3f10cdc1	0.56563956
122	0xbe3da2ce	-0.18519136
123	0xc05805c5	-3.3753521
124	0xc0e18fcb	-7.048803
125	0xbf5261b5	-0.8218034
126	0x3e2da180	0.16956139
127	0x3e952b4c	0.29134595
128	0x40339c39	2.80641
129	0xc03fb003	-2.995118
130	0xc090b8c3	-4.522554
131	0x400d0613	2.2034957
132	0xbf01ed3d	-0.5075262
133	0xbe5b526a	-0.21418157
134	0x3cc809b3	0.024418687
135	0xbe9508b2	-0.29108196
136	0xbec1c1d6	-0.37843198
137	0xbe5c338f	-0.21504043
138	0xbe560a19	-0.2090229
139	0xbea05886	-0.31317538
140	0xbe4da9b3	-0.20084266
141	0xbe8e7b24	-0.27828324
142	0x3c211b35	0.009833147
143	0x3ee85204	0.45375073
144	0x3f1ef6b3	0.62095183
145	0xbefe9dc8	-0.49729753
146	0xc05c3ca3	-3.441201
147	0xbfbff002	-1.499512
148	0x3ef86662	0.48515612
149	0xc0a08560	-5.016281
150	0x3e216715	0.15761979
151	0x3ead8087	0.3388712
152	0x40add17a	5.431821
153	0xc0d6c2aa	-6.7112627
154	0xc1118f2d	-9.097455
155	0x3f8f9602	1.1217654
156	0x3ed2db19	0.41182783
157	0x3f4725e1	0.77792174
158	0xbd98a6cc	-0.07453689
159	0xbe9a11b3	-0.30091628
160	0xbf77f0b5	-0.96851665
161	0xbed982ed	-0.424827
162	0xbefd58d6	-0.4948184
163	0xbeb544b1	-0.3540397
164	0x40154544	2.3323526
165	0xbf32ef3f	-0.6989631
166	0xc0f94660	-7.7898407
167	0xc01ee4f5	-2.4827244
168	0x3e09a602	0.13442233
169	0xc024e59a	-2.5765138
170	0xbea35890	-0.31903505
171	0xbe6be325	-0.23035868
172	0x3f169adc	0.58830047
173	0x3f664e9d	0.89963704
174	0xbd8e3798	-0.069441974
175	0x3eb4c6a8	0.35307813
176	0xc105a49c	-8.352688
177	0xbe85e382	-0.26150137
178	0x400e9e07	2.2283952
179	0x4085c8bf	4.180755
180	0x3c2d1ac7	0.010565466
181	0xbd50e215	-0.05099686
182	0xbf466093	-0.7749111
183	0xbed5eed9	-0.4178379
184	0x3ed3b990	0.4135251
185	0x3e4c1420	0.19929552
186	0x3f791bfb	0.9730832
187	0x3f514735	0.8174928
188	0xc0e2911f	-7.080215
189	0x3eb3ff8d	0.35155907
190	0x403f9743	2.9936073
191	0x40d2ce74	6.587702
192	0x3ecf5da0	0.40501118
193	0xbf7973e1	-0.9744244
194	0x3effa8db	0.49933514
195	0x3ddf5b43	0.10906079
196	0xbd02e6ab	-0.031958263
197	0xbf09ff90	-0.5390558
198	0x3cc53926	0.024075102
199	0x3e810a68	0.25203252
200	0xc045c440	-3.0901031
201	0xbec947bd	-0.39312544
202	0xbf251edc	-0.6450021
203	0x3feb5df1	1.8388044
204	0x40278dd4	2.6180315
205	0x3fe7dacd	1.8113648
206	0xbed046ea	-0.40679103
207	0xbf52e749	-0.82384163
208	0x3e70d6b9	0.2351941
209	0xbeccd0ef	-0.40003154
210	0xbf61e374	-0.8823769
211	0x3e14d1ae	0.14533111
212	0xbfcbe3e6	-1.5928924
213	0xbfd48295	-1.660235
214	0xbff2a333	-1.8956054
215	0xc0abea54	-5.3723545
216	0xbbab023e	-0.005218773
217	0x3f437c57	0.763616
218	0xbf87d3de	-1.0611532
219	0xbf38cbf4	-0.7218621
220	0xbba71c92	-0.0050998414
221	0xbf02688f	-0.50940794
222	0xbdf19011	-0.117950566
223	0x3f67e62e	0.905856
224	0x40e00a4d	7.0012574
225	0xc00b7db7	-2.179548
226	0xbedba54a	-0.42899543
227	0xbf9bf44b	-1.2183927
228	0xbfdf1aa9	-1.7430011
229	0xc029c079	-2.6523726
230	0xbe482a2d	-0.19547339
231	0x3e92d69e	0.28679365
232	0x3ea166ab	0.31523642
233	0x3da980b1	0.08276499
234	0x3f913a81	1.1345979
235	0x40400b8f	3.0007055
236	0xc09db32c	-4.9281216
237	0xbff6fbc2	-1.929558
238	0xbf1a5ef8	-0.6030116
239	0x3d077556	0.033070885
240	0x3ee2bb4c	0.4428352
241	0x3f825c79	1.018447
242	0xbe5dfaab	-0.21677653
243	0xbec4a2c4	-0.3840543
244	0x3f35f183	0.7107164
245	0x3e337a44	0.1752711
246	0x3ffa2f22	1.9545634
247	0x3fa11a59	1.2586166
248	0xc00ba238	-2.181776
249	0x3fc9886f	1.5744761
250	0x4014aa9a	2.3229127
251	0x401241b3	2.28526
252	0xc0547349	-3.3195364
253	0x3f6dac69	0.928412
254	0x3f80fa4b	1.0076383
255	0x3eef2872	0.46710545

0.bias f4 [24]
0	0x4018f3c2	2.3898778
1	0xc071e672	-3.7796903
2	0xbda9fcf1	-0.08300198
3	0xc02a0cde	-2.6570354
4	0xc0ff5188	-7.9787025
5	0xc0c1a848	-6.051792
6	0xc004e910	-2.076725
7	0x3f317dd0	0.693326
8	0xbfc181d5	-1.5117747
9	0x402c7499	2.6946166
10	0xc03ef42d	-2.9836533
11	0xbef0aefe	-0.47008508
12	0xc02aa0f0	-2.6660728
13	0x40843846	4.1318693
14	0x403cec9a	2.951941
15	0xc036f354	-2.8586016
16	0x40556691	3.3343852
17	0xc016bb71	-2.3551905
18	0xc03ebdcf	-2.980335
19	0x40328b25	2.7897427
20	0xbfe685a0	-1.8009529
21	0x40440818	3.062994
22	0xbfed8259	-1.8555404
23	0x3faf779e	1.3708379

2.weight f4 [24, 24]
0	0x3e26deef	0.1629598
1	0x3f1b8b92	0.6075984
2	0x40260231	2.5938838
3	0x3f331fd0	0.6997042
4	0x4088fcb8	4.2808495
5	0x3eb52504	0.35379803
6	0x3f60eed8	0.87864447
7	0xbe9fadf1	-0.31187394
8	0x3f52a240	0.82278824
9	0xbf875aad	-1.0574547
10	0x40b27222	5.576432
11	0xbc94655f	-0.018114744
12	0xbfcd51bd	-1.604057
13	0x403487f1	2.8207972
14	0x3fac45ac	1.3458762
15	0xbe768d79	-0.24077405
16	0x3ed96162	0.4245711
17	0x3f14c1f7	0.58108467
18	0x401f92c7	2.4933336
19	0xc0136c60	-2.3034897
20	0x3f692592	0.9107295
21	0xbf0d563e	-0.5520972
22	0xbe05f4ac	-0.13081616
23	0x3fc11ead	1.5087487
24	0xbf8bb18b	-1.0913557
25	0x3f22a64e	0.6353501
26	0xbf21d7a0	-0.6321964
27	0xbfe5bc97	-1.7948178
28	0x3fe737e1	1.8063928
29	0x3f0730c1	0.5280877
30	0xbf00ccb0	-0.5031233
31	0xbf87bae0	-1.0603905
32	0xbd9c27b8	-0.07624763
33	0xc0b47c8c	-5.6402035
34	0xc08bf1b0	-4.373253
35	0xbd5b5aaa	-0.05355326
36	0x40145ae4	2.3180475
37	0xbd1b54fb	-0.03792284
38	0xc0a62f9f	-5.193313
39	0xc07e34c8	-3.9719715
40	0xc030c847	-2.762224
41	0xbfb09ac5	-1.3797232
42	0xbe8277ef	-0.25482127
43	0xc08376ef	-4.1082683
44	0xc0983c59	-4.7573667
45	0xc000b439	-2.011
46	0xbf5ccd80	-0.8625107
47	0x3eaa8f40	0.33312416
48	0x3f791e2a	0.9731165
49	0xbe3e04cc	-0.18556517
50	0x3feadb51	1.834818
51	0x3f1977e8	0.5994859
52	0xc1508026	-13.031286
53	0x4050b36f	3.2609518
54	0x3ef50d75	0.4786183
55	0xbd93065a	-0.07178946
56	0xbf425fc6	-0.7592739
57	0x3f1a29e0	0.60220146
58	0xbdbbb405	-0.091651954
59	0x3de203f8	0.11035913
60	0xc02f71b2	-2.7413144
61	0xbda21f61	-0.07916141
62	0x3e94d308	0.29067254
63	0x3d4eb9ce	0.050470166
64	0x3f8f4766	1.1193664
65	0x3fc17709	1.5114452
66	0x40580dc1	3.3758395
67	0x3e8a552e	0.27018112
68	0x3e8fad17	0.28061745
69	0x3f30e633	0.69101256
70	0xbed54349	-0.41652897
71	0x3f48fc72	0.785102
72	0xc09ad79d	-4.83882
73	0xc00fa499	-2.2444212
74	0xc0fa2034	-7.816431
75	0xc0ee97c2	-7.456025
76	0x3f3567f8	0.7086177
77	0xbda9753a	-0.08274312
78	0x40533b40	3.3004913
79	0xbfb18beb	-1.3870825
80	0xc03f688c	-2.990756
81	0xc0c8f098	-6.2793694
82	0xc017ec11	-2.3737833
83	0xbd8659a4	-0.06560066
84	0x400f153a	2.2356706
85	0x3f00efd0	0.50365925
86	0xbe959d07	-0.29221365
87	0xc0252c53	-2.5808303
88	0xc09a170e	-4.8153143
89	0x4067ab7f	3.6198423
90	0xbf4e6e0d	-0.80636674
91	0xc03720ed	-2.8613846
92	0x3d76a474	0.06021543
93	0xbf80c711	-1.006075
94	0xc019ee87	-2.4051836
95	0x3f98e426	1.1944625
96	0x3d885b81	0.06658078
97	0xbe5a3f5e	-0.21313235
98	0xbe3d9a36	-0.18515858
99	0x3d47b6f1	0.04875845
100	0xbe111bbb	-0.14170735
101	0xbea429c2	-0.3206311
102	0xbde60844	-0.11232045
103	0x3dcd0172	0.10010041
104	0xbd4946fc	-0.04913996
105	0xbe9f6dc3	-0.3113843
106	0x3d0526a1	0.032507543
107	0x3e412c06	0.1886445
108	0xbcd99ab8	-0.026563033
109	0xbc9b64a0	-0.01896888
110	0xbedb94af	-0.42886874
111	0xbee635b5	-0.4496285
112	0xbea0621f	-0.3132486
113	0xbb641903	-0.0034804947
114	0xbc9ad649	-0.018901007
115	0xbeb59a4c	-0.35469282
116	0xbe18cb7f	-0.14921378
117	0xbe35d045	-0.1775523
118	0xbdce081b	-0.1006014
119	0xbe189d08	-0.14903653
120	0xbf0aa74a	-0.5416151
121	0xbe8909b6	-0.2676522
122	0x3cd3d6fa	0.025859345
123	0xbb726fc6	-0.0036992892
124	0xbdec63aa	-0.11542447
125	0xbe7788c7	-0.2417327
126	0xbe81f62e	-0.25383133
127	0x3e45f10a	0.1933023
128	0xbd4508a3	-0.04810394
129	0xbee2adf8	-0.44273353
130	0xbe1825c4	-0.14858156
131	0x3da85984	0.08220199
132	0xbb6b570c	-0.0035910038
133	0xbe95dcb2	-0.2926994
134	0xbe6f3e73	-0.23363666
135	0xbe990258	-0.298846
136	0xbe5d5ec0	-0.21618176
137	0xbe7186ed	-0.23586626
138	0x3e038bdb	0.1284632
139	0xbef6d09e	-0.48206037
140	0xbdfc1325	-0.12308339
141	0xbe84769b	-0.2587174
142	0xbd9410ca	-0.07229765
143	0x3d42dcb2	0.047573753
144	0xbe5d9374	-0.2163828
145	0x3f0e43c2	0.5557214
146	0xc02f14d5	-2.7356465
147	0xc0042dff	-2.0653074
148	0xc0f31ae3	-7.597032
149	0x407761e2	3.8653493
150	0xbf7bd462	-0.98370945
151	0xbfd005ae	-1.6251733
152	0x400347c6	2.0512557
153	0xc0909e58	-4.519329
154	0xc08e3819	-4.444348
155	0x3edff951	0.437449
156	0x40950d50	4.657875
157	0xbf0b44ba	-0.54401743
158	0xbfe0a422	-1.7550089
159	0x3ff2e117	1.8974942
160	0x3fa33214	1.2749658
161	0xbec5b77e	-0.38616556
162	0xc05bc8c8	-3.4341297
163	0xc11a91ef	-9.660628
164	0x3f86fe85	1.0546423
165	0xbf5700d6	-0.8398565
166	0x3f6027be	0.8756064
167	0x4036b147	2.8545702
168	0x3d9b4b78	0.07582754
169	0xbec2b16d	-0.3802599
170	0xbe03efbb	-0.12884419
171	0xbe744f05	-0.23858269
172	0x3dad8b4e	0.08473836
173	0xbd0fb37c	-0.03508328
174	0xbe0363a7	-0.12830983
175	0x3d37403a	0.044738986
176	0xbe929e89	-0.28636578
177	0xbdae1c65	-0.085015096
178	0x3deaf7f7	0.11473077
179	0xbe47c19c	-0.1950745
180	0xbe0516bb	-0.12996952
181	0xbbae0840	-0.005311042
182	0xbe90033e	-0.28127474
183	0xbee7833b	-0.45217308
184	0xbeace02c	-0.3376478
185	0xbe876ae3	-0.26448736
186	0x3d9a8e4b	0.075466715
187	0xbef04d3a	-0.4693392
188	0xbe9b39c7	-0.30317518
189	0xbdba9f9d	-0.09112475
190	0xbdc17af7	-0.09447282
191	0x3d5a25a0	0.05325854
192	0xc008abad	-2.1354783
193	0xbf9d8956	-1.2307537
194	0x3f286364	0.6577666
195	0x3ff4fea5	1.9140211
196	0x3e91b499	0.28458098
197	0x3f82c052	1.0214942
198	0x3f88e6bf	1.0695418
199	0xc0c7ab06	-6.239627
200	0x3fd99652	1.6998999
201	0xc04dc378	-3.2150555
202	0xc01b7a4e	-2.42934
203	0x3d928e46	0.07156043
204	0x3fafc517	1.3732022
205	0xbe33e5f3	-0.17568187
206	0xc0541ee9	-3.3143866
207	0xbfcdb888	-1.607194
208	0xc1126fe7	-9.15232
209	0xbd7c1f56	-0.06155332
210	0x4011da1b	2.278937
211	0xc09416a3	-4.6277633
212	0xc040b034	-3.0107546
213	0xbe3b8d46	-0.1831561
214	0x3fffbccc	1.9979491
215	0xbe87f863	-0.26556692
216	0x3f541a5b	0.82852715
217	0xbf050501	-0.5196076
218	0x403cb649	2.9486258
219	0x3f17611b	0.59132546
220	0xc090321c	-4.506117
221	0x40095760	2.145958
222	0x3f0ad877	0.5423655
223	0xbe7d063c	-0.2470941
224	0x3f72deba	0.94871104
225	0x3fd87525	1.691075
226	0x3f17330b	0.5906226
227	0x3c4bc784	0.012437705
228	0x3e8fe02b	0.28100714
229	0xbff9c1b6	-1.9512241
230	0x3f7e5149	0.9934278
231	0xc0224b02	-2.535828
232	0xbfa63d23	-1.2987407
233	0x3fc509ca	1.5393612
234	0x3f984b83	1.1898044
235	0xbead301a	-0.3382576
236	0x3f824ba2	1.0179331
237	0x3e93da7a	0.28877622
238	0xbedb5004	-0.42834485
239	0xc050c1f5	-3.2618382
240	0xc05697e8	-3.3530216
241	0xc01e5106	-2.4736953
242	0x3eca48ae	0.39508575
243	0xc0168fec	-2.3525343
244	0x3e19d869	0.1502396
245	0x3efc4713	0.49272975
246	0xba39b8cc	-0.0007084727
247	0xbe2bd40c	-0.16780108
248	0x3d867a8d	0.065663435
249	0xbfae455a	-1.3614914
250	0xbe2c1f94	-0.16808921
251	0xbe18ab60	-0.14909124
252	0xbf5ec39d	-0.8701723
253	0x3e0ca856	0.1373609
254	0xc01b4b89	-2.4264853
255	0xbfcc99e5	-1.5984465

2.bias f4 [24]
0	0x403de4fc	2.967101
1	0xbfa5c333	-1.2950195
2	0xc022595a	-2.5367036
3	0xbf7185f0	-0.94345
4	0xbec0f3d8	-0.37686038
5	0xbe9abd9f	-0.30222794
6	0xc057840d	-3.3674347
7	0xbcce52ad	-0.025185907
8	0xc00ef141	-2.233475
9	0xbf0f1bdf	-0.559019
10	0xbfa9e919	-1.3274261
11	0xc01df2fd	-2.4679558
12	0xbd6e5fd2	-0.05819685
13	0xbef0ab61	-0.47005752
14	0x401e749a	2.4758668
15	0xc0586b57	-3.3815515
16	0x4036a2d5	2.8536885
17	0x3f4e9b19	0.8070541
18	0xbdc3d25e	-0.09561609
19	0x4008ccbd	2.1374962
20	0xbed8b0fc	-0.42322528
21	0xbf8d7199	-1.1050292
22	0x402ff3cd	2.7492554
23	0x3d22770e	0.03966432

4.weight f4 [4, 24]
0	0x402bb41f	2.6828687
1	0x3fa02909	1.2512523
2	0xbf452aac	-0.7701824
3	0xc060ae5a	-3.5106416
4	0x3c48ac20	0.012248069
5	0xbe2a4761	-0.16628791
6	0x405907ae	3.3910937
7	0xbd2f3d69	-0.042783175
8	0x40060495	2.0940297
9	0xc052abac	-3.291728
10	0xbe3bf2a2	-0.18354276
11	0x3f3ecd40	0.74531937
12	0x40ecab5c	7.395918
13	0xbed3ac22	-0.41342264
14	0x3f573f74	0.84081197
15	0x40543cdb	3.3162143
16	0x3efdb1f8	0.49549842
17	0x3f0c8f63	0.5490629
18	0xbdd5ef06	-0.10445981
19	0xbe01d5f7	-0.12679277
20	0xc0214000	-2.5195312
21	0xbf5764f2	-0.84138405
22	0xbf61d403	-0.8821413
23	0x3dd77bf9	0.10521693
24	0x3fe4c3e2	1.7872279
25	0x4043eb6f	3.0612447
26	0xc003b00d	-2.0576203
27	0xc004eabb	-2.0768268
28	0x3dde72d4	0.108617455
29	0xbe8de5d6	-0.27714413
30	0x3fca4438	1.5802069
31	0xbd629667	-0.055319216
32	0xbfbcf685	-1.4762732
33	0x3eb4c9b5	0.3531014
34	0x40179460	2.368431
35	0x40831e15	4.097422
36	0x404f3322	3.237496
37	0xbd45167b	-0.048117142
38	0x3ff734f5	1.9313036
39	0x405e4586	3.4729934
40	0xc0027efc	-2.0390005
41	0x400bd412	2.1848187
42	0x3e804a2d	0.25056592
43	0xbf99d478	-1.2017965
44	0x3f9fb576	1.2477252
45	0x400ad645	2.169328
46	0xc02964c0	-2.6467743
47	0xbe28949e	-0.16462943
48	0x3fda6ee1	1.7065088
49	0x3f479d67	0.7797455
50	0xbd8b6e3a	-0.068081334
51	0xc09afade	-4.8431234
52	0x3de3ceee	0.11123453
53	0x3dca9303	0.098913215
54	0x4007d88a	2.1225915
55	0x3bfb2301	0.007664085
56	0x3f02d5dd	0.5110758
57	0xc00d8c5e	-2.2116923
58	0xbd6b2eaf	-0.057417568
59	0x3ffec1ba	1.9902871
60	0x406d987c	3.712432
61	0x3e32f06c	0.17474526
62	0xc03ffb10	-2.9996986
63	0x403ab64d	2.9173768
64	0x3e5519b4	0.20810586
65	0x3f3836af	0.7195844
66	0x3e0126dc	0.1261248
67	0xbf0cae6e	-0.5495366
68	0xbfbeed28	-1.4916124
69	0x3d882d16	0.066492245
70	0xbed6167e	-0.41814035
71	0x3da06e3d	0.07833526
72	0x3ec43e19	0.38328627
73	0x3f7658b4	0.962291
74	0x3fe78ecc	1.8090453
75	0x40d47665	6.6394525
76	0x3d6881c0	0.056764364
77	0x3e62f7c8	0.22164834
78	0x40a285f8	5.0788536
79	0xbe044e26	-0.12920436
80	0x4081479c	4.0399914
81	0xbfbbabd1	-1.4661809
82	0xc02b6884	-2.6782541
83	0x4058f922	3.3902059
84	0xc048a06e	-3.1347919
85	0xbea32e11	-0.31871083
86	0xbee38ede	-0.44444937
87	0xbe61d7a2	-0.22054914
88	0xbe3a9aa8	-0.18223059
89	0x3f7c4c52	0.98553956
90	0xbd539c80	-0.051662922
91	0xbfa4d604	-1.2877812
92	0xbfd3767a	-1.6520531
93	0xbfe49c1e	-1.7860143
94	0xbf869ce9	-1.0516635
95	0xbd991755	-0.07475153

4.bias f4 [4]
0	0xc0190523	-2.3909385
1	0x3fb744bf	1.4317855
2	0xbff9b540	-1.9508438
3	0xbf567a7b	-0.8378064
