logs_400/logs/target_params_B_150.pt (torch, 6263 bytes, 6 tensors)

0.weight f4 [24, 12]
0	0x3e0f5d09	0.14000334
1	0xbf19cf9a	-0.600824
2	0x3ad577c6	0.0016286306
3	0x3f925985	1.1433569
4	0xc0276068	-2.6152592
5	0xbccdcdd7	-0.025122566
6	0x3f8cd6a3	1.1003002
7	0xbe52aa02	-0.20572665
8	0xc042261b	-3.0335758
9	0x3f97fed7	1.1874646
10	0x3fb1be75	1.3886248
11	0x3dada6bd	0.084790684
12	0x3e34fe3d	0.17675109
13	0x3f48824f	0.78323835
14	0x3ea112bf	0.31459615
15	0x3fcb2b01	1.5872499
16	0x3f065426	0.5247215
17	0xbca2b334	-0.019860841
18	0xbf074a10	-0.52847385
19	0x3f5eae2d	0.8698452
20	0x404ce309	3.2013571
21	0x4009ce77	2.1532266
22	0x3f84b0e1	1.0366479
23	0x407de7e2	3.967278
24	0x3e1faf00	0.15594101
25	0x3fc47237	1.5347356
26	0x3d4f21a9	0.05056921
27	0xbfb7b00e	-1.4350603
28	0x3f0ddaad	0.554118
29	0xbf4aa016	-0.7915052
30	0x3f7b47bf	0.9815635
31	0xc011c00e	-2.277347
32	0xc08d4120	-4.4142
33	0xbffb4ba7	-1.9632462
34	0xc06e5d0c	-3.7244291
35	0x3f914f6f	1.1352366
36	0x3fef78f0	1.8708782
37	0x400db836	2.2143683
38	0xbee50126	-0.4472744
39	0xbf156f79	-0.5837322
40	0xbf03e90e	-0.5152749
41	0xc0041fbd	-2.0644372
42	0xbf1a53fe	-0.6028441
43	0xbc27d87b	-0.010244484
44	0xc0bd9708	-5.9246864
45	0xbf867eb5	-1.0507418
46	0x3febd5ba	1.8424599
47	0xc0078e34	-2.1180544
48	0x3ff7c378	1.9356527
49	0x3e39812a	0.18115678
50	0xbdab44ed	-0.08362756
51	0xbe9de1c4	-0.30836308
52	0xbdee60fa	-0.116395906
53	0xbdf9b2c9	-0.12192304
54	0xbc2eeaf7	-0.010676137
55	0x3cd32bec	0.02577778
56	0x405c938d	3.4465058
57	0xbf29ed1c	-0.66377425
58	0xbf9b3eec	-1.2128577
59	0xbeb12252	-0.34596497
60	0x3f08c5fd	0.53427106
61	0x3fe7c1e4	1.8106046
62	0xbeb01821	-0.3439341
63	0xbf29c65d	-0.66318303
64	0xbf4edbf1	-0.80804354
65	0xbeb440bb	-0.35205635
66	0x3ed5b744	0.41741383
67	0x3ee01a58	0.437701
68	0x4090c961	4.5245824
69	0xbfd12903	-1.6340641
70	0xc02dbda2	-2.7146993
71	0x3e7a773b	0.24459545
72	0x3ea25eec	0.31713045
73	0x3f05a649	0.52206856
74	0x3d8f661a	0.07001896
75	0xc059465e	-3.3949199
76	0x3feec405	1.865357
77	0x3f148c36	0.58026445
78	0xbf4a9b26	-0.7914299
79	0xbe3c930a	-0.18415466
80	0x400a8189	2.1641562
81	0xbfe3aff7	-1.7788075
82	0x3fcce680	1.6007843
83	0xc0dc752d	-6.8893037
84	0x3fba2211	1.4541646
85	0x3f67660d	0.9039009
86	0xbf005b69	-0.5013948
87	0x3e7256c8	0.23665917
88	0xbf5b219c	-0.8559816
89	0x3f173cd8	0.59077215
90	0xbf45c60a	-0.7725531
91	0xbe56f526	-0.20991954
92	0xc08e1edb	-4.4412665
93	0xbeee9c65	-0.46603695
94	0xc0d95e65	-6.792773
95	0xbfa02a8f	-1.2512988
96	0xbf9251ec	-1.143125
97	0x3fe4f194	1.7886224
98	0xbf542b7b	-0.82878846
99	0xbfb182c2	-1.3868029
100	0xbf1e0f53	-0.6174213
101	0xbeb27f79	-0.3486288
102	0x3f686854	0.9078419
103	0x3f939aa3	1.1531566
104	0x4047e225	3.1231778
105	0xbea8c9b8	-0.329664
106	0xc108b586	-8.544317
107	0x3fd7bfa6	1.6855361
108	0x3ec01682	0.37517172
109	0x3ede42ab	0.4341024
110	0xbe3ac7a7	-0.18240224
111	0xbe00d4fc	-0.12581247
112	0x3f2fce27	0.6867394
113	0x3e33956d	0.1753747
114	0xbf20e867	-0.6285462
115	0xbec30c50	-0.3809533
116	0xc0e13a35	-7.0383554
117	0xbd8e487a	-0.069474176
118	0xc0f08429	-7.516133
119	0xc06454a7	-3.5676668
120	0xbe1aa413	-0.15101652
121	0x3ed0a120	0.4074793
122	0x3e9f65ec	0.31132448
123	0xc00792f0	-2.1183434
124	0xc0ca913e	-6.3302298
125	0xbfbd2328	-1.4776354
126	0xbef905c4	-0.4863721
127	0x3f8ce4f1	1.1007367
128	0x4084e291	4.152657
129	0xc01f15fc	-2.4857168
130	0xc055f5af	-3.3431203
131	0x3eff5581	0.49869922
132	0xbf01ed3d	-0.5075262
133	0xbe5b526a	-0.21418157
134	0x3cc809b3	0.024418687
135	0xbe9508b2	-0.29108196
136	0xbec1c1d6	-0.37843198
137	0xbe5c338f	-0.21504043
138	0xbe560a19	-0.2090229
139	0xbea05886	-0.31317538
140	0xbe4da9b3	-0.20084266
141	0xbe8e7b24	-0.27828324
142	0x3c211b35	0.009833147
143	0x3ee85204	0.45375073
144	0x3fda3b3b	1.7049326
145	0xbeff2f3c	-0.49840724
146	0xc058ec2a	-3.3894143
147	0xbf9e6a7e	-1.2376249
148	0x3e98408f	0.29736754
149	0xc06ff081	-3.7490542
150	0x3f9c7527	1.2223252
151	0x3f78083f	0.9688758
152	0x4034f75a	2.8275971
153	0xc0ba4916	-5.8214216
154	0xc1079c6f	-8.475692
155	0x3f619064	0.8811095
156	0x3f1cf794	0.61315274
157	0x3f80e937	1.0071172
158	0xbeecd600	-0.4625702
159	0x3e5cb587	0.21553622
160	0xbf07e63b	-0.5308568
161	0xbfaff61c	-1.3746982
162	0xbf3c8fce	-0.7365693
163	0xbdac1a08	-0.084034026
164	0x402f1323	2.735543
165	0x3f533ca9	0.82514435
166	0xc0a63501	-5.19397
167	0xc0153938	-2.3316174
168	0xbdf14100	-0.11779976
169	0xc011631f	-2.2716749
170	0xbe6a594f	-0.22885631
171	0xbeb15b1e	-0.3463983
172	0xbd80855b	-0.062754355
173	0x3e607d75	0.21922858
174	0xbf099181	-0.53737646
175	0x3f43dcea	0.76508963
176	0xbfc13e2b	-1.5097097
177	0x4007a7cf	2.1196172
178	0x403a4b3d	2.9108422
179	0x408042e1	4.008164
180	0xbd1b284d	-0.03788023
181	0xbf0e7ddf	-0.55660814
182	0xbf3df779	-0.7420574
183	0xbef64619	-0.48100355
184	0x3f0b0fe1	0.54321104
185	0x3e7cb692	0.2467902
186	0x3f76f822	0.9647237
187	0x3f22fd44	0.636677
188	0xc091100c	-4.533209
189	0xbea78433	-0.32718047
190	0x4084c0a6	4.1485167
191	0x40b8f1ae	5.779502
192	0x3f0248a6	0.508921
193	0xbf49a611	-0.7876902
194	0x3e2104a1	0.15724422
195	0x3e67b77a	0.22628585
196	0x3ed68612	0.41899163
197	0xbf2eafd6	-0.68237054
198	0xbc69b284	-0.014263753
199	0x3f1d3fb9	0.6142536
200	0xc0786030	-3.8808708
201	0xbf868578	-1.0509481
202	0xbf1250f5	-0.5715478
203	0x3fcceb8b	1.6009382
204	0x4013db44	2.310258
205	0x3ffc9946	1.9734275
206	0xbf880e47	-1.0629357
207	0xbee61b19	-0.4494255
208	0x3e1b006f	0.15136884
209	0xbf754a29	-0.95816284
210	0xbf38a2ed	-0.72123605
211	0xbe4fca1b	-0.20291941
212	0xbfa2a3ef	-1.2706279
213	0xbf5db7cc	-0.86608577
214	0xbfadff58	-1.359355
215	0xc0978854	-4.7353916
216	0x3ea245e5	0.3169395
217	0x3cef480c	0.02920916
218	0xbee74def	-0.45176646
219	0x3daaec74	0.08345881
220	0xbfbf7200	-1.4956665
221	0x3f39100b	0.72290105
222	0x3daf31d2	0.08554424
223	0xbdf67d46	-0.12035613
224	0x40a61589	5.190129
225	0xbf30d423	-0.69073695
226	0xbf45a04d	-0.77197725
227	0xc040fe9d	-3.0155404
228	0xbf82aa1d	-1.0208164
229	0xc015cb45	-2.3405316
230	0xbd21596a	-0.039391913
231	0xbdc46203	-0.09589007
232	0xbdf2f119	-0.11862392
233	0x3cb32e08	0.021872535
234	0x3f81f562	1.015301
235	0x400d06b3	2.203534
236	0xc00a6b87	-2.162813
237	0x3d0f5088	0.03498891
238	0xbf2424a8	-0.64118433
239	0xbf60e3e9	-0.87847763
240	0x3dcff2bc	0.1015372
241	0x3f2b0aea	0.6681353
242	0x3b961c99	0.004581046
243	0xbe7ff48c	-0.24995631
244	0x3f6b4019	0.9189468
245	0x3f16870e	0.5879983
246	0x4004448e	2.0666842
247	0x3f80e57e	1.0070035
248	0xbf1e822b	-0.6191737
249	0x401cb08d	2.4482758
250	0x404506e6	3.078546
251	0x40074337	2.1134775
252	0xc04b5855	-3.1772664
253	0x3f4dea3b	0.8043553
254	0x3f3b8074	0.7324288
255	0x3e8cf865	0.2753326

0.bias f4 [24]
0	0x401f05f7	2.484739
1	0xc0834798	-4.1024895
2	0x3defcd30	0.11709058
3	0xc00333ac	-2.0500288
4	0xc0e25206	-7.0725126
5	0xc0a1a16b	-5.0509543
6	0xbfec5563	-1.8463558
7	0x3f4c753d	0.7986639
8	0xbf2d3831	-0.67663866
9	0x4004af1d	2.073188
10	0xc005fc30	-2.0935173
11	0xbef0aefe	-0.47008508
12	0xbf964e36	-1.1742618
13	0x3f21fe75	0.63278896
14	0x4013c0d6	2.3086448
15	0xbfe9feb5	-1.8280855
16	0x4051c995	3.2779286
17	0xbff17071	-1.8862439
18	0xc073ba9c	-3.8082647
19	0x40550bbb	3.328841
20	0xbfe3894e	-1.7776277
21	0x4046b388	3.1047077
22	0xbfe2e58c	-1.7726302
23	0xbf0913aa	-0.5354563

2.weight f4 [24, 24]
0	0x3f0f0391	0.55864817
1	0x3f310a8a	0.69156706
2	0x3fec18a2	1.8445017
3	0x3f70099c	0.9376466
4	0x409d1a25	4.9094415
5	0x3fadac3a	1.3568184
6	0x3fb78510	1.4337482
7	0x3e51d6dc	0.20492119
8	0x3f6ee2f6	0.93315065
9	0xbf90fa8b	-1.132646
10	0x40a8a41f	5.2700343
11	0xbc94655f	-0.018114744
12	0xbf6777bc	-0.90417075
13	0x3f82d271	1.0220472
14	0xbf0b05a5	-0.5430549
15	0x3f211eeb	0.629378
16	0xbd1284f0	-0.03577131
17	0x3f84c445	1.0372397
18	0x3ff85a21	1.9402505
19	0xbfb751a7	-1.4321793
20	0x3ec36362	0.3816176
21	0xbe575854	-0.21029788
22	0xbf2deba4	-0.67937684
23	0x3f81817d	1.0117642
24	0xbf8bb18b	-1.0913557
25	0x3f479160	0.779562
26	0xbf21d7a0	-0.6321964
27	0xbfe5bc97	-1.7948178
28	0x3fe737e1	1.8063928
29	0x3f193f35	0.5986207
30	0xbf00ccb0	-0.5031233
31	0xbf87bae0	-1.0603905
32	0xbd9c27b8	-0.07624763
33	0xc0b47c8c	-5.6402035
34	0xc08bf1b0	-4.373253
35	0xbd5b5aaa	-0.05355326
36	0x40145ae4	2.3180475
37	0x3df17ae9	0.117910214
38	0xc0a62f9f	-5.193313
39	0xc07e34c8	-3.9719715
40	0xc02d9f2a	-2.7128396
41	0xbfb09ac5	-1.3797232
42	0xbe8277ef	-0.25482127
43	0xc08376ef	-4.1082683
44	0xc0973869	-4.725636
45	0xc000b439	-2.011
46	0xbf2fcab7	-0.68668693
47	0x3ef87af7	0.48531315
48	0x3f10b11c	0.5652025
49	0x3db8d42a	0.09024842
50	0x3f99e52a	1.202306
51	0x3e020a63	0.12699275
52	0xc10aaab9	-8.66668
53	0x4033f921	2.8120806
54	0x3ea455b8	0.32096648
55	0x3d1ebeec	0.038756296
56	0x3eb847bc	0.3599223
57	0xbc913e5b	-0.017729929
58	0xbfbc0d75	-1.4691607
59	0x3de203f8	0.11035913
60	0xc01613fb	-2.3449695
61	0x3f1c5d24	0.6107962
62	0x3f8edb39	1.1160651
63	0x3e2845a7	0.1643282
64	0x3ed0f7b7	0.4081399
65	0x3f5fe6da	0.87461627
66	0xc06a278c	-3.6586637
67	0xbf108833	-0.56457824
68	0x3e5f0b83	0.21781735
69	0x3f05855e	0.5215663
70	0x3f2475e2	0.64242375
71	0x3f40e2e8	0.7534623
72	0xc0a69578	-5.2057457
73	0xbfb952f0	-1.4478436
74	0x3e933596	0.2875182
75	0xc0417aab	-3.023112
76	0x406a4a06	3.660768
77	0x3f69ef44	0.91380715
78	0x3fedd171	1.8579541
79	0x3f037e67	0.5136475
80	0x3f59bc1a	0.85052645
81	0xbf8bc9ea	-1.0920994
82	0xc031d38d	-2.778537
83	0xbd8659a4	-0.06560066
84	0x4012d1a7	2.2940462
85	0xbe91e5b6	-0.28495568
86	0xc00b3e2f	-2.1756704
87	0xbf92fb6e	-1.148298
88	0xc0b2f437	-5.5923114
89	0xbed2cd8c	-0.41172445
90	0xbec62cbe	-0.3870601
91	0xc025344e	-2.5813174
92	0x3ede5496	0.4342391
93	0xbfd626a3	-1.6730541
94	0xbf8a66f2	-1.0812666
95	0x3f4573eb	0.7713
96	0x3d885b81	0.06658078
97	0xbe5a3f5e	-0.21313235
98	0xbe3d9a36	-0.18515858
99	0x3d47b6f1	0.04875845
100	0xbe111bbb	-0.14170735
101	0xbea429c2	-0.3206311
102	0xbde60844	-0.11232045
103	0x3dcd0172	0.10010041
104	0xbd4946fc	-0.04913996
105	0xbe9f6dc3	-0.3113843
106	0x3d0526a1	0.032507543
107	0x3e412c06	0.1886445
108	0xbcd99ab8	-0.026563033
109	0xbc9b64a0	-0.01896888
110	0xbedb94af	-0.42886874
111	0xbee635b5	-0.4496285
112	0xbea0621f	-0.3132486
113	0xbb641903	-0.0034804947
114	0xbc9ad649	-0.018901007
115	0xbeb59a4c	-0.35469282
116	0xbe18cb7f	-0.14921378
117	0xbe35d045	-0.1775523
118	0xbdce081b	-0.1006014
119	0xbe189d08	-0.14903653
120	0xbf0aa74a	-0.5416151
121	0xbe8909b6	-0.2676522
122	0x3cd3d6fa	0.025859345
123	0xbb726fc6	-0.0036992892
124	0xbdec63aa	-0.11542447
125	0xbe7788c7	-0.2417327
126	0xbe81f62e	-0.25383133
127	0x3e45f10a	0.1933023
128	0xbd4508a3	-0.04810394
129	0xbee2adf8	-0.44273353
130	0xbe1825c4	-0.14858156
131	0x3da85984	0.08220199
132	0xbb6b570c	-0.0035910038
133	0xbe95dcb2	-0.2926994
134	0xbe6f3e73	-0.23363666
135	0xbe990258	-0.298846
136	0xbe5d5ec0	-0.21618176
137	0xbe7186ed	-0.23586626
138	0x3e038bdb	0.1284632
139	0xbef6d09e	-0.48206037
140	0xbdfc1325	-0.12308339
141	0xbe84769b	-0.2587174
142	0xbd9410ca	-0.07229765
143	0x3d42dcb2	0.047573753
144	0xbedc4409	-0.43020657
145	0x3edb34ca	0.42813712
146	0xc026573e	-2.5990748
147	0xbfb1549e	-1.3853948
148	0xc0e25ed0	-7.074074
149	0x40888bd7	4.2670703
150	0xbe88a918	-0.26691508
151	0xbfe2724b	-1.769113
152	0x3ff2166c	1.8913093
153	0xc096e034	-4.7148685
154	0xc08c004a	-4.3750353
155	0x3edff951	0.437449
156	0x40934a56	4.602824
157	0xbf024871	-0.50891787
158	0xc03684c1	-2.8518527
159	0x3fd0541f	1.6275672
160	0x3fa05a40	1.2527542
161	0xbfdffd74	-1.7499223
162	0xbfd649af	-1.6741236
163	0xc0cd648d	-6.4185243
164	0x3f7f6ffd	0.99780256
165	0xbf8db057	-1.106944
166	0xbea7a2c4	-0.32741368
167	0x4073397f	3.8003843
168	0x3d9b4b78	0.07582754
169	0xbec2b16d	-0.3802599
170	0xbe03efbb	-0.12884419
171	0xbe744f05	-0.23858269
172	0x3dad8b4e	0.08473836
173	0xbd0fb37c	-0.03508328
174	0xbe0363a7	-0.12830983
175	0x3d37403a	0.044738986
176	0xbe929e89	-0.28636578
177	0xbdae1c65	-0.085015096
178	0x3deaf7f7	0.11473077
179	0xbe47c19c	-0.1950745
180	0xbe0516bb	-0.12996952
181	0xbbae0840	-0.005311042
182	0xbe90033e	-0.28127474
183	0xbee7833b	-0.45217308
184	0xbeace02c	-0.3376478
185	0xbe876ae3	-0.26448736
186	0x3d9a8e4b	0.075466715
187	0xbef04d3a	-0.4693392
188	0xbe9b39c7	-0.30317518
189	0xbdba9f9d	-0.09112475
190	0xbdc17af7	-0.09447282
191	0x3d5a25a0	0.05325854
192	0xc01ff1a7	-2.4991243
193	0xbf8953a7	-1.0728654
194	0x3f98a572	1.192549
195	0x3ffa3923	1.9548687
196	0x3f4445b5	0.76668864
197	0x3f396f0d	0.72435075
198	0x3fae9f08	1.3642282
199	0xc07233e7	-3.7844179
200	0xbe0af74e	-0.13570902
201	0xc04dc378	-3.2150555
202	0xbfd62ed3	-1.673304
203	0x3d928e46	0.07156043
204	0x3fe42b26	1.7825668
205	0x3f43dbde	0.76507366
206	0xc0541ee9	-3.3143866
207	0xbfc4f1cd	-1.5386292
208	0xc0d0681b	-6.512708
209	0x3f8db824	1.107182
210	0x3f2c69a6	0.67348707
211	0xc09416a3	-4.6277633
212	0xc0458bfe	-3.0866694
213	0xc059c2db	-3.402518
214	0x3fb6cae2	1.4280665
215	0x3e072ac4	0.13199908
216	0x3eed033c	0.4629153
217	0xbf12275f	-0.57091326
218	0x3f1a46ff	0.6026458
219	0x3f3c8b6b	0.73650235
220	0xc06aec12	-3.6706586
221	0x3f3f94c0	0.7483635
222	0x3d85727e	0.06515978
223	0x3e8eee85	0.2791635
224	0x3e08d04d	0.1336071
225	0x3fe136b9	1.7594825
226	0xbee2bf71	-0.44286683
227	0x3c4bc784	0.012437705
228	0xbf98a5fa	-1.1925652
229	0xbf05f414	-0.5232556
230	0xbd2ed6ec	-0.042685434
231	0xbfd351a5	-1.6509291
232	0xbf81d799	-1.014392
233	0x3fa534bf	1.2906722
234	0xc08b4e2e	-4.3532934
235	0x3e31a799	0.1734909
236	0x3f1abd07	0.6044468
237	0x3df8bed9	0.12145776
238	0x3e0f8d4c	0.14018744
239	0xc01e2278	-2.4708538
240	0xc04b760b	-3.1790798
241	0xc013dbd7	-2.310293
242	0x3eca48ae	0.39508575
243	0xc02c10df	-2.6885297
244	0x3e97015f	0.29493234
245	0x3f221a27	0.63321155
246	0x3e987e53	0.29783878
247	0xbf15c3ac	-0.58501697
248	0x3c86b585	0.016443977
249	0xbfae455a	-1.3614914
250	0xbdac22df	-0.08405089
251	0xbe18ab60	-0.14909124
252	0xbf5ec39d	-0.8701723
253	0x3eae1f9d	0.34008494
254	0xc01b4b89	-2.4264853
255	0xbfcc99e5	-1.5984465

2.bias f4 [24]
0	0x3f5f0ddf	0.8713054
1	0xbf964666	-1.1740234
2	0xc02ee45d	-2.7326882
3	0xbf358796	-0.7091001
4	0xbec0f3d8	-0.37686038
5	0xbe9abd9f	-0.30222794
6	0xc03b19a9	-2.9234412
7	0xbcce52ad	-0.025185907
8	0xbfc95835	-1.5730044
9	0x401d3f53	2.45699
10	0xbf7bdc7c	-0.9838331
11	0xc046d41f	-3.1066968
12	0x3f672282	0.9028703
13	0xbef0ab61	-0.47005752
14	0xbe89d026	-0.26916617
15	0xbf9ce402	-1.2257082
16	0x3fbfdb6a	1.4988835
17	0xbe88fa94	-0.26753676
18	0xbdc3d25e	-0.09561609
19	0x402b7530	2.6790276
20	0xbf341cd2	-0.70356476
21	0xbf3f62ab	-0.7475993
22	0x401010bb	2.2510211
23	0x3d22770e	0.03966432

4.weight f4 [4, 24]
0	0x4010edf8	2.2645245
1	0x3fa02909	1.2512523
2	0xbf1cd1e3	-0.6125776
3	0x3fb76433	1.4327453
4	0x3c48ac20	0.012248069
5	0xbe2a4761	-0.16628791
6	0x403f3254	2.9874468
7	0xbd2f3d69	-0.042783175
8	0x3f79bbeb	0.97552365
9	0xc026d390	-2.6066628
10	0xbe3bf2a2	-0.18354276
11	0x3ff29f81	1.8954927
12	0x40413d3e	3.019363
13	0xbed3ac22	-0.41342264
14	0xbcff4c10	-0.0311642
15	0x3fd72b10	1.6810017
16	0x3ed4da12	0.41572624
17	0x3ec7edf2	0.39048725
18	0xbdd5ef06	-0.10445981
19	0xbef09137	-0.4698579
20	0xbf306433	-0.6890289
21	0xbf5764f2	-0.84138405
22	0xbf118844	-0.5684855
23	0x3dd77bf9	0.10521693
24	0x3ffbcfe9	1.9672824
25	0x4043eb6f	3.0612447
26	0xbfbfabd1	-1.4974309
27	0xbfbd2040	-1.4775467
28	0x3dde72d4	0.108617455
29	0xbe8de5d6	-0.27714413
30	0x4001c090	2.027378
31	0xbd629667	-0.055319216
32	0xbdbe2514	-0.09284416
33	0xbeb9a398	-0.36257625
34	0x402966df	2.6469038
35	0x409eb779	4.9598966
36	0x4081956f	4.0494914
37	0xbd45167b	-0.048117142
38	0x400d54ce	2.208301
39	0x3ff5eaa5	1.9212233
40	0xbffeaf42	-1.9897234
41	0x40098cd5	2.1492207
42	0x3e804a2d	0.25056592
43	0xbfbb46ef	-1.4631022
44	0x40187444	2.3820963
45	0x401890d8	2.3838406
46	0xbfcf2746	-1.618386
47	0xbe28949e	-0.16462943
48	0x3fc9c538	1.5763311
49	0x3f479d67	0.7797455
50	0x3de66cd9	0.1125123
51	0xbfd721b1	-1.6807157
52	0x3de3ceee	0.11123453
53	0x3dca9303	0.098913215
54	0x4015316f	2.3311422
55	0x3bfb2301	0.007664085
56	0x40191a20	2.3922195
57	0xbfcb7fc0	-1.5898361
58	0xbd6b2eaf	-0.057417568
59	0x403066b4	2.7562685
60	0x406753d5	3.6144917
61	0x3e32f06c	0.17474526
62	0x3fe6f208	1.8042612
63	0x4001b642	2.0267491
64	0x3e257954	0.16159564
65	0x3f1d4c32	0.6144439
66	0x3e0126dc	0.1261248
67	0xbf601dd2	-0.875455
68	0xbcac5ace	-0.021039393
69	0x3d882d16	0.066492245
70	0xbf3e856f	-0.74422354
71	0x3da06e3d	0.07833526
72	0x3e46d8cc	0.19418639
73	0x3f7ceec3	0.9880182
74	0x3fd95c8d	1.6981369
75	0x4037d81d	2.8725655
76	0x3d6881c0	0.056764364
77	0x3e62f7c8	0.22164834
78	0x40a214e6	5.065051
79	0xbe044e26	-0.12920436
80	0x404718e0	3.1108932
81	0xbf91113e	-1.1333387
82	0xc0311d4a	-2.7674127
83	0x405ccac1	3.449875
84	0x3fcfb9d1	1.6228582
85	0xbea32e11	-0.31871083
86	0x3fd5d473	1.6705459
87	0x40522716	3.2836356
88	0xbe568d33	-0.209523
89	0x3f3c7d94	0.73629117
90	0xbd539c80	-0.051662922
91	0xbf860492	-1.0470145
92	0xbffca0a3	-1.9736522
93	0xc006f749	-2.108843
94	0xbe9b9c19	-0.3039253
95	0xbd991755	-0.07475153

4.bias f4 [4]
0	0xc0b30b1f	-5.5951076
1	0x3f9ad77c	1.2097011
2	0xc0add5d9	-5.4323545
3	0xbfe16541	-1.7609025
