logs_400/logs/target_params_A_300.pt (torch, 6263 bytes, 6 tensors)

0.weight f4 [24, 12]
0	0x40147189	2.3194296
1	0x3fedc0ac	1.8574424
2	0x3e25fe00	0.16210175
3	0xbe315a20	-0.17319536
4	0xbf84e76f	-1.0383128
5	0x3f72de90	0.94870853
6	0xbef13183	-0.47108087
7	0xbe2ad6a2	-0.16683438
8	0xc0a7f8d5	-5.249125
9	0x401535cf	2.3314092
10	0x3fd8feab	1.6952718
11	0xbe815d13	-0.25266322
12	0xbfe7d06a	-1.8110478
13	0xbfb1cb42	-1.3890154
14	0x3fc0bd77	1.505782
15	0x3e1acc63	0.1511703
16	0xbf1cc944	-0.61244607
17	0x3fb824ee	1.438627
18	0x3f7d8876	0.9903635
19	0x3f769aac	0.9632976
20	0x406ec553	3.7307937
21	0x400255c3	2.0364845
22	0xbf97ff26	-1.187474
23	0x3fdee07f	1.7412261
24	0x3fca6098	1.5810728
25	0x3fe9eb15	1.8274866
26	0x3de7e100	0.11322212
27	0xbebbcd3a	-0.36680013
28	0xbef84f99	-0.48498228
29	0xc07e30cf	-3.971729
30	0x3f293561	0.66097075
31	0x3fdb1869	1.7116824
32	0xc04a400f	-3.1601598
33	0x3c02d388	0.007985003
34	0xc0b01424	-5.5024586
35	0xbf4bab75	-0.795585
36	0xc08a5b88	-4.3236732
37	0xbf1583f6	-0.5840448
38	0xbfac5fa7	-1.3466691
39	0xbdaa23c4	-0.08307603
40	0x3e8a261f	0.2698221
41	0xbed7ac26	-0.42123526
42	0xbfb8f58e	-1.4449937
43	0xbf88babe	-1.0681989
44	0x41001326	8.004675
45	0xc065404b	-3.5820491
46	0xbf8c9f7d	-1.0986172
47	0xc0e92327	-7.285541
48	0xbfae66f5	-1.362517
49	0xbfef2528	-1.8683214
50	0xbd4c0d4c	-0.04981737
51	0xbd168c71	-0.03675503
52	0x3d4a3028	0.04936233
53	0x3e60d0ff	0.21954726
54	0x3d7ed9c9	0.062219415
55	0x3e590034	0.21191484
56	0xc0ba3d36	-5.819972
57	0xbf07b18c	-0.5300529
58	0xbf43c1d2	-0.7646762
59	0x3e0b9503	0.13631062
60	0x3f8a0c93	1.0785087
61	0xc003998f	-2.0562475
62	0x3ec8db93	0.39230022
63	0xbef910f3	-0.48645744
64	0x3e70d1fb	0.23517601
65	0x40094bc8	2.1452503
66	0x3d976765	0.07392768
67	0x3f986046	1.190438
68	0xc1049afa	-8.287836
69	0xbf4ba6bc	-0.7955129
70	0xbf320982	-0.6954576
71	0x402808f8	2.6255474
72	0x4007f454	2.1242876
73	0xbf8b7b1e	-1.0896947
74	0x3eacf458	0.3378017
75	0x3e13adfe	0.14421842
76	0x3dbdf31e	0.092748865
77	0xbe1628c6	-0.14663991
78	0x3f56fded	0.8398121
79	0x3f804fc2	1.002434
80	0xc123eb99	-10.245019
81	0x3f5e3a5d	0.86807805
82	0xbf00b2e4	-0.50272965
83	0xc0517bd1	-3.2731822
84	0xbd4d13ee	-0.050067835
85	0x4018239d	2.3771737
86	0xbe81730a	-0.2528308
87	0xbe3e2024	-0.18566948
88	0x3fc71966	1.5554626
89	0xbf794c91	-0.97382456
90	0x3e9e4735	0.30913702
91	0xc0082ff3	-2.1279266
92	0xc0a3a536	-5.1139174
93	0xbf6de896	-0.9293302
94	0xbf801c83	-1.0008701
95	0x404aabef	3.166744
96	0x3f6888c0	0.90833664
97	0xbf8c21e3	-1.0947841
98	0x3efb3222	0.49061686
99	0x3f89411c	1.0722995
100	0x3fa8be04	1.3182988
101	0x3f8c15ad	1.0944115
102	0xc06da84a	-3.7133965
103	0xc0b00ab7	-5.501308
104	0x3ee8c283	0.454609
105	0xc007a100	-2.1192017
106	0xc0834b27	-4.102924
107	0xc167277b	-14.447139
108	0xc00d1e1f	-2.2049634
109	0xbe76c163	-0.24097209
110	0xbeea6c5b	-0.45785794
111	0xbf1e46fc	-0.61827064
112	0x3d1fff5e	0.039061897
113	0x3f12489c	0.57142043
114	0x403481be	2.8204188
115	0x3f5087f3	0.8145744
116	0xc08aa97e	-4.33319
117	0xc03dc580	-2.9651794
118	0xbffb93d6	-1.9654491
119	0xc019c229	-2.4024756
120	0x3fec6d7d	1.8470913
121	0x3ecb5681	0.39714435
122	0xc01a38ae	-2.4097095
123	0xbf37f333	-0.7185547
124	0x3ff619c5	1.9226614
125	0xbf3aea7a	-0.7301403
126	0xbf5dcb84	-0.86638665
127	0x3e08c5ff	0.1335678
128	0x402d64b8	2.7092724
129	0xc0e23dee	-7.07006
130	0xc12423e7	-10.258765
131	0xc1106f5a	-9.027185
132	0x3fee7b06	1.8631294
133	0xc0095fba	-2.1464677
134	0xbf1dca38	-0.61636686
135	0xbef115dc	-0.4708699
136	0x3f2221b0	0.63332653
137	0x3e8c9112	0.2745443
138	0x3f9eab09	1.2395946
139	0x3f7e2cec	0.99287295
140	0x40ae91ec	5.4553127
141	0xbfb376de	-1.402065
142	0xbf5426f1	-0.8287192
143	0xbf783be5	-0.9696639
144	0x4002a41a	2.041266
145	0xc0919d91	-4.550484
146	0x3caeeb61	0.021352472
147	0xbe6ee1af	-0.23328279
148	0x3ee84b97	0.4537017
149	0x3dbab08c	0.09115705
150	0x3ea5c329	0.32375458
151	0x3e8028de	0.2503118
152	0xc0b23faf	-5.570274
153	0xbf4e926d	-0.8069218
154	0x3fa53410	1.2906513
155	0x3f77e3cb	0.9683196
156	0xc04b3750	-3.175251
157	0xbf397db4	-0.7245743
158	0xbf2b015d	-0.66798955
159	0xbe8ab917	-0.27094337
160	0x4034fcb1	2.827923
161	0x3fb75ae6	1.4324615
162	0x3d5217c4	0.051292196
163	0xbf1d12ab	-0.6135661
164	0x403e0713	2.9691818
165	0x4070f7e1	3.7651293
166	0x4010b0fb	2.260802
167	0xbf46c0f1	-0.77638155
168	0x3f83c6c9	1.029504
169	0x3f68a5ae	0.9087781
170	0xbe9da35c	-0.30788696
171	0xbd04f727	-0.032462265
172	0x3f2e4908	0.68080187
173	0xbae72f94	-0.0017638081
174	0x3eeffdc9	0.4687331
175	0xbf9886e2	-1.1916163
176	0x40d1c9dd	6.5558915
177	0x3f324476	0.69635713
178	0xbf3dcbc7	-0.74139065
179	0xc05e36f5	-3.4721043
180	0x40930c6e	4.5952673
181	0x3ee0a046	0.4387228
182	0xbf487b54	-0.78313184
183	0xbf84047f	-1.0313872
184	0x3fb3d4dc	1.4049335
185	0xbf51b384	-0.81914544
186	0xbea9d1c9	-0.33167866
187	0xbfaa4805	-1.3303229
188	0xc03bec36	-2.9362922
189	0xbfa43d7e	-1.2831266
190	0xc037eb96	-2.873754
191	0xc0686af3	-3.6315277
192	0xc132de4a	-11.17927
193	0x403763da	2.8654695
194	0xbf35a6a4	-0.709574
195	0xbe1ba31a	-0.15198937
196	0x3f5b3936	0.8563417
197	0x3ee4b3b4	0.44668353
198	0xc150c626	-13.048376
199	0x3f044687	0.51670116
200	0x4011b788	2.2768269
201	0xbf310a1c	-0.6915605
202	0xbef3b972	-0.4760242
203	0xc168b980	-14.545288
204	0x3fc55dd5	1.541926
205	0x3ff17379	1.8863364
206	0xbed18d30	-0.4092803
207	0xbfacb204	-1.3491826
208	0xc042b49d	-3.0422738
209	0x3f2b0e8e	0.66819084
210	0x3fd9a82c	1.7004447
211	0xc0096d83	-2.147309
212	0x400c4112	2.1914716
213	0xc0f72b11	-7.724007
214	0x401a380c	2.4096708
215	0xbf017219	-0.50564724
216	0x3f4ef0c9	0.8083616
217	0x3fa3a181	1.2783662
218	0x3d856043	0.06512501
219	0xbe881a95	-0.2658278
220	0xbdd51b17	-0.104055576
221	0x3f1f1b37	0.621509
222	0x3f9b4c1a	1.2132599
223	0x3e697f01	0.22802354
224	0x40acd604	5.401125
225	0xc0352c7d	-2.8308403
226	0xc06edbee	-3.7321734
227	0x3f9bce58	1.2172346
228	0xbcd584af	-0.026064245
229	0xbdfa278f	-0.122145765
230	0xbe94b8d8	-0.29047275
231	0xbe552518	-0.20814931
232	0xbe3ace2a	-0.18242708
233	0xbe096555	-0.13417561
234	0xbe0529c2	-0.1300421
235	0xbe067274	-0.13129598
236	0xbe2ae9a0	-0.16690683
237	0x3dafd744	0.085859805
238	0xbe014e09	-0.12627424
239	0xbe739da8	-0.2379061
240	0x3f4190b2	0.7561141
241	0x404646a9	3.0980628
242	0x3f5d13f2	0.8635856
243	0xbe29dece	-0.165889
244	0xbe40de66	-0.18834838
245	0x3ef3a15d	0.47584048
246	0x3eeadc73	0.45871314
247	0xbe88ca1b	-0.26716694
248	0xc02c222d	-2.689586
249	0xbe991484	-0.29898465
250	0x3f5588e1	0.83411986
251	0x3f807ca4	1.0038037
252	0xbf55a2cd	-0.8345154
253	0xbf9af73a	-1.2106698
254	0x3febdf56	1.8427532
255	0x3ef31382	0.4747582

0.bias f4 [24]
0	0x3fccf209	1.6011363
1	0xc006284f	-2.0962102
2	0xbe0158a8	-0.12631476
3	0x3eb21b95	0.34786668
4	0x412aec9c	10.682766
5	0xbfb733bb	-1.4312662
6	0xbecf49c5	-0.4048597
7	0x4076ecfd	3.8582146
8	0xbf89286f	-1.0715464
9	0x4042d7f3	3.0444305
10	0xbf94c35c	-1.1622119
11	0x3e3650e5	0.17804296
12	0x3dd6b2ea	0.10483344
13	0xc029e4f8	-2.6546001
14	0xbefa59f9	-0.4889677
15	0x3f04fd61	0.51949126
16	0xc0188ca1	-2.3835833
17	0xbf87f7e1	-1.0622522
18	0xc064cfb2	-3.5751767
19	0x3e0ba265	0.13636167
20	0x4058d4ec	3.3879957
21	0x40394503	2.8948371
22	0xbf51eb3b	-0.8199956
23	0xc055d558	-3.3411465

2.weight f4 [24, 24]
0	0xc020cdbc	-2.512557
1	0x3f39131d	0.7229479
2	0x4045ab76	3.0885901
3	0xbf3642ec	-0.71195865
4	0x3ebff86b	0.37494215
5	0xc0ecc2fb	-7.3988013
6	0xc05d15ca	-3.454455
7	0xc108db9f	-8.553618
8	0x40c57589	6.1705976
9	0x3ff46af7	1.9095143
10	0xc0371c53	-2.8611038
11	0xc06c392e	-3.69099
12	0xc083a9ba	-4.1144686
13	0xc034f47e	-2.8274226
14	0xc0d4c36a	-6.6488543
15	0xc0824946	-4.0714445
16	0x3f4e85e7	0.8067307
17	0xc0ad3e86	-5.4138823
18	0x402f13b4	2.7355776
19	0x3dbccce4	0.09218767
20	0x3fc6379a	1.5485718
21	0xbfd503e1	-1.6641809
22	0xc06f9f4b	-3.7440975
23	0xc0fb41f1	-7.8517995
24	0xc02d3860	-2.7065659
25	0x4006af64	2.104455
26	0xbf18271b	-0.5943467
27	0x3f98c4ed	1.1935097
28	0x402f6776	2.7406898
29	0xbfd287c4	-1.6447682
30	0xc01a0b23	-2.4069297
31	0xbfca0dcb	-1.5785459
32	0xbf3b3eb0	-0.7314253
33	0xbf303230	-0.6882658
34	0xbe6bc232	-0.23023298
35	0xbe5753df	-0.21028088
36	0xc0aac4b1	-5.33651
37	0x3f8978dd	1.074001
38	0x3fa5b892	1.2946951
39	0x3fa04a8c	1.252275
40	0x3fd91efd	1.6962582
41	0x3ff5051b	1.9142183
42	0xbf1c13d0	-0.6096773
43	0x3d136806	0.035987876
44	0xc0582428	-3.3772068
45	0x3fd3f210	1.6558247
46	0xbf29078f	-0.6602716
47	0xbf2e5ecf	-0.68113416
48	0x3fa79e7b	1.3095239
49	0xc01d01f2	-2.4532437
50	0x406808c7	3.6255357
51	0xc0aaf2b1	-5.3421254
52	0xc0086583	-2.1311958
53	0x3f8ea887	1.114518
54	0x3fc1eee3	1.5151027
55	0x401e43c3	2.4728858
56	0x4011d488	2.2785969
57	0x3fcdf48f	1.6090258
58	0xbf8b027f	-1.0860137
59	0xbfea0a6b	-1.8284429
60	0x3f855293	1.0415825
61	0xbf48aac3	-0.7838556
62	0x3ad49217	0.0016217855
63	0x3fda431d	1.7051731
64	0x4031f0d2	2.7803235
65	0x403f8bff	2.9929197
66	0xbfd9b596	-1.7008541
67	0xbca84c86	-0.020544302
68	0x4017ff04	2.37494
69	0xbef0801a	-0.46972734
70	0x3ef72e80	0.48277664
71	0x3f9b66f3	1.2140793
72	0xbfe77c96	-1.8084896
73	0x3fa61b49	1.2977077
74	0xbf7d1c4c	-0.988713
75	0x3fbfbded	1.4979836
76	0x4045ab7f	3.0885923
77	0xc067e22f	-3.6231802
78	0xc03eb309	-2.9796774
79	0xbf3b5337	-0.7317385
80	0xbe9815a0	-0.29704
81	0xbecee995	-0.40412584
82	0xbebfdbac	-0.37472284
83	0x40214c6f	2.5202901
84	0xc055437c	-3.332244
85	0x3fa55f72	1.2919753
86	0x3f58eb6c	0.84734225
87	0xc00df882	-2.2182927
88	0xbfdef8a3	-1.7419628
89	0xc058bc31	-3.3864863
90	0x3f9f85c1	1.2462693
91	0xbe32bbe7	-0.17454492
92	0xbe53f4e6	-0.2069889
93	0x3ef5405a	0.4790066
94	0x40058368	2.0861454
95	0x3d7ec17f	0.06219625
96	0xc104743e	-8.278379
97	0x3eceb12d	0.4036955
98	0xc021b26d	-2.5265152
99	0xc0d07b06	-6.5150175
100	0x401152df	2.270683
101	0xc0b35854	-5.6045322
102	0xc06ec85c	-3.730979
103	0xc0de5db6	-6.9489393
104	0xc0b0b785	-5.5224023
105	0x3f9bb18b	1.2163557
106	0xc09550c8	-4.666111
107	0xbf93218a	-1.149461
108	0xc12d0a4f	-10.815017
109	0xc150f4c7	-13.05976
110	0xbf8aca4a	-1.0842984
111	0xbf964997	-1.1741208
112	0xbfb8dd53	-1.4442543
113	0xc0ec926f	-7.392875
114	0xbf5ae292	-0.8550197
115	0x3e8056d3	0.25066242
116	0xbfcb6710	-1.5890827
117	0x3e821ac4	0.25411046
118	0xc0fc63d0	-7.887184
119	0x400a8bf1	2.1647913
120	0xbfa7ceda	-1.3110001
121	0xbeb835ec	-0.3597864
122	0xc03ea2b1	-2.97868
123	0x402ab594	2.6673326
124	0xbef8429a	-0.48488313
125	0xc011d40e	-2.2785678
126	0x3f2a721a	0.66580355
127	0xc0c632bf	-6.1936946
128	0xc1104372	-9.016466
129	0xbff9d85f	-1.9519156
130	0xbfd7ce00	-1.6859741
131	0x3f119fda	0.5688454
132	0x3d76d944	0.060265794
133	0xbfac6123	-1.3467144
134	0x3e9c8fd8	0.30578494
135	0x3f9cf335	1.2261721
136	0xc09df24e	-4.935828
137	0xc104b8e4	-8.295139
138	0x3ff6f48d	1.9293381
139	0x3c7d964a	0.015477726
140	0x3e91afcd	0.28454438
141	0xbf47b161	-0.78005034
142	0x3fb323a8	1.3995256
143	0xbf8cfe21	-1.1015054
144	0xbf0c63ad	-0.54839593
145	0x3fe5709d	1.7924992
146	0xbe938690	-0.288136
147	0x405cee47	3.4520433
148	0x3fa0ba2b	1.2556814
149	0xbffb2637	-1.9621037
150	0xbff6158f	-1.9225329
151	0xbf9698a8	-1.1765337
152	0xbfccabb9	-1.5989906
153	0xbff61192	-1.9224112
154	0xbfbdbcae	-1.4823205
155	0x3f574787	0.8409352
156	0x404a3534	3.1594973
157	0x3f6bd176	0.9211649
158	0x3f98aa13	1.1926903
159	0xbe7882ee	-0.24268696
160	0x3e7c4563	0.24635844
161	0x40583652	3.3783154
162	0x3fe1363a	1.7594674
163	0x3db2c5f0	0.0872916
164	0xc010db6e	-2.263393
165	0x3f1483c7	0.58013576
166	0xbf8c0585	-1.0939184
167	0x3f5f4a57	0.8722281
168	0xbe96c96e	-0.29450554
169	0x40089ef0	2.1347008
170	0xc0713270	-3.7687035
171	0x3fa5962a	1.2936451
172	0xc03494c3	-2.8215797
173	0x3f3b0a92	0.73063004
174	0x403fffd1	2.9999888
175	0x3fb11be2	1.3836634
176	0xbe01bc6d	-0.12669535
177	0xbff94ae8	-1.9475985
178	0x3fdc688f	1.7219409
179	0xbe88bc1f	-0.26706025
180	0x400fd9c3	2.2476661
181	0xbdd0361a	-0.10166569
182	0xbebffe51	-0.37498716
183	0xbf7d7825	-0.9901145
184	0x3f19db2a	0.6010004
185	0x3fb00272	1.3750746
186	0x3ee011e7	0.43763658
187	0x3d2a5c89	0.041592155
188	0xbfbbad82	-1.4662325
189	0x3f15bdce	0.58492744
190	0xbf23b9ba	-0.6395527
191	0xbf05d431	-0.52276903
192	0xc1afff6c	-21.999718
193	0xc04cee43	-3.2020423
194	0xc06eecab	-3.733195
195	0x40ad8b2a	5.423238
196	0xbeb58b3e	-0.35457796
197	0xc07c7ab4	-3.9449892
198	0xbfd7ebae	-1.6868799
199	0xc18dee78	-17.74144
200	0x407eca48	3.9810963
201	0x404ef6ba	3.233809
202	0xbfc10f3c	-1.5082774
203	0x3fbeb77e	1.4899747
204	0xc13af7d5	-11.685506
205	0xc062f14c	-3.5459776
206	0x3fc112d2	1.5083869
207	0x3ed35d55	0.41282144
208	0x4006eb47	2.1081102
209	0xc1332e1f	-11.19876
210	0x3f8c25af	1.0949
211	0xbe4e6d24	-0.20158821
212	0xc04beab5	-3.1862004
213	0x3f127e38	0.57223845
214	0xc16abc15	-14.670918
215	0xc0f5e2d0	-7.683937
216	0xbfed9628	-1.8561449
217	0x3f5e34f0	0.86799526
218	0xbf5ae646	-0.8550762
219	0x3ea582a1	0.32326224
220	0x406cf82e	3.7026477
221	0xbffba18d	-1.9658676
222	0xc08ef115	-4.466929
223	0xc01a45b6	-2.4105048
224	0xbf579155	-0.84206134
225	0x3f69e50e	0.91365135
226	0x3f11941d	0.5686663
227	0x3f645387	0.8918995
228	0xc03bea78	-2.9361858
229	0x3ff5d859	1.9206649
230	0x3f43e024	0.76513886
231	0xc016f83b	-2.3589008
232	0x3e83ce14	0.25743163
233	0x3e2ea2a3	0.17054228
234	0x3e21b54f	0.1579182
235	0xbe94ca98	-0.29060817
236	0xbf4c928b	-0.79911107
237	0x3f8dc1e0	1.1074791
238	0x40283f24	2.6288538
239	0xbdf2bb66	-0.1185215
240	0xbfc0a334	-1.5049806
241	0xbf65bdc3	-0.8974268
242	0xc0a32bbb	-5.099088
243	0xc01b0d24	-2.422677
244	0xbf48debd	-0.7846487
245	0xc12ae125	-10.679967
246	0xc118e003	-9.55469
247	0xc12f1a02	-10.94385
248	0x40c0aef4	6.0213566
249	0x3ee7f972	0.453075
250	0xc0ec5a29	-7.386006
251	0xc080f091	-4.029366
252	0x3f8d2ce4	1.1029325
253	0x3fc40f09	1.5317088
254	0x3f60616f	0.8764867
255	0xc12643f4	-10.39159

2.bias f4 [24]
0	0xbfa28242	-1.2696002
1	0xbf54b702	-0.8309175
2	0x3f5d6d77	0.86495155
3	0x4020b1ca	2.5108514
4	0xbea6d4ab	-0.32584128
5	0xbfa02e9a	-1.2514222
6	0xbfbee478	-1.4913473
7	0x3ddad358	0.10684842
8	0x3ff593ed	1.9185768
9	0x3ea51ad2	0.32247025
10	0xbfd13c15	-1.634646
11	0xbdf05cbc	-0.11736438
12	0x40bfab62	5.9896708
13	0x4015398e	2.3316379
14	0xbdfa3ed1	-0.122190125
15	0x401a9047	2.415056
16	0x40731978	3.7984295
17	0xbfd85516	-1.6900966
18	0x40b7163a	5.721463
19	0xc017e5f2	-2.3734097
20	0x407601a1	3.8438494
21	0xbf5b9c77	-0.8578562
22	0xc085bad4	-4.179056
23	0xbfb296cc	-1.395227

4.weight f4 [4, 24]
0	0x413b9ed7	11.726279
1	0xc057ebf0	-3.3737755
2	0xbfad0dde	-1.3519857
3	0x3d23d655	0.039999325
4	0xbef3ba3f	-0.47603032
5	0xbfb4b9ed	-1.411924
6	0xc00aae2a	-2.1668801
7	0x3cd7c550	0.026339203
8	0x4083d5f5	4.119868
9	0x40365105	2.848695
10	0xbefbbefc	-0.49169147
11	0x4081ed68	4.0602303
12	0x4068bb66	3.636438
13	0x3e046038	0.1292733
14	0xbf31ea3d	-0.69498044
15	0x3f5dbade	0.8661326
16	0x4002475d	2.0356057
17	0xc04c29eb	-3.1900585
18	0x4067d714	3.6225023
19	0xc092f400	-4.592285
20	0x400783da	2.1174226
21	0x410ed6f2	8.927477
22	0xc07b3da6	-3.9256377
23	0x3fa6cb7a	1.3030846
24	0x414e7c53	12.905353
25	0x3f7d84a5	0.99030524
26	0xc09b8ffa	-4.8613253
27	0x40170155	2.3594563
28	0x40f30f7f	7.5956416
29	0x4070e1d6	3.763784
30	0x3ef21825	0.47284046
31	0xc0836b3e	-4.106841
32	0x417eefad	15.933515
33	0x3ebb1f05	0.36547104
34	0x40d9a351	6.801186
35	0x410425cd	8.259229
36	0x402b8aaa	2.6803384
37	0xbef024d1	-0.4690309
38	0x4006e20f	2.1075475
39	0xc05c50f7	-3.4424417
40	0x3f64e8d4	0.8941777
41	0xc0798d92	-3.8992658
42	0x4029e479	2.6545699
43	0x412e692c	10.900677
44	0x40571b35	3.3610356
45	0x40434b57	3.0514734
46	0x3fc892fb	1.5669855
47	0x4048a977	3.1353433
48	0xbf189448	-0.5960126
49	0x3fe355d5	1.7760569
50	0xc06594d0	-3.5872078
51	0xc0336dd8	-2.8035793
52	0x412c19bf	10.756286
53	0x3fbcb9ee	1.4744241
54	0xc09ef0c8	-4.9668922
55	0xbf84ff5e	-1.0390432
56	0x3ec4249c	0.3830918
57	0xc04a6812	-3.162602
58	0xc025e768	-2.592249
59	0x411c468a	9.767221
60	0x408d5a72	4.4172907
61	0x40128427	2.289316
62	0xc016541d	-2.3488839
63	0x3ea2ab2a	0.31771213
64	0x40715842	3.7710118
65	0x4012a48c	2.2912931
66	0x403a66fd	2.912536
67	0x41020640	8.126526
68	0x401cd15d	2.4502785
69	0x41141f37	9.257621
70	0x3e4e43a4	0.2014299
71	0x3f578b04	0.84196496
72	0x4073cea0	3.8094864
73	0xc04e53de	-3.2238688
74	0xc0886b36	-4.2630873
75	0x40216dd2	2.522328
76	0x40ad1d80	5.409851
77	0xc07d1ff0	-3.9550743
78	0x3f3fbdac	0.7489879
79	0xc0244a79	-2.5670455
80	0x4148caf1	12.549546
81	0xbfe6d0f3	-1.8032516
82	0x414b6017	12.710959
83	0x3fcdcc98	1.6078062
84	0x401eb834	2.4799929
85	0x40b159dd	5.5422196
86	0xc0d79ef9	-6.738156
87	0x402b9f13	2.6815841
88	0x4087781a	4.233411
89	0xc0410e05	-3.0164807
90	0x3fec9e95	1.8485895
91	0x3f847caf	1.035055
92	0x3f49cb61	0.78825957
93	0x41192042	9.570375
94	0x401d5983	2.4585884
95	0x40276129	2.6153052

4.bias f4 [4]
0	0x40e065c6	7.0124235
1	0x40073b28	2.1129856
2	0x4071cd19	3.7781432
3	0x3f6ad372	0.9172889
