logs_400/logs/target_params_A_150.pt (torch, 6263 bytes, 6 tensors)

0.weight f4 [24, 12]
000000 69 7c f5 3f 6f 43 b8 3f 68 58 47 be 8a 73 07 3f
       1.9178592 1.4395579 -0.19467318 0.52910674
000010 0d 99 7e bf bf 43 bc 3f c5 e5 de be 5b 0f cf be
       -0.99452287 1.4708174 -0.43534675 -0.40441403
000020 3f f9 97 c0 62 06 45 40 c4 c3 03 40 bb 55 a4 bf
       -4.7491755 3.0785146 2.0588236 -1.2838663
000030 77 54 18 c0 6e 65 78 bf f5 35 7e 3f 05 b4 90 be
       -2.3801553 -0.9702977 0.9930108 -0.28262344
000040 c7 b6 87 be f9 ce af 3f 84 7c 80 3f 97 03 0c 3f
       -0.26506636 1.3735038 1.0037999 0.5469298
000050 aa 9f 8a 40 c5 e3 9e 3e 78 ac 46 3f 98 84 15 40
       4.3319902 0.3103315 0.77606916 2.3362179
000060 71 31 ad be ae 65 c8 3f f8 31 63 3f c5 42 c9 be
       -0.33826783 1.565603 0.8874812 -0.39308754
000070 77 88 39 bf 26 29 76 c0 33 56 e2 3f 94 de b0 3f
       -0.72473854 -3.8462615 1.7682556 1.3817925
000080 a3 0b b5 bf 58 80 18 bf 36 d3 95 c0 75 b5 7d c0
       -1.4144176 -0.5957084 -4.6820326 -3.9642003
000090 9e 9d d2 bf 05 37 03 bd f0 c7 11 3f 4b d9 4e 3f
       -1.6454351 -0.032034893 0.56945705 0.8080031
0000a0 06 41 0c 3f 77 90 85 3e fe 23 b4 bf 87 39 eb bf
       0.5478672 0.2608678 -1.4073484 -1.8376931
0000b0 f2 cb d0 40 12 d9 d3 bf 89 d0 ad 3e 74 ad d0 c0
       6.5248957 -1.655062 0.33948162 -6.5211735
0000c0 69 f1 a6 bf 14 31 de bf 7f 1d c1 3d 24 be a2 3d
       -1.3042423 -1.7358727 0.09429454 0.07946423
0000d0 90 c2 a0 bd 90 69 0b 3e d3 ba bd 3d b6 52 02 3e
       -0.0784961 0.13614488 0.092641495 0.12726864
0000e0 ad e9 a4 c0 d2 8a a2 be 65 34 22 bf 1a da 63 3e
       -5.153525 -0.31746536 -0.633612 0.22251168
0000f0 fe eb 51 3f d3 39 15 c0 97 eb 88 3e a4 9d 33 3d
       0.8200072 -2.3316543 0.2674224 0.04385151
000100 cd 7c e7 3e 4d 65 0c 40 d5 3d 36 3e 4c 39 73 3f
       0.45212403 2.193683 0.17797025 0.95009303
000110 f1 ac e3 c0 9b 8e d9 bf e0 53 12 3f 99 26 e0 3f
       -7.114861 -1.6996645 0.57159233 1.7511779
000120 62 88 12 40 ca 13 04 bf 40 ed 21 bd 09 c0 f5 3e
       2.2895741 -0.51592696 -0.0395329 0.47998074
000130 b6 43 8d be 74 6c ec be c7 50 ad 3f 71 f4 22 3f
       -0.27590722 -0.46176493 1.3540276 0.6365424
000140 29 c2 19 c1 84 bf 03 be 9f 54 54 bf 45 ca 84 c0
       -9.609902 -0.12866026 -0.8294162 -4.149691
000150 9a 21 df be 66 8e 0d 40 d1 15 42 be 86 17 83 bd
       -0.43580323 2.2118163 -0.18953635 -0.06400971
000160 c8 63 d1 3f 4f 80 82 bf 3d 99 02 3f c0 a1 be bf
       1.6358576 -1.0195407 0.51015073 -1.4893112
000170 4a 80 b1 c0 89 16 c1 be a0 e6 f5 be 95 65 6d 40
       -5.5469103 -0.37712505 -0.48027515 3.709325
000180 4c dd 25 3f b6 b7 f7 bf 5a 10 3b 3e 2c ca 36 3f
       0.647908 -1.9352939 0.18267956 0.7140224
000190 94 af f9 3f dc 4c 8f 3f 90 a6 51 c0 e9 19 b4 c0
       1.9506707 1.1195331 -3.2757912 -5.628163
0001a0 82 09 34 3f da 06 9a bf 0b 5f a3 c0 7b 27 67 c1
       0.7032701 -1.2033341 -5.105352 -14.447139
0001b0 d1 ae 9c bf 6b 5c b4 bf a1 45 7d bf bc 84 95 3f
       -1.224085 -1.4090704 -0.9893437 1.1681132
0001c0 f2 6a b4 3d f7 0a 28 3f 8e 4e 1a 40 4e c4 a5 3e
       0.08809461 0.6564173 2.4110446 0.3237633
0001d0 48 e2 7f c0 95 0a 31 c0 fb 51 9b c0 11 3e 2f c0
       -3.998186 -2.7662709 -4.8537574 -2.7381632
0001e0 a9 11 27 40 76 97 12 bf 19 66 61 c0 63 ad 12 3e
       2.610453 -0.5726236 -3.5218565 0.14323954
0001f0 9e 81 a0 3f 15 81 b4 3d 19 cf d4 bf 96 21 90 bc
       1.2539556 0.08813683 -1.6625701 -0.01759414
000200 ac a6 04 40 63 22 87 c0 2a df 21 c1 1c e7 ef c0
       2.0726728 -4.2229476 -10.116983 -7.4969616
000210 92 08 cc 3f 0b 23 0e c0 f8 db 84 bf 0e 91 b3 3e
       1.5940115 -2.2208889 -1.0379629 0.35071605
000220 7d 43 36 3f 8a 22 a7 3d 01 9e 95 3f 64 41 6f 3f
       0.7119673 0.08160885 1.1688844 0.93459153
000230 6e 36 a5 40 f3 34 e6 be bf 18 23 bf c5 d5 22 bf
       5.1628942 -0.44962272 -0.63709635 -0.63607436
000240 6c b9 16 40 5d 79 85 c0 1c 4d e6 3c 1d 60 bf 3d
       2.3550673 -4.171065 0.02811294 0.09344504
000250 99 17 d3 3e f9 20 05 3f 7d 6d 07 3e 12 ff 9e bd
       0.4122894 0.5200344 0.1322536 -0.077634946
000260 8a af ad c0 56 6d c6 be 03 c5 04 40 68 d6 cd 3f
       -5.427678 -0.38755292 2.0745246 1.6081057
000270 a0 44 56 c0 87 6e 6e be 47 1c 19 bf fe 73 84 3e
       -3.3479385 -0.2328435 -0.5980877 0.25869745
000280 21 5d 42 40 ef 8e cc 3f d7 82 01 be df e9 f7 be
       3.0369341 1.598112 -0.12647568 -0.48420617
000290 9a c2 64 40 0b eb 03 3e d5 f7 79 40 e4 e6 0d bf
       3.5743775 0.1288263 3.9057515 -0.55430436
0002a0 09 9b 89 3f d2 98 3c 3f 9b 09 f1 be fa 89 54 3f
       1.0750438 0.73670685 -0.4707764 0.83023036
0002b0 06 b1 69 3f b7 04 19 bf 24 c5 15 3f c6 8f 87 bf
       0.9128574 -0.5977282 0.5850394 -1.0590751
0002c0 b0 d3 b2 40 45 ea 7d 3f e0 2c 85 3f 2a 7a 70 c0
       5.5883408 0.9918559 1.040432 -3.7574563
0002d0 7b 36 83 40 2e 0e de 3e 44 49 05 bf 5c 2a ab be
       4.1004004 0.43370193 -0.5206492 -0.33430755
0002e0 e3 56 f3 3f 6f e8 7b bf e2 dd f0 be cf 50 7a bf
       1.9010891 -0.9840154 -0.47044283 -0.97779554
0002f0 ee a4 84 c0 4b 3e 9b bf 96 05 0c 3f 9c eb ae bf
       -4.145133 -1.2128385 0.54696023 -1.3665652
000300 5d f3 29 c1 47 c3 96 3f 4c d3 f3 3d 41 ff 78 bf
       -10.621915 1.1778344 0.11905536 -0.97264487
000310 8e ab 23 40 09 0a fe 3e 9e bc 2b c1 f8 ed 18 be
       2.5573459 0.4961703 -10.733549 -0.14934528
000320 63 9e 05 40 f4 28 b3 bf 02 f4 37 c0 8f 2a 3a c1
       2.0877922 -1.3996873 -2.874268 -11.63539
000330 7b 98 8c 3f 5d ba 28 40 1d 4d e8 be 10 8d a2 bf
       1.0984033 2.6363747 -0.45371333 -1.2699299
000340 3e b4 3f c0 2b 33 12 3f ac 87 95 3f 55 e1 7a bf
       -2.995376 0.57109326 1.1682029 -0.9800008
000350 54 59 ac 3f 80 1e 17 c1 d3 a2 8f be 82 75 a8 3f
       1.3464761 -9.444946 -0.28053913 1.316086
000360 24 a3 4c 3f 47 3b 87 3f 16 f2 95 3c b3 ac dd 3e
       0.7993643 1.0564965 0.018303912 0.43295822
000370 5d fa 88 be 99 0c 0b 3f 62 67 6b 3f 47 a2 f7 3e
       -0.26753512 0.543161 0.91954625 0.48365995
000380 7e b8 9c 40 38 87 25 c0 94 cf af c0 75 9c 51 3f
       4.897521 -2.586378 -5.494089 0.8187936
000390 af 84 d5 bc 8f 27 fa bd d8 b8 94 be 18 25 55 be
       -0.026064245 -0.122145765 -0.29047275 -0.20814931
0003a0 2a ce 3a be 55 65 09 be c2 29 05 be 74 72 06 be
       -0.18242708 -0.13417561 -0.1300421 -0.13129598
0003b0 a0 e9 2a be 44 d7 af 3d 09 4e 01 be a8 9d 73 be
       -0.16690683 0.085859805 -0.12627424 -0.2379061
0003c0 a1 dd 1b 3f e2 82 44 40 3c 5e 80 3f 61 dc 26 bf
       0.60885054 3.0704885 1.0028758 -0.6518002
0003d0 fe c1 4a be f0 7e 03 3f f5 1c cd 3e bb 80 5a be
       -0.19800565 0.51365566 0.40061155 -0.2133817
0003e0 f2 77 49 c0 6e f4 93 3d 28 de 40 3f ef 55 b4 3f
       -3.147946 0.07224356 0.75338984 1.4088725
0003f0 27 39 80 bc ec 02 de bf 6f 04 24 3f e2 2f b7 3f
       -0.015652252 -1.7344642 0.64069265 1.4311488

0.bias f4 [24]
000000 15 08 aa 3f bc 74 88 bf 31 24 de 3f 56 6c 5c bf
       1.3283716 -1.0660625 1.7354795 -0.8610281
000010 55 64 2a 41 82 63 8c bf ce a6 2a bf 7d dd 2d 40
       10.649495 -1.0967867 -0.66660774 2.7166436
000020 40 24 e2 be c5 0e 36 40 b6 06 c6 bf df e5 28 be
       -0.44168282 2.8446515 -1.5470798 -0.16493939
000030 26 80 f5 3d 5c 92 08 c0 74 03 b0 bf 19 b4 ea bc
       0.11987333 -2.133933 -1.3751054 -0.02865033
000040 b5 86 f9 bf 9f e0 bc bf f3 83 7d c0 65 a2 0b 3e
       -1.9494234 -1.4756049 -3.9611785 0.13636167
000050 4f be 37 40 a2 5a 40 40 ee ed 9e bf 27 3a 09 c0
       2.8709905 3.0055318 -1.241636 -2.1441743

2.weight f4 [24, 24]
000000 38 42 ff bf 8a f6 72 3f e3 75 70 40 b6 1e 02 bf
       -1.9942083 0.9490744 3.7571952 -0.5082811
000010 02 73 bb 3f 44 e7 c1 c0 0d e7 3e c0 08 ee f5 c0
       1.4644473 -6.0594807 -2.9828522 -7.6853065
000020 89 75 c5 40 41 7f f1 3f a2 05 37 c0 74 1c f9 bf
       6.1705976 1.886696 -2.8597188 -1.9461808
000030 4f 4e 73 c0 3e 3e 07 c0 8e 2c 96 c0 ff 05 85 c0
       -3.8016546 -2.113174 -4.692939 -4.156982
000040 e9 cc 53 3f f7 a7 8b c0 43 59 24 40 e4 cc bc 3d
       0.82734543 -4.3642535 2.567948 0.09218767
000050 a4 36 8e 3f 64 4a 34 bf 8d d3 55 c0 78 3a ea c0
       1.1110425 -0.7042601 -3.341037 -7.3196373
000060 49 7a ac bf 67 3f 12 40 2f 5f 84 bf bd b7 d7 3f
       -1.3474818 2.2851198 -1.0341548 1.6852947
000070 89 c6 e4 3f 5c cf f1 bf 13 07 48 c0 4f 8b 0d bf
       1.7873088 -1.8891406 -3.1254318 -0.55290693
000080 c6 c9 35 bf a0 3c a0 bf a5 da e3 be d9 8c df be
       -0.71011007 -1.2518501 -0.4450275 -0.43662146
000090 8d 9e 9f c0 83 c0 fa 3e 40 b0 b1 3f 8d 65 d8 3d
       -4.9881043 0.48975 1.3881912 0.10566244
0000a0 02 bb 33 be ef 0e 94 40 c4 17 04 3e 06 68 13 3d
       -0.17551807 4.626823 0.12899691 0.035987876
0000b0 8c 46 0c c0 3d 2b fe 3f 1c e9 c2 bf 64 85 06 bf
       -2.1918058 1.9856945 -1.5227389 -0.5254729
0000c0 d1 2e 87 3f 27 4a d4 bf e4 5a 12 40 8e aa a1 c0
       1.0561162 -1.658513 2.2867975 -5.0520697
0000d0 41 b1 3e c0 fd fa b2 3f 63 94 07 40 92 d8 1c 40
       -2.9795687 1.3982846 2.1184318 2.4507184
0000e0 bc 6b b5 3f 01 35 c6 3f 5f e2 2f bf 2a 56 d6 bf
       1.4173503 1.5484926 -0.6870479 -1.6745045
0000f0 b7 cd 5b be 69 50 03 bf 1e 1b 8a be 69 f7 aa 3f
       -0.21465193 -0.5129457 -0.26973814 1.3356754
000100 54 0b 2c 40 c3 6c 3a 40 54 da 0b c0 86 4c a8 bc
       2.6881914 2.9128883 -2.1852007 -0.020544302
000110 7e e0 05 40 87 69 e1 be 09 40 90 3f 12 dd 05 3e
       2.091827 -0.44025823 1.1269542 0.13072613
000120 33 8d b1 bf a0 d7 97 3f 63 47 c7 bf ab 27 d4 3f
       -1.3871216 1.1862679 -1.556866 1.6574606
000130 a4 9a 5c 40 75 d1 1e c0 e4 23 08 c0 36 ce b1 bf
       3.4469385 -2.4815342 -2.1271906 -1.3891056
000140 c6 d4 2c 40 75 2f bd be ea d9 9f 3e 3e 3b 24 40
       2.7004867 -0.3695027 0.31220943 2.5661159
000150 3e 4e 9e c0 7f 35 87 3f ab dc 6f 3f bb ea c9 bf
       -4.947051 1.0563201 0.9369609 -1.5774759
000160 ef 33 d5 bf ba 0b 85 c0 56 15 a4 3f e7 bb 32 be
       -1.6656474 -4.1576815 1.2819011 -0.17454492
000170 bd f9 af 3b a5 23 de 3e 52 9f 64 3f da 8b 00 bf
       0.0053703473 0.4338657 0.89305604 -0.50213397
000180 95 4f d3 c0 c7 de 90 3f 41 22 36 c0 6e 7a a8 c0
       -6.6034646 1.1317986 -2.8458407 -5.264945
000190 86 99 34 40 5c 4b 17 c0 00 c7 69 c0 b6 5d de c0
       2.8218703 -2.3639746 -3.652771 -6.9489393
0001a0 85 b7 b0 c0 31 e9 a9 3f 99 d1 30 c0 53 11 ad be
       -5.5224023 1.3274289 -2.7627928 -0.3380228
0001b0 65 1c 29 c1 04 9b 35 c1 a2 2a 05 bf 30 0b 87 bf
       -10.569432 -11.350346 -0.5201818 -1.0550289
0001c0 53 dd b8 bf d4 d9 c3 c0 c7 a7 0b be d3 56 80 3e
       -1.4442543 -6.1203403 -0.1363822 0.25066242
0001d0 12 a0 89 be 9a 3f cb 3e a7 7e 06 c1 ef 31 18 40
       -0.26879936 0.39696962 -8.405921 2.3780477
0001e0 ec 56 e8 bf a3 bb af 3e 35 93 93 c0 0f a5 27 40
       -1.8151526 0.34322843 -4.6117196 2.6194494
0001f0 95 fe e9 3e 5a ee 09 c0 a4 15 fe 3f 4d 8e f6 c0
       0.45702043 -2.1551728 1.9850354 -7.7048707
000200 74 90 d5 c0 f9 f7 09 c0 f5 31 48 bf 04 a0 52 3f
       -6.6738834 -2.15576 -0.7820123 0.82275414
000210 76 31 99 be 79 e6 fd bf 75 b8 05 3f 71 b3 b9 3f
       -0.29920548 -1.983596 0.52234584 1.4507886
000220 4f 6b 7f c0 74 d5 b9 c0 40 98 dd 3f 4a 96 7d 3c
       -3.9909246 -5.8073063 1.7312088 0.015477726
000230 c3 06 b3 3e b8 ad df be 8c 97 cf 3f 07 7a 22 3e
       0.34966096 -0.43687224 1.6218123 0.15866862
000240 db fb 71 bf 5c ee bb 3f 2a 64 3d 3f 8c 29 3a 40
       -0.94524926 1.4682117 0.73980963 2.9087858
000250 45 71 df 3f 5a 68 fd bf bc 5f 21 c0 a6 69 1b c0
       1.7456442 -1.979747 -2.5214682 -2.4283233
000260 51 a5 99 bf c3 36 e2 bf 51 2a 3f bf 47 c7 98 3f
       -1.2003576 -1.7672962 -0.74673945 1.1935815
000270 a5 cb fd 3f 05 b2 72 3f 9d f9 8b 3f 2d 09 d5 3e
       1.9827772 0.94802886 1.0935551 0.41608563
000280 7f e7 27 bf cb 52 5d 40 a8 c0 02 40 f0 c5 b2 3d
       -0.6558761 3.4581783 2.0430088 0.0872916
000290 11 4b 01 c0 9e 5a 58 3f 61 c7 f5 bf cf 37 85 3f
       -2.0202067 0.8451327 -1.9201471 1.0407656
0002a0 79 00 25 bc 0f 80 1d 3f ea b2 74 bf ac 36 b6 3f
       -0.0100709135 0.61523527 -0.955855 1.4235435
0002b0 45 99 04 c0 b1 84 93 3f a2 7e 27 40 d9 42 1f 3f
       -2.0718548 1.1524869 2.617104 0.62211376
0002c0 69 8a 9e bf b7 6b 5b bf fc 3a f7 3f 66 32 8a be
       -1.238599 -0.85711235 1.9314876 -0.26991576
0002d0 8e 75 5e 40 17 d5 0e 3e 31 10 09 be b2 5d f9 3d
       3.475925 0.13948475 -0.13385083 0.12176074
0002e0 f1 9c 54 3e 03 7e 1d 3f a7 c8 3c 3d 89 5c 2a 3d
       0.20762993 0.61520404 0.046089794 0.041592155
0002f0 2a 14 8c bf 0e c2 5d be fc a0 4c 3e a8 4a c2 bf
       -1.0943654 -0.21656057 0.19983286 -1.5179033
000300 2e cd 92 c1 ce 90 2a c0 ba 8b de bf a1 e2 12 40
       -18.350185 -2.6650882 -1.7386391 2.2950823
000310 6e 90 2a bf 03 9d 25 c0 ce 26 dc be ab c8 7d c1
       -0.6662663 -2.5877082 -0.42998356 -15.861491
000320 14 6e 6b 40 37 90 48 40 9b 49 e4 bf 2a 66 dc 3f
       3.6785936 3.1338022 -1.7834963 1.7218678
000330 57 12 5b c1 42 3e 7c c0 ab d3 8f 3f 52 23 eb 3f
       -13.6919775 -3.9413 1.1236471 1.8370154
000340 fb b0 ad bf 23 4d fa c0 bd 80 89 3f 24 6d 4e be
       -1.3569635 -7.821916 1.0742413 -0.20158821
000350 b7 14 76 c0 85 ec 81 3f 1b c2 69 c1 b7 9d 04 c1
       -3.8450143 1.0150305 -14.609889 -8.288505
000360 9d 59 f8 bf b3 01 91 3f df 69 43 bf 0f 91 ff 3f
       -1.9402348 1.1328644 -0.7633342 1.9966143
000370 03 b4 79 40 50 3c b9 bf e5 cc 85 c0 fb 79 aa bf
       3.901612 -1.4471531 -4.1812615 -1.3318475
000380 d5 67 94 bf d4 0c 89 3e 53 49 12 bf 65 77 37 3f
       -1.1594187 0.267676 -0.57143134 0.71666557
000390 11 6d 1b c0 9a 19 a6 3f 4b db c3 3f 20 04 26 c0
       -2.428532 1.2976563 1.5301298 -2.5940018
0003a0 7c 56 84 3f e6 cc 1d 3f e1 c4 da 3e 98 ca 94 be
       1.0338893 0.61640775 0.42728332 -0.29060817
0003b0 1c b2 8a bf 2e a8 49 3f d1 99 74 3f 4d 85 b7 3f
       -1.0835605 0.78772247 0.95547205 1.4337555
0003c0 0f c8 b0 bf 58 cc 93 bf 8b 55 ea c0 0a 6a 9b bf
       -1.3811053 -1.1546736 -7.3229423 -1.2141736
0003d0 64 58 c5 bf f6 30 23 c1 28 6b 16 c1 2b f7 d2 c0
       -1.54176 -10.199453 -9.401161 -6.592672
0003e0 a2 ea b9 40 56 ea 4a c0 4f db ba c0 be ef f1 bf
       5.8098917 -3.1705527 -5.839271 -1.8901289
0003f0 e4 2c 8d 3f b0 df f6 3e 1a c1 c4 3e b3 63 2a c1
       1.1029325 0.48217535 0.38428575 -10.649341

2.bias f4 [24]
000000 18 e2 c4 be 37 60 50 bf 87 ee 7e 3f a1 f2 0a 40
       -0.38453746 -0.8139681 0.99582714 2.171059
000010 d9 d4 f6 3e 67 62 ac be e0 01 c9 bf 7a 2b af 3e
       0.48209265 -0.33668825 -1.5703697 0.34212857
000020 1f 4a c4 3f 95 c7 b4 3f 2f 68 fa bf 0f 5e 52 3f
       1.533512 1.4123408 -1.9563044 0.8217477
000030 dc 25 ae 40 2b db eb 3f 19 4d 8e 3e d7 7b 20 40
       5.4421215 1.842626 0.27793196 2.5075586
000040 de e8 40 40 73 a5 a7 bf 1e e9 a4 40 24 14 02 c0
       3.014213 -1.3097366 5.1534567 -2.0324793
000050 43 b2 7e 40 02 6b 46 bf 26 25 68 c0 8e 6d 00 c0
       3.9796302 -0.7750703 -3.6272674 -2.0066867

4.weight f4 [4, 24]
000000 14 28 41 41 23 de 87 c0 44 b3 ac bf 0e 6e 3f 3f
       12.072285 -4.2458663 -1.3492208 0.74777305
000010 e7 e0 b4 bf 2b 3a d8 bf cc 2e 45 c0 cb b0 bf 3e
       -1.4131135 -1.6892751 -3.0809813 0.3743957
000020 8c 85 a1 40 0c 6b 4f 40 0c aa 0e 40 58 31 61 40
       5.047552 3.2409086 2.2291288 3.5186367
000030 40 e9 35 40 ed d1 35 40 0f 0d 55 c0 99 4c ae 3f
       2.8423615 2.8409379 -3.328922 1.3617126
000040 56 2d 0f 40 11 f7 8a c0 7b d4 54 40 f5 90 84 c0
       2.237142 -4.3426595 3.3254688 -4.142695
000050 cd 9c 30 40 b1 e6 0d 41 1b cf 86 c0 90 29 1c 3e
       2.7595704 8.868821 -4.2127814 0.1525023
000060 73 cf f7 40 eb 72 e0 3e 89 8b 58 c0 67 55 1c 40
       7.7440734 0.43837675 -3.3835166 2.4427125
000070 e9 ff 09 41 51 e1 b9 40 fb 17 9c 3e a5 04 eb bf
       8.624978 5.8087544 0.30487046 -1.8360792
000080 3d d1 2b 41 9d 6e a5 3e 09 f3 64 40 67 0b 05 41
       10.738584 0.32310954 3.5773337 8.315284
000090 d6 14 e7 3f cd ae 15 3e 00 00 c4 3e 85 7a 68 c0
       1.8053234 0.14617462 0.3828125 -3.632478
0000a0 bc 90 0a 3f f7 45 5b c0 3b 21 1a 40 1c 60 f7 40
       0.541271 -3.4261453 2.4082782 7.730482
0000b0 c7 f0 65 40 12 bb 2a 40 d4 65 af be 7d dc 25 40
       3.592821 2.6676679 -0.34257376 2.5915825
0000c0 20 65 d2 bf 1a 80 cc 3f 99 a1 86 c0 ae 50 55 c0
       -1.6437111 1.5976593 -4.2072263 -3.3330493
0000d0 77 50 1e 41 84 a3 4e 40 c3 e0 ab c0 49 1c 2f c0
       9.894645 3.2287302 -5.3711867 -2.7361014
0000e0 47 5d 2d 40 6b 82 29 c0 cd c1 60 bf 8c d1 18 41
       2.7088182 -2.648585 -0.87795717 9.551159
0000f0 6d ac 50 40 a3 8c b8 3f 99 47 a7 be 63 ec 3f 3f
       3.260524 1.4417919 -0.32671812 0.7497007
000100 73 26 7e 40 e0 17 d8 3f 91 54 48 40 f4 26 02 41
       3.9710968 1.6882286 3.1301615 8.13451
000110 9e 78 21 40 da a7 0f 41 cd 1b bf 3e 62 df c2 3e
       2.522987 8.978479 0.37325898 0.38061053
000120 7d 58 dd 40 06 05 1c c0 c9 de 65 c0 ae b5 10 40
       6.917052 -2.4378066 -3.5917227 2.2610888
000130 07 17 8e 40 a3 93 3f c0 4a bb 68 3c 4f 46 1e bf
       4.440311 -2.993386 0.014204809 -0.6182603
000140 89 6c 6b 41 2f bd db bf 2d c6 1c 41 31 93 53 3f
       14.713998 -1.7167109 9.798383 0.8264647
000150 e6 06 0f 40 d2 23 bf 40 93 2b c3 c0 fa bb 2d 40
       2.234796 5.9731226 -6.099069 2.7145982
000160 7a df 87 40 5d 4c 52 c0 a3 b9 ed 3f 43 1b d4 be
       4.24603 -3.2859108 1.8572277 -0.4142705
000170 55 54 5b 3e fd 4e 0a 41 a3 a0 50 3f 7f f8 2d 40
       0.21418889 8.644284 0.8149511 2.718292

4.bias f4 [4]
000000 2c e5 d9 40 01 36 04 40 25 2c 43 40 3e a9 18 3e
       6.809225 2.0657961 3.0495694 0.14908311
