logs_400/logs/target_params_B_300.pt (torch, 6263 bytes, 6 tensors)

0.weight f4 [24, 12]
0.17161468 -0.21505901 -0.66999334 1.7632866 -2.244961 0.28964102 -0.2942146 0.20926183
-5.7738166 3.1426764 1.5697898 -0.30428654 0.4455871 0.70016485 0.3036002 1.4316317
0.5517298 -0.13558157 -0.545134 0.46904588 2.5426877 2.1662834 1.0178016 4.5340195
-0.057481542 2.1076827 0.47589582 -2.0092099 0.08015179 -0.88845557 0.5786296 -1.0636344
-9.157245 -6.886185 -4.316341 0.29650518 1.461005 2.4014394 -0.18074523 -0.6642568
-1.3898213 -2.2449799 -0.091249146 -0.18451063 -12.695744 -0.73125345 2.8433385 -1.0064887
1.8909876 0.15659021 -0.086164005 -0.32407582 -0.033711005 -0.08256471 0.13188106 -0.04670797
3.541025 -0.30732825 -0.19843228 -0.6163102 0.48732117 1.6815722 -0.32582024 -0.66855586
-0.45660326 -0.45648548 0.5474095 0.45756924 5.502826 -0.4429808 -1.5130733 0.665706
-0.12042618 1.7095515 -0.5919415 -2.6326098 1.5111917 1.8905988 -1.2211579 -0.27748203
1.350879 -1.3539473 1.8972125 -9.434019 1.2718098 1.1572008 -0.74452204 -0.14765123
-0.5744508 0.4408664 -1.0476266 0.27564564 -5.979796 -0.7187511 -8.109415 -1.339904
-1.8074292 1.9653924 -0.23036885 -1.617064 0.061693132 -0.04358738 0.28541985 1.473064
2.1376169 -2.3080807 -9.287545 1.5569618 0.7872207 0.7357769 0.015805624 -0.0339756
0.20042928 0.21019913 -0.78097767 -0.737892 -8.621063 -0.17936608 -9.375343 -3.6175895
-0.42458528 0.7296844 0.08112226 -3.0520077 -7.048803 -0.51597273 0.39656797 0.57931787
3.503901 -2.9951735 -4.522554 2.0712202 -0.5075262 -0.21418157 0.024418687 -0.29108196
-0.37843198 -0.21504043 -0.2090229 -0.31317538 -0.20084266 -0.27828324 0.009833147 0.45375073
1.0751914 -0.38489497 -3.5216508 -1.6167725 0.6054147 -5.142573 0.8832484 0.52909344
4.572666 -6.7112627 -9.097455 0.9759632 0.5978558 0.63878506 -0.2380774 -0.3221396
-0.85526687 -0.9384313 -0.5082735 -0.18442526 2.6350853 -0.3916906 -7.1907325 -1.791978
-0.12190367 -2.9092128 -0.45665663 -0.27879205 0.3502775 0.5806322 0.07706997 0.71968704
-3.3576064 -0.26029238 1.7415115 4.5742874 -0.028862748 -0.43696433 -0.8171455 -0.31722105
0.28733402 0.42239454 0.8945555 1.0389513 -5.8257403 0.93317264 3.20091 6.468272
0.5466532 -0.88695794 0.40529007 0.22372155 -0.1482579 -0.7196752 0.10763632 0.4355979
-3.5659888 -0.5462986 -0.83323544 1.4352896 2.3260586 1.8580822 -0.46718347 -0.6113279
0.6142779 -0.48781434 -1.137916 0.28583083 -1.834799 -1.3905675 -2.3360496 -5.6839952
-0.011911504 0.44709244 -0.90315074 -0.46975002 -0.26679844 -0.416878 0.38146403 0.64185184
6.3827243 -3.1047316 -0.5943154 -1.6374308 -1.6739306 -2.6822095 -0.3409486 0.37882623
0.1571191 0.0059516113 1.3207021 2.818499 -5.411177 -1.6070802 -0.7531443 -0.55255526
0.17287983 0.8852108 -0.14732389 -0.33533394 0.8930329 0.29306468 2.0344496 1.245426
-1.9583184 1.7961097 2.8576648 2.0767086 -3.3290231 1.0944253 1.0471234 0.3563607
00000000: c2bb 2f3e 6e38 5cbe af84 2bbf 60b3 e13f
00000010: 71ad 0fc0 d44b 943e 4ca3 96be bc48 563e
00000020: 1bc3 b8c0 9c21 4940 dfee c83f 72cb 9bbe
00000030: fe23 e43e 013e 333f 7c71 9b3e b53f b73f
00000040: 2a3e 0d3f e5d5 0abe e78d 0bbf c826 f03e
00000050: 65bb 2240 63a4 0a40 5347 823f b016 9140
00000060: c471 6bbd 46e4 0640 9ea8 f33e e596 00c0
00000070: 9f26 a43d d371 63bf 1221 143f 2c25 88bf
00000080: 1384 12c1 a15b dcc0 771f 8ac0 87cf 973e
00000090: 3602 bb3f 2fb1 1940 4715 39be bc0c 2abf
000000a0: aae5 b1bf c0ad 0fc0 d5e0 babd 5bf0 3cbe
000000b0: c421 4bc1 6d33 3bbf 42f9 3540 9fd4 80bf
000000c0: e20b f23f 2f59 203e c176 b0bd 44ed a5be
000000d0: 8d14 0abd b017 a9bd d40b 073e db50 3fbd
000000e0: 27a0 6240 215a 9dbe d531 4bbe 81c6 1dbf
000000f0: 2982 f93e c23d d73f e9d1 a6be 7a26 2bbf
00000100: e7c7 e9be 77b8 e9be 0723 0c3f 8446 ea3e
00000110: 2717 b040 61ce e2be 63ac c1bf b56b 2a3f
00000120: 00a2 f6bd 95d2 da3f 7a89 17bf ae7c 28c0
00000130: bb6e c13f 24ff f13f e74e 9cbf 2012 8ebe
00000140: 9ae9 ac3f 254e adbf dcd7 f23f bef1 16c1
00000150: aaca a23f 281f 943f ff98 3ebf e231 17be
00000160: 350f 13bf 3eb9 e13e a118 86bf 6d21 8d3e
00000170: 7d5a bfc0 1200 38bf 2ac0 01c1 f981 abbf
00000180: d759 e7bf fa91 fb3f d0e5 6bbe f4fb cebf
00000190: f0b1 7c3d ae88 32bd 8d22 923e 5c8d bc3f
000001a0: b7ce 0840 98b7 13c0 c999 14c1 864a c73f
000001b0: 4c87 493f e05b 3c3f cc7a 813c 002a 0bbd
000001c0: 553d 4d3e 713e 573e 27ee 47bf 7de6 3cbf
000001d0: e0ef 09c1 beab 37be 6801 16c1 9686 67c0
000001e0: 3e63 d9be 99cc 3a3f 6d23 a63d 1854 43c0
000001f0: cb8f e1c0 ca16 04bf f50a cb3e 2d4e 143f
00000200: ea3f 6040 ecb0 3fc0 c3b8 90c0 df8e 0440
00000210: 3ded 01bf 6a52 5bbe b309 c83c b208 95be
00000220: d6c1 c1be 8f33 5cbe 190a 56be 8658 a0be
00000230: b3a9 4dbe 247b 8ebe 351b 213c 0452 e83e
00000240: df9f 893f f410 c5be ba62 61c0 67f2 cebf
00000250: 75fc 1a3f f58f a4c0 911c 623f ab72 073f
00000260: 4853 9240 aac2 d6c0 2d8f 11c1 b9d8 793f
00000270: 140d 193f 6b87 233f 90ca 73be 7bef a4be
00000280: c5f2 5abf 093d 70bf 361e 02bf fad9 3cbe
00000290: 3da5 2840 ac8b c8be 7b1a e6c0 895f e5bf
000002a0: a2a8 f9bd 8b30 3ac0 e6ce e9be d5bd 8ebe
000002b0: 9357 b33e 50a4 143f dcd6 9d3d 693d 383f
000002c0: 06e3 56c0 0b45 85be d9e9 de3f 9060 9240
000002d0: 9271 ecbc cab9 dfbe 7330 51bf cc6a a2be
000002e0: 721d 933e 1944 d83e 9701 653f 5bfc 843f
000002f0: 776c bac0 67e4 6e3f b6db 4c40 16fc ce40
00000300: 77f1 0b3f ad0f 63bf 2e82 cf3e 4317 653e
00000310: ebd0 17be a23c 38bf 6e70 dc3d b006 df3e
00000320: 2939 64c0 3ada 0bbf eb4e 55bf 92b7 b73f
00000330: 25de 1440 a3d5 ed3f ac32 efbe fc7f 1cbf
00000340: 5141 1d3f cdc2 f9be 3ba7 91bf 6b58 923e
00000350: b2da eabf 1efe b1bf d681 15c0 4ae3 b5c0
00000360: 7828 43bc 4de9 e43e e334 67bf 1383 f0be
00000370: ce99 88be 0971 d5be 414f c33e 6750 243f
00000380: 473f cc40 ecb3 46c0 0e25 18bf 5597 d1bf
00000390: 5c43 d6bf 52a9 2bc0 d190 aebe 83f5 c13e
000003a0: d4e3 203e bc05 c33b c40c a93f 4a62 3440
000003b0: 5d28 adc0 ceb4 cdbf 11ce 40bf 4374 0dbf
000003c0: 6907 313e 2d9d 623f 13dc 16be e4b0 abbe
000003d0: ce9d 643f 930c 963e 6c34 0240 1f6a 9f3f
000003e0: 2daa fabf ece6 e53f fbe3 3640 cbe8 0440
000003f0: b70e 55c0 2116 8c3f 2408 863f e974 b63e

0.bias f4 [24]
2.5964427 -3.8977427 -0.05122747 -2.587531 -7.795289 -5.75775 -1.9256959 0.7937953
-1.4628748 2.4426508 -2.6226428 -0.47008508 -2.181504 3.807822 2.528361 -2.3385987
3.274174 -2.4041402 -3.2780344 2.5346692 -1.8332318 2.8375127 -1.960109 0.888929
00000000: 1e2c 2640 9e74 79c0 e5d3 51bd 1c9a 25c0
00000010: 0273 f9c0 7d3f b8c0 347d f6bf 2b36 4b3f
00000020: 7b3f bbbf 6454 1c40 61d9 27c0 feae f0be
00000030: c39d 0bc0 5bb3 7340 abd0 2140 9aab 15c0
00000040: 118c 5140 6fdd 19c0 51cb 51c0 0538 2240
00000050: 57a7 eabf cf99 3540 dae4 fabf da90 633f

2.weight f4 [24, 24]
0.12758213 0.82340467 2.5777636 0.9976168 4.0272746 0.5828974 1.0025473 0.291007
0.72407264 -1.1279575 5.4353266 -0.018114744 -1.6796242 2.7096632 0.8245227 -0.0018299856
0.53700584 0.686275 1.8182741 -2.0615723 0.9924475 -0.5515616 -0.34899715 1.6386595
-1.0913557 0.779562 -0.6321964 -1.7948178 1.8063928 0.5986207 -0.5031233 -1.0603905
-0.07624763 -5.6402035 -4.373253 -0.05355326 2.3180475 0.117910214 -5.193313 -3.9719715
-2.7128396 -1.3797232 -0.25482127 -4.1082683 -4.725636 -2.011 -0.68668693 0.48531315
0.70124686 -0.075423375 1.3722688 0.4960193 -13.138393 2.5737045 1.0859945 -0.37724108
-0.5259413 0.19374225 -0.45384112 0.11035913 -2.3850467 0.43671775 0.77140564 0.51455617
1.1923591 1.7300588 2.8782554 -0.21614227 0.29346877 0.58962613 0.009235289 0.7229117
-4.750301 -2.3613002 -5.8994713 -5.5516253 2.142139 -0.24478315 3.255398 -0.86293155
-2.7608685 -6.188732 -2.2136602 -0.06560066 2.671158 1.4555861 -0.5107346 -3.993086
-4.768484 3.2091281 0.426282 -2.6524453 -0.06091036 1.1425718 -2.7244017 1.1230288
0.06658078 -0.21313235 -0.18515858 0.04875845 -0.14170735 -0.3206311 -0.11232045 0.10010041
-0.04913996 -0.3113843 0.032507543 0.1886445 -0.026563033 -0.01896888 -0.42886874 -0.4496285
-0.3132486 -0.0034804947 -0.018901007 -0.35469282 -0.14921378 -0.1775523 -0.1006014 -0.14903653
-0.5416151 -0.2676522 0.025859345 -0.0036992892 -0.11542447 -0.2417327 -0.25383133 0.1933023
-0.04810394 -0.44273353 -0.14858156 0.08220199 -0.0035910038 -0.2926994 -0.23363666 -0.298846
-0.21618176 -0.23586626 0.1284632 -0.48206037 -0.12308339 -0.2587174 -0.07229765 0.047573753
-0.47252312 0.42818907 -2.7666905 -2.0061176 -8.138702 4.321341 -0.72812855 -1.6310667
2.1191156 -3.9768062 -4.729079 0.437449 4.8180456 -1.0363779 -2.3655207 1.6181467
1.257502 -0.8434732 -3.0620937 -10.386462 0.9313565 -0.84405625 0.83297503 2.832937
0.07582754 -0.3802599 -0.12884419 -0.23858269 0.08473836 -0.03508328 -0.12830983 0.044738986
-0.28636578 -0.085015096 0.11473077 -0.1950745 -0.12996952 -0.005311042 -0.28127474 -0.45217308
-0.3376478 -0.26448736 0.075466715 -0.4693392 -0.30317518 -0.09112475 -0.09447282 0.05325854
-0.8482499 -1.0898172 1.0561775 2.4604933 1.0931567 0.48566368 1.3503813 -5.645835
0.43056497 -3.2150555 -2.3444734 0.07156043 1.7825668 -0.6586943 -3.3143866 -1.607194
-8.428196 0.47651884 1.6605839 -4.6277633 -2.379727 -2.6399872 1.3765883 0.036947865
0.8155016 -0.40164965 2.6306784 0.797873 -3.3445518 1.7179377 0.4986966 -0.34972063
0.8687277 1.6459384 0.9569295 0.012437705 0.19649148 -2.01569 1.3800741 -2.663466
-1.4008856 2.2124197 -0.54882157 0.14463374 0.9739076 0.18906213 -0.3044701 -3.5455627
-3.3530216 -2.4736953 0.39508575 -2.3525343 0.1502396 0.49272975 -0.0007084727 -0.16780108
0.065663435 -1.3614914 -0.16808921 -0.14909124 -0.8701723 0.1373609 -2.4264853 -1.5984465
00000000: e4a4 023e a6ca 523f 14fa 2440 d163 7f3f
00000010: 6fdf 8040 c438 153f 7853 803f dffe 943e
00000020: d35c 393f e960 90bf 32ee ad40 5f65 94bc
00000030: edfd d6bf 1f6b 2d40 eb13 533f 21dc efba
00000040: 3779 093f b8af 2f3f 35bd e83f cdf0 03c0
00000050: 0a11 7e3f 2433 0dbf c1af b2be 98bf d13f
00000060: 8bb1 8bbf 6091 473f a0d7 21bf 97bc e5bf
00000070: e137 e73f 353f 193f b0cc 00bf e0ba 87bf
00000080: b827 9cbd 8c7c b4c0 b0f1 8bc0 aa5a 5bbd
00000090: e45a 1440 e97a f13d 9f2f a6c0 c834 7ec0
000000a0: 2a9f 2dc0 c59a b0bf ef77 82be ef76 83c0
000000b0: 6938 97c0 39b4 00c0 b7ca 2fbf f77a f83e
000000c0: ea84 333f 9277 9abd 81a6 af3f 3ef6 fd3e
000000d0: dc36 52c1 93b7 2440 de01 8b3f be25 c1be
000000e0: 17a4 06bf 5e64 463e dd5d e8be f803 e23d
000000f0: 9ba4 18c0 7899 df3e d77a 453f f4b9 033f
00000100: 399f 983f 9172 dd3f 5635 3840 6654 5dbe
00000110: 8a41 963e bdf1 163f 9c4f 173c be10 393f
00000120: 7702 98c0 8b1f 17c0 78c8 bcc0 eaa6 b1c0
00000130: ce18 0940 6fa8 7abe 7158 5040 15e9 5cbf
00000140: 12b2 30c0 180a c6c0 9cac 0dc0 a459 86bd
00000150: 41f4 2a40 a550 ba3f 81bf 02bf b98e 7fc0
00000160: 6c97 98c0 5b62 4d40 a241 da3e aac1 29c0
00000170: 247d 79bd cb3f 923f 995c 2ec0 68bf 8f3f
00000180: 815b 883d 5e3f 5abe 369a 3dbe f1b6 473d
00000190: bb1b 11be c229 a4be 4408 e6bd 7201 cd3d
000001a0: fc46 49bd c36d 9fbe a126 053d 062c 413e
000001b0: b89a d9bc a064 9bbc af94 dbbe b535 e6be
000001c0: 1f62 a0be 0319 64bb 49d6 9abc 4c9a b5be
000001d0: 7fcb 18be 45d0 35be 1b08 cebd 089d 18be
000001e0: 4aa7 0abf b609 89be fad6 d33c c66f 72bb
000001f0: aa63 ecbd c788 77be 2ef6 81be 0af1 453e
00000200: a308 45bd f8ad e2be c425 18be 8459 a83d
00000210: 0c57 6bbb b2dc 95be 733e 6fbe 5802 99be
00000220: c05e 5dbe ed86 71be db8b 033e 9ed0 f6be
00000230: 2513 fcbd 9b76 84be ca10 94bd b2dc 423d
00000240: 8dee f1be 993b db3e 7511 31c0 3b64 00c0
00000250: 2038 02c1 6d48 8a40 a266 3abf cbc6 d0bf
00000260: 979f 0740 fe83 7ec0 9d54 97c0 51f9 df3e
00000270: 6e2d 9a40 08a8 84bf b164 17c0 6e1f cf3f
00000280: d3f5 a03f dced 57bf 58f9 43c0 f32e 26c1
00000290: 616d 6e3f 1214 58bf da3d 553f d74e 3540
000002a0: 784b 9b3d 6db1 c2be bbef 03be 054f 74be
000002b0: 4e8b ad3d 7cb3 0fbd a763 03be 3a40 373d
000002c0: 899e 92be 651c aebd f7f7 ea3d 9cc1 47be
000002d0: bb16 05be 4008 aebb 3e03 90be 3b83 e7be
000002e0: 2ce0 acbe e36a 87be 4b8e 9a3d 3a4d f0be
000002f0: c739 9bbe 9d9f babd f77a c1bd a025 5a3d
00000300: e826 59bf 217f 8bbf d330 873f b978 1d40
00000310: 8fec 8b3f e9a8 f83e 4bd9 ac3f aeaa b4c0
00000320: 0373 dc3e 78c3 4dc0 da0b 16c0 468e 923d
00000330: 262b e43f 31a0 28bf e91e 54c0 88b8 cdbf
00000340: e4d9 06c1 47fa f33e 038e d43f a316 94c0
00000350: 724d 18c0 8df5 28c0 0c34 b03f a556 173d
00000360: b6c4 503f 06a5 cdbe 095d 2840 6841 4c3f
00000370: 230d 56c0 62e5 db3f 2955 ff3e 950e b3be
00000380: f064 5e3f 1cae d23f 55f9 743f 84c7 4b3c
00000390: 1035 493e 1101 01c0 45a6 b03f 3a76 2ac0
000003a0: 3850 b3bf 4998 0d40 927f 0cbf de1a 143e
000003b0: 0252 793f 8199 413e 81e3 9bbe 80ea 62c0
000003c0: e897 56c0 0651 1ec0 ae48 ca3e ec8f 16c0
000003d0: 69d8 193e 1347 fc3e ccb8 39ba 0cd4 2bbe
000003e0: 8d7a 863d 5a45 aebf 941f 2cbe 60ab 18be
000003f0: 9dc3 5ebf 56a8 0c3e 894b 1bc0 e599 ccbf

2.bias f4 [24]
2.7232172 -1.1740234 -2.5605423 -0.88543797 -0.37686038 -0.30222794 -3.267842 -0.025185907
-2.044955 0.06802187 -1.3274261 -2.7534373 0.51368576 -0.47005752 1.4891909 -2.686102
1.9334185 0.903585 -0.09561609 2.0889633 -1.0380636 -0.92586404 2.287242 0.03966432
00000000: 3149 2e40 6646 96bf eddf 23c0 10ac 62bf
00000010: d8f3 c0be 9fbd 9abe 5324 51c0 ad52 cebc
00000020: 8be0 02c0 0d4f 8b3d 19e9 a9bf 5138 30c0
00000030: e980 033f 61ab f0be cf9d be3f 18e9 2bc0
00000040: 427a f73f 5951 673f 5ed2 c3bd 93b1 0540
00000050: 45df 84bf 6d05 6dbf 2c62 1240 0e77 223d

4.weight f4 [4, 24]
2.7213995 1.2512523 -0.9142391 -2.3897045 0.012248069 -0.16628791 3.561309 -0.042783175
2.7192364 -3.7638671 -0.18354276 1.0591991 3.1144648 -0.41342264 -1.1739819 3.548258
0.5648193 0.61714154 -0.10445981 -0.16895063 -0.6890289 -0.84138405 -0.65844935 0.10521693
1.9752964 3.0612447 -2.0159707 -2.343982 0.108617455 -0.27714413 1.7129058 -0.055319216
0.85320586 -0.8479331 2.368431 4.477568 4.39721 -0.048117142 1.1587013 2.4683397
-1.9662071 2.1889877 0.25056592 -1.418716 2.1997976 2.1886132 -1.9786631 -0.16462943
1.5844178 0.7797455 0.42311028 -3.324756 0.11123453 0.098913215 1.7798846 0.007664085
1.0043917 -2.8273313 -0.057417568 2.6734948 5.3338027 0.17474526 -1.7712082 1.3991433
0.36722165 0.7439757 0.1261248 -0.702515 -0.021039393 0.066492245 -0.57989293 0.07833526
0.48988762 0.9880182 1.9145665 6.3801026 0.056764364 0.22164834 5.170994 -0.12920436
3.012053 -2.1241462 -2.6782541 3.5556684 -2.4030106 -0.31871083 1.3310883 2.5794222
-0.1870783 1.018129 -0.051662922 -1.3406636 -1.6236944 -1.7860143 -1.0299067 -0.07475153
00000000: 692b 2e40 0929 a03f 930b 6abf ebf0 18c0
00000010: 20ac 483c 6147 2abe 7dec 6340 693d 2fbd
00000020: f807 2e40 33e3 70c0 a2f2 3bbe d693 873f
00000030: 6453 4740 22ac d3be 0a45 96bf a916 6340
00000040: ff97 103f fdfc 1d3f 06ef d5bd 6501 2dbe
00000050: 3364 30bf f264 57bf 2390 28bf f97b d73d
00000060: 83d6 fc3f 6feb 4340 aa05 01c0 cd03 16c0
00000070: d472 de3d d6e5 8dbe 7f40 db3f 6796 62bd
00000080: b36b 5a3f 2512 59bf 6094 1740 3d48 8f40
00000090: f2b5 8c40 7b16 45bd 5350 943f 47f9 1d40
000000a0: adac fbbf 6018 0c40 2d4a 803e 7c98 b5bf
000000b0: 7cc9 0c40 3d12 0c40 d544 fdbf 9e94 28be
000000c0: 34ce ca3f 679d 473f e9a1 d83e cdc8 54c0
000000d0: eece e33d 0393 ca3d 42d3 e33f 0123 fb3b
000000e0: e88f 803f fff2 34c0 af2e 6bbd 8a1a 2b40
000000f0: 83ae aa40 6cf0 323e f3b6 e2bf 2117 b33f
00000100: 7a04 bc3e 3175 3e3f dc26 013e 06d8 33bf
00000110: ce5a acbc 162d 883d dd73 14bf 3d6e a03d
00000120: 8dd2 fa3e c3ee 7c3f 8410 f53f cd29 cc40
00000130: c081 683d c8f7 623e c878 a540 264e 04be
00000140: 7ac5 4040 03f2 07c0 8468 2bc0 1290 6340
00000150: edca 19c0 112e a3be 1a61 aa3f 4115 2540
00000160: 7491 3fbe 0d52 823f 809c 53bd dd9a abbf
00000170: 38d5 cfbf 1e9c e4bf fcd3 83bf 5517 99bd

4.bias f4 [4]
-2.960826 1.8241853 -2.479931 -0.9258028
00000000: 2c7e 3dc0 e77e e93f 31b7 1ec0 6a01 6dbf
