logs_400/logs/target_params_B_350.pt (torch, 6263 bytes, 6 tensors)

0.weight f4 [24, 12]
000000 2d dd d0 be b7 ea 94 be 8c 6b 3c bf 35 41 ff 3f
       -0.40793744 -0.29085323 -0.73601604 1.9941775
000010 01 f1 03 c0 cb 61 c6 3e a4 2a 5b bf 13 45 44 3f
       -2.0615847 0.38746485 -0.8561194 0.766679
000020 9c 79 bd c0 0a b3 54 40 08 aa cc 3f d9 5f 9a be
       -5.921095 3.3234277 1.598939 -0.3015125
000030 24 e0 16 3f 42 ca 2e 3f c2 ac d0 3e 61 c5 bb 3f
       0.5893576 0.6827737 0.40756804 1.466961
000040 1c c9 2b 3f b7 ce bf bd 56 6a 2e bf 58 08 ce 3e
       0.67103744 -0.093655996 -0.68131006 0.4024074
000050 cb 4b 15 40 4a b0 0b 40 73 31 83 3f e8 8f 8d 40
       2.332751 2.1826348 1.0249466 4.4238167
000060 26 b2 a7 3d 1a 41 08 40 bd 18 68 3f 72 3f fb bf
       0.08188276 2.1289735 0.9066275 -1.9628737
000070 83 ba 4b 3e 5f 03 71 bf e5 bf 81 3e 4c f5 2c bf
       0.19895367 -0.9414577 0.25341716 -0.67561793
000080 51 44 20 c1 43 4a 1f c1 9e 1a 94 c0 f6 1a ff bc
       -10.016679 -9.95563 -4.628249 -0.031140786
000090 96 df b3 3f 6b 03 17 40 84 17 61 bd 6b 64 0a bf
       1.4052608 2.3595836 -0.054954067 -0.54059476
0000a0 ef d2 c2 bf 13 07 13 c0 98 8d 17 be cf ba 88 bb
       -1.5220622 -2.2973068 -0.14800107 -0.00417266
0000b0 bc 90 49 c1 c3 fb cc be d6 23 43 40 3e 10 12 bf
       -12.597836 -0.4003583 3.0490623 -0.57056034
0000c0 d6 65 e1 3f 82 86 54 3e 09 91 4b bd 54 bc 90 be
       1.7609203 0.20754436 -0.049698863 -0.28268683
0000d0 a1 5c 34 bd b1 0e 8d bd 7d fd 47 3e 65 41 08 bd
       -0.04403365 -0.06887568 0.19530292 -0.03326549
0000e0 cb 16 60 40 29 bd f0 bd 8d 63 16 3e aa c9 f9 be
       3.5013912 -0.117548294 0.14686413 -0.4878667
0000f0 f7 10 c9 3e c0 ca d0 3f b7 89 bf be 3e 96 e7 be
       0.39270756 1.6311874 -0.37409756 -0.45231813
000100 ed a5 0f bf 03 0a c0 be 41 3f 08 3f 65 67 d6 3e
       -0.5611256 -0.37507638 0.5322152 0.4187576
000110 44 03 b5 40 c3 33 40 bf ea 9c ab bf b4 b1 1a 3f
       5.6566486 -0.7507898 -1.3407261 0.60427403
000120 75 d0 6b bd db a8 c8 3f 54 10 a3 be 23 ef 13 c0
       -0.057571847 1.5676531 -0.31848395 -2.3114707
000130 2e 85 cc 3f 23 08 d5 3f 56 fb 86 bf 51 8a 8e 3e
       1.5978143 1.6643108 -1.0545452 0.27839902
000140 56 50 f8 be 26 cc 68 c0 8b 65 0d 40 d5 e6 27 c1
       -0.4849879 -3.6374602 2.2093227 -10.493855
000150 18 aa 97 3f fb 9a 94 3f 45 99 48 bf 42 0e 35 be
       1.1848783 1.1609796 -0.7835887 -0.1768122
000160 31 30 ee be 66 cf e9 3e 11 74 82 bf 83 cc 14 3f
       -0.46521142 0.45666045 -1.0191671 0.5812456
000170 70 05 c3 c0 d9 6b 8d bf 3b 04 07 c1 8b 73 c0 bf
       -6.0944138 -1.1048537 -8.438533 -1.5035261
000180 c0 c0 00 c0 a0 d6 ed 3f 29 e0 64 be 99 fe ce bf
       -2.0117645 1.8581123 -0.22351135 -1.6171447
000190 9c 92 25 3d e1 cd 2c be f7 bd a5 3d 18 b0 b7 3f
       0.04042302 -0.16875412 0.080928735 1.4350615
0001a0 19 43 1d 40 96 17 3c c0 39 cf 14 c1 13 9a a7 3f
       2.4572203 -2.9389396 -9.300591 1.3093895
0001b0 25 e4 60 3f 56 60 2d 3f b1 eb 32 3d 18 03 ee 3a
       0.8784812 0.6772512 0.043681804 0.0018158881
0001c0 77 65 d4 3d 1f b0 2b 3e 77 61 5b bf 98 bd 4a bf
       0.103709154 0.16766404 -0.85695595 -0.7919555
0001d0 e0 ef 09 c1 b5 42 7f bd 68 01 16 c1 b4 0f 72 c0
       -8.621063 -0.062319476 -9.375343 -3.7822084
0001e0 1f a0 3a bf 05 7a 12 3f 87 de 36 be c5 05 58 c0
       -0.72900575 0.5721744 -0.17858325 -3.3753521
0001f0 cb 8f e1 c0 4d 77 4e bf ce 10 44 3e 4c 2b 95 3e
       -7.048803 -0.8065079 0.19147035 0.29134595
000200 62 2d 35 40 03 b0 3f c0 c3 b8 90 c0 5b 95 0e 40
       2.830895 -2.995118 -4.522554 2.227866
000210 3d ed 01 bf 6a 52 5b be b3 09 c8 3c b2 08 95 be
       -0.5075262 -0.21418157 0.024418687 -0.29108196
000220 d6 c1 c1 be 8f 33 5c be 19 0a 56 be 86 58 a0 be
       -0.37843198 -0.21504043 -0.2090229 -0.31317538
000230 b3 a9 4d be 24 7b 8e be 35 1b 21 3c 04 52 e8 3e
       -0.20084266 -0.27828324 0.009833147 0.45375073
000240 b1 f8 61 3f ee f1 7c be 7b 3c 59 c0 55 5e ae bf
       0.882701 -0.24701664 -3.3943164 -1.3622538
000250 11 26 02 3f 27 16 a1 c0 1c b2 9a 3e 6d 97 ea 3e
       0.50839335 -5.033954 0.30214012 0.45818654
000260 7a 21 ac 40 aa c2 d6 c0 2d 8f 11 c1 bf 37 a4 3f
       5.3790865 -6.7112627 -9.097455 1.2829512
000270 70 81 dc 3e 14 a4 2b 3f c3 02 ef bd 9c 28 a4 be
       0.43067503 0.6704724 -0.11670449 -0.32062232
000280 79 e3 6b bf ea d3 01 bf fd 4d 03 bf 44 ac 9b be
       -0.9214397 -0.5071398 -0.51290876 -0.30404866
000290 be 2b 09 40 f1 d4 1b bf 12 d7 f6 c0 e1 86 1f c0
       2.1432948 -0.608718 -7.7137537 -2.4926074
0002a0 4a 7d 59 3d 88 83 21 c0 10 f8 af be b8 f2 d5 be
       0.053098 -2.523653 -0.34368944 -0.41786742
0002b0 c3 17 e3 3e 60 13 49 3f d2 18 41 bd 3d 26 1b 3e
       0.44354066 0.7854519 -0.04714281 0.15151305
0002c0 c6 01 d7 c0 ab 35 f0 bd dd 6e fa 3f 24 2c 95 40
       -6.7189665 -0.11728986 1.9565083 4.6616383
0002d0 74 3c f5 bc 31 c1 5b be 1b c5 4a bf ff 2f c0 be
       -0.029936053 -0.21460415 -0.7920701 -0.37536618
0002e0 1a b0 a2 3e 94 72 c0 3e 6f 2d 6a 3f a7 bf 73 3f
       0.3177498 0.37587416 0.91475576 0.95214313
0002f0 02 c7 d0 c0 7c ef 12 3f 9a 19 48 40 45 34 d0 40
       -6.524293 0.57396674 3.1265626 6.5063806
000300 94 1b f0 3e 82 c2 77 bf ad 83 fb 3e 36 6d d0 3d
       0.4689604 -0.9678117 0.49123898 0.1017708
000310 49 3d 02 be 55 49 21 bf 35 fc 2a 3e 93 74 94 3e
       -0.12718691 -0.6300252 0.16697772 0.2899519
000320 2d 69 52 c0 ff f0 d0 be f9 f1 38 bf 31 c3 de 3f
       -3.2876694 -0.40808865 -0.7224422 1.7403318
000330 64 37 1b 40 cb ff e3 3f 7a a8 cc be ea 8b 2d bf
       2.4252558 1.7812437 -0.39972287 -0.67791617
000340 e8 79 ea 3e 9b ee 8f be 2f af 88 bf 39 5f d2 3d
       0.45796132 -0.2811173 -1.0678462 0.102720685
000350 7d 7c c3 bf 76 d5 fc bf 2d c6 05 c0 d0 01 b4 c0
       -1.5272366 -1.9752643 -2.0902207 -5.6252213
000360 cd 55 e2 3c 7f a7 55 3f df 07 64 bf 7c c1 e1 be
       0.027628804 0.83458704 -0.8907451 -0.4409293
000370 3e 3e 6a be ab be ff be d0 6f 3b 3d d6 e3 59 3f
       -0.22875306 -0.49950156 0.04576093 0.85113275
000380 8d 90 d7 40 9f d3 0d c0 a3 ff 05 bf a5 4b c2 bf
       6.7363954 -2.2160413 -0.52343196 -1.5179335
000390 af 19 d2 bf 29 8c 29 c0 be df 51 be 9d d7 87 3e
       -1.6414088 -2.6491797 -0.20495507 0.26531687
0003a0 10 77 49 3e ae 36 2c 3d 22 91 94 3f 8a 33 41 40
       0.19674325 0.042044334 1.1606791 3.0187707
0003b0 71 65 94 c0 33 0d ee bf 81 8f 1d bf 0b 3a 57 be
       -4.637383 -1.8597778 -0.61547095 -0.21018235
0003c0 0f 7c a1 3e db f1 7e 3f ba 18 60 be 5d d8 d2 be
       0.31539962 0.9958779 -0.21884432 -0.41180697
0003d0 9c e7 4c 3f 92 37 65 3e e3 b7 00 40 21 a9 9a 3f
       0.8004091 0.2238448 2.0112236 1.2082864
0003e0 e7 d8 00 c0 57 d9 c3 3f dc c1 22 40 59 59 0f 40
       -2.0132387 1.5300702 2.5430822 2.2398283
0003f0 9d 7c 4f c0 ef e8 82 3f 31 bb 83 3f 3c 43 d0 3e
       -3.2419808 1.0227336 1.0291501 0.40676296

0.bias f4 [24]
000000 1c e8 19 40 54 29 72 c0 64 c9 99 3c e8 eb 24 c0
       2.4047918 -3.7837725 0.018772788 -2.5768986
000010 76 e7 fd c0 86 23 bc c0 77 33 03 c0 25 aa 2c 3f
       -7.9345045 -5.8793364 -2.0500162 0.6744712
000020 92 ce c9 bf cb d5 25 40 9b 98 3d c0 fe ae f0 be
       -1.5766165 2.591174 -2.9624393 -0.47008508
000030 52 f0 19 c0 25 52 82 40 d6 b3 31 40 8b d2 2b c0
       -2.405293 4.0725274 2.7766013 -2.6847255
000040 35 6f 53 40 ec 29 1a c0 95 fc 4d c0 52 62 2f 40
       3.3036625 -2.4088087 -3.2185414 2.740376
000050 e8 64 e9 bf a5 c8 3f 40 07 c1 ef bf ec a6 94 3f
       -1.8233919 2.9966214 -1.8730782 1.161344

2.weight f4 [24, 24]
000000 6c 53 fc 3d f2 ed 2c 3f cd b3 2a 40 e0 7b 2e 3f
       0.12320599 0.67550576 2.6672242 0.6815777
000010 e2 d5 81 40 c7 d5 e6 3e 86 ee 5d 3f dd 1a 90 bc
       4.0573587 0.45084974 0.8669208 -0.017590934
000020 f6 f4 02 3f 71 61 85 bf 86 62 b2 40 5f 65 94 bc
       0.5115503 -1.0420362 5.574527 -0.018114744
000030 ce f2 cf bf 5c a8 32 40 15 c6 b5 3f 71 f7 0c be
       -1.6245973 2.7915258 1.4201075 -0.13766266
000040 37 76 f0 3e 57 7f 10 3f 2f 5e 15 40 8f af 0e c0
       0.4696519 0.56444305 2.3338735 -2.2294652
000050 28 9e 69 3f 21 bb f3 be 08 46 6b be 49 b6 b7 3f
       0.9125695 -0.47603706 -0.22975934 1.4352504
000060 8b b1 8b bf 4e a6 22 3f a0 d7 21 bf 97 bc e5 bf
       -1.0913557 0.6353501 -0.6321964 -1.7948178
000070 e1 37 e7 3f c1 30 07 3f b0 cc 00 bf e0 ba 87 bf
       1.8063928 0.5280877 -0.5031233 -1.0603905
000080 b8 27 9c bd 8c 7c b4 c0 b0 f1 8b c0 aa 5a 5b bd
       -0.07624763 -5.6402035 -4.373253 -0.05355326
000090 e4 5a 14 40 fb 54 1b bd 9f 2f a6 c0 c8 34 7e c0
       2.3180475 -0.03792284 -5.193313 -3.9719715
0000a0 47 c8 30 c0 c5 9a b0 bf ef 77 82 be ef 76 83 c0
       -2.762224 -1.3797232 -0.25482127 -4.1082683
0000b0 59 3c 98 c0 39 b4 00 c0 80 cd 5c bf 40 8f aa 3e
       -4.7573667 -2.011 -0.8625107 0.33312416
0000c0 ea a3 4c 3f 06 f2 34 be 9b d0 c5 3f 84 a1 23 3f
       0.79937613 -0.1767045 1.5454286 0.6391833
0000d0 ea 42 4f c1 78 39 2f 40 27 4e cb 3e 78 88 18 bf
       -12.953836 2.7378826 0.39708063 -0.59583235
0000e0 f2 16 23 bf a3 a4 12 3f 8a 46 d9 bd f8 03 e2 3d
       -0.63706887 0.57282466 -0.106091574 0.11035913
0000f0 ad 6e 29 c0 e8 e1 83 3e 79 37 d8 3e 38 85 b6 3e
       -2.64738 0.2575829 0.42229822 0.35648513
000100 22 b5 8d 3f 98 7a c4 3f c5 24 50 40 74 54 08 3e
       1.1070902 1.5349913 3.2522442 0.13313466
000110 1d 93 9a 3e 36 6f 2a 3f f7 cf 07 be b4 e4 1f 3f
       0.30190364 0.66575944 -0.13262926 0.6245835
000120 62 eb 98 c0 fe ee 16 c0 6f 8a dc c0 82 b4 ad c0
       -4.7787333 -2.358337 -6.8918986 -5.4282846
000130 e1 96 9c 3f f2 f9 af be f4 49 59 40 bc 7c 95 bf
       1.2233545 -0.3437038 3.3951387 -1.1678691
000140 0b 7b 20 c0 98 f0 c8 c0 11 ec 17 c0 a4 59 86 bd
       -2.50751 -6.2793694 -2.3737833 -0.06560066
000150 f0 e1 29 40 13 16 7d 3f 49 5a fc be 25 84 4c c0
       2.6544151 0.9886181 -0.49287632 -3.1955655
000160 20 3c a1 c0 f4 43 61 40 1b 30 34 be b7 85 36 c0
       -5.0385895 3.5197725 -0.17596476 -2.8519113
000170 79 02 26 3c 31 02 ee bc 28 a4 1c c0 26 38 98 3f
       0.010132425 -0.02905378 -2.4475193 1.1892135
000180 81 5b 88 3d 5e 3f 5a be 36 9a 3d be f1 b6 47 3d
       0.06658078 -0.21313235 -0.18515858 0.04875845
000190 bb 1b 11 be c2 29 a4 be 44 08 e6 bd 72 01 cd 3d
       -0.14170735 -0.3206311 -0.11232045 0.10010041
0001a0 fc 46 49 bd c3 6d 9f be a1 26 05 3d 06 2c 41 3e
       -0.04913996 -0.3113843 0.032507543 0.1886445
0001b0 b8 9a d9 bc a0 64 9b bc af 94 db be b5 35 e6 be
       -0.026563033 -0.01896888 -0.42886874 -0.4496285
0001c0 1f 62 a0 be 03 19 64 bb 49 d6 9a bc 4c 9a b5 be
       -0.3132486 -0.0034804947 -0.018901007 -0.35469282
0001d0 7f cb 18 be 45 d0 35 be 1b 08 ce bd 08 9d 18 be
       -0.14921378 -0.1775523 -0.1006014 -0.14903653
0001e0 4a a7 0a bf b6 09 89 be fa d6 d3 3c c6 6f 72 bb
       -0.5416151 -0.2676522 0.025859345 -0.0036992892
0001f0 aa 63 ec bd c7 88 77 be 2e f6 81 be 0a f1 45 3e
       -0.11542447 -0.2417327 -0.25383133 0.1933023
000200 a3 08 45 bd f8 ad e2 be c4 25 18 be 84 59 a8 3d
       -0.04810394 -0.44273353 -0.14858156 0.08220199
000210 0c 57 6b bb b2 dc 95 be 73 3e 6f be 58 02 99 be
       -0.0035910038 -0.2926994 -0.23363666 -0.298846
000220 c0 5e 5d be ed 86 71 be db 8b 03 3e 9e d0 f6 be
       -0.21618176 -0.23586626 0.1284632 -0.48206037
000230 25 13 fc bd 9b 76 84 be ca 10 94 bd b2 dc 42 3d
       -0.12308339 -0.2587174 -0.07229765 0.047573753
000240 54 97 b7 be 45 f6 fc 3e d0 3c 35 c0 30 bb f4 bf
       -0.35857642 0.4940664 -2.8318367 -1.9119625
000250 cd 41 00 c1 0c 66 80 40 5f 0a 6c bf d9 e3 ed bf
       -8.016065 4.012457 -0.92203325 -1.8585159
000260 c9 e2 f4 3f eb 72 85 c0 18 01 8f c0 51 f9 df 3e
       1.9131709 -4.170278 -4.4688835 0.437449
000270 b7 9e 97 40 31 43 63 bf 05 d6 ea bf 4b 24 f2 3f
       4.7381244 -0.887744 -1.8346564 1.8917326
000280 6f f3 9a 3f c5 bd 04 bf 02 66 5e c0 47 5f 20 c1
       1.210554 -0.51852065 -3.474976 -10.023261
000290 4c e4 83 3f 0a 14 38 bf b8 a2 73 3f c6 89 29 40
       1.0304046 -0.7190558 0.95170164 2.649034
0002a0 78 4b 9b 3d 6d b1 c2 be bb ef 03 be 05 4f 74 be
       0.07582754 -0.3802599 -0.12884419 -0.23858269
0002b0 4e 8b ad 3d 7c b3 0f bd a7 63 03 be 3a 40 37 3d
       0.08473836 -0.03508328 -0.12830983 0.044738986
0002c0 89 9e 92 be 65 1c ae bd f7 f7 ea 3d 9c c1 47 be
       -0.28636578 -0.085015096 0.11473077 -0.1950745
0002d0 bb 16 05 be 40 08 ae bb 3e 03 90 be 3b 83 e7 be
       -0.12996952 -0.005311042 -0.28127474 -0.45217308
0002e0 2c e0 ac be e3 6a 87 be 4b 8e 9a 3d 3a 4d f0 be
       -0.3376478 -0.26448736 0.075466715 -0.4693392
0002f0 c7 39 9b be 9d 9f ba bd f7 7a c1 bd a0 25 5a 3d
       -0.30317518 -0.09112475 -0.09447282 0.05325854
000300 5b 7b fa bf 19 13 86 bf 9b 4e 70 3f 0d e2 01 40
       -1.9568895 -1.0474578 0.9386994 2.029422
000310 96 f6 09 3f f2 76 49 3f 0f d5 70 3f 9f 82 c3 c0
       0.53891885 0.7869712 0.940751 -6.109695
000320 e6 89 c0 3f 78 c3 4d c0 4e 7a 1b c0 46 8e 92 3d
       1.5042083 -3.2150555 -2.42934 0.07156043
000330 26 2b e4 3f 57 5b f7 be e9 1e 54 c0 88 b8 cd bf
       1.7825668 -0.48311874 -3.3143866 -1.607194
000340 01 b3 0c c1 36 1e 90 bd bb 48 04 40 a3 16 94 c0
       -8.793702 -0.07037012 2.066939 -4.6277633
000350 8a 97 2d c0 92 d8 0f bf 59 6f f1 3f 8d c9 46 bd
       -2.7123742 -0.56189835 1.8862106 -0.048532058
000360 fc 79 71 3f 97 bb 18 bf 04 a8 33 40 1a 7b 27 3f
       0.9432676 -0.5966124 2.8071299 0.65422213
000370 51 4f 42 c0 0b b5 ec 3f 9f 27 b0 3e 0e 8c a6 be
       -3.036091 1.849275 0.34405228 -0.32528728
000380 09 97 7f 3f 74 81 d0 3f 0b 33 17 3f 84 c7 4b 3c
       0.99839836 1.6289506 0.5906226 0.012437705
000390 e4 b2 95 3e 24 63 06 c0 97 b4 a0 3f 92 fd 1a c0
       0.29238045 -2.099801 1.2555112 -2.4217267
0003a0 7c 9e b1 bf ff 71 e1 3f bf 3e 73 3f 69 d0 0f bc
       -1.387649 1.7612914 0.9501762 -0.008777716
0003b0 39 ab 70 3f 32 7c b6 3e 36 fb fa be 9e 59 5c c0
       0.94011265 0.35641629 -0.49019784 -3.4429698
0003c0 e8 97 56 c0 06 51 1e c0 ae 48 ca 3e ec 8f 16 c0
       -3.3530216 -2.4736953 0.39508575 -2.3525343
0003d0 69 d8 19 3e 13 47 fc 3e cc b8 39 ba 0c d4 2b be
       0.1502396 0.49272975 -0.0007084727 -0.16780108
0003e0 8d 7a 86 3d 5a 45 ae bf 94 1f 2c be 60 ab 18 be
       0.065663435 -1.3614914 -0.16808921 -0.14909124
0003f0 9d c3 5e bf 56 a8 0c 3e 89 4b 1b c0 e5 99 cc bf
       -0.8701723 0.1373609 -2.4264853 -1.5984465

2.bias f4 [24]
000000 cf 8e 38 40 33 c3 a5 bf 20 9a 2a c0 15 fb 79 bf
       2.8837163 -1.2950195 -2.665657 -0.97648746
000010 d8 f3 c0 be 9f bd 9a be 72 7a 59 c0 ad 52 ce bc
       -0.37686038 -0.30222794 -3.3980985 -0.025185907
000020 52 dd fb bf 12 68 d1 be 19 e9 a9 bf 5d 2c 20 c0
       -1.9676917 -0.40899712 -1.3274261 -2.5027077
000030 30 a3 b8 3d 61 ab f0 be d6 b1 fe 3f 91 af 52 c0
       0.090155005 -0.47005752 1.9898021 -3.2919657
000040 2f a4 15 40 a1 60 6a 3f 5e d2 c3 bd a7 90 02 40
       2.338146 0.91553694 -0.09561609 2.0400789
000050 ae 86 7f bf 6d 05 6d bf ee 1a 23 40 0e 77 22 3d
       -0.9981488 -0.92586404 2.5485187 0.03966432

4.weight f4 [4, 24]
000000 8c ae 28 40 09 29 a0 3f 0c 78 51 bf 5d bc 6e c0
       2.6356535 1.2512523 -0.818238 -3.7302468
000010 20 ac 48 3c 61 47 2a be 10 69 55 40 69 3d 2f bd
       0.012248069 -0.16628791 3.3345375 -0.042783175
000020 cb 5f 1a 40 e2 ca 5b c0 a2 f2 3b be 4f 35 88 3f
       2.4120967 -3.434258 -0.18354276 1.0641268
000030 ff f5 a8 40 22 ac d3 be 6b 55 f4 be f2 57 4e 40
       5.280029 -0.41342264 -0.4772142 3.2241178
000040 d2 e1 0c 3f 7c 46 12 3f 06 ef d5 bd b2 b2 eb bd
       0.55032074 0.571388 -0.10445981 -0.11508693
000050 33 64 30 bf f2 64 57 bf 8c e1 45 bf f9 7b d7 3d
       -0.6890289 -0.84138405 -0.7729728 0.10521693
000060 98 97 f1 3f 6f eb 43 40 e7 be fb bf f1 9d 0c c0
       1.8874388 3.0612447 -1.9667634 -2.19714
000070 d4 72 de 3d d6 e5 8d be 6a 18 ce 3f 67 96 62 bd
       0.108617455 -0.27714413 1.61012 -0.055319216
000080 6d 3c 79 bf b7 08 28 3c 60 94 17 40 71 ce 87 40
       -0.9735783 0.010255984 2.368431 4.2439504
000090 95 c4 80 40 7b 16 45 bd fa be 9f 3f ff f2 49 40
       4.023997 -0.048117142 1.2480156 3.1554563
0000a0 d2 d9 fe bf c4 83 0c 40 2d 4a 80 3e b4 b8 93 bf
       -1.9910223 2.1955423 0.25056592 -1.1540742
0000b0 ae a9 a7 3f 3d 12 0c 40 83 bc 2e c0 9e 94 28 be
       1.3098657 2.1886132 -2.7302558 -0.16462943
0000c0 4e 92 dd 3f 67 9d 47 3f 7f 18 3c 3e 1c db 48 c0
       1.7310274 0.7797455 0.1836872 -3.1383734
0000d0 ee ce e3 3d 03 93 ca 3d 98 01 f7 3f 01 23 fb 3b
       0.11123453 0.098913215 1.9297361 0.007664085
0000e0 95 e8 78 3f ba e6 22 c0 af 2e 6b bd 79 f7 11 40
       0.9722989 -2.5453324 -0.057417568 2.2807295
0000f0 0e be b2 40 6c f0 32 3e 77 5e 83 c0 c3 b9 30 40
       5.5857 0.17474526 -4.1052814 2.761338
000100 7e b3 96 3e 20 07 35 3f dc 26 01 3e f0 7b 0f bf
       0.29433817 0.70713997 0.1261248 -0.5604849
000110 32 87 96 bf 16 2d 88 3d ba 16 14 bf 3d 6e a0 3d
       -1.1760008 0.066492245 -0.5784718 0.07833526
000120 84 e2 be 3e b4 58 76 3f 46 83 ea 3f 63 c5 cd 40
       0.37282193 0.962291 1.8321311 6.430345
000130 c0 81 68 3d c8 f7 62 3e b7 eb a3 40 26 4e 04 be
       0.056764364 0.22164834 5.122524 -0.12920436
000140 1d 3d 5c 40 29 4b c0 bf 84 68 2b c0 f3 00 6c 40
       3.44123 -1.5022937 -2.6782541 3.687558
000150 68 0e 4d c0 11 2e a3 be a0 ab 0b 3e 9d 8a da be
       -3.2040043 -0.31871083 0.13639688 -0.4268388
000160 ef 3a 0f be 9d e3 81 3f 80 9c 53 bd ba a8 96 bf
       -0.13987325 1.0147587 -0.051662922 -1.1770241
000170 5d 11 00 c0 1e 9c e4 bf fa 1a 7b bf 55 17 99 bd
       -2.0010598 -1.7860143 -0.9808804 -0.07475153

4.bias f4 [4]
000000 a4 b4 2a c0 24 4e e5 3f af 54 10 c0 9b f7 6a bf
       -2.6672754 1.7914472 -2.2551687 -0.91784066
